TemporalContextAggregation/models/TCA_T5_K2/model.pth.tar (torch, 252097 bytes, 18 tensors)

pool_layer_before.clusters f4 [512, 1]
0	0xbd4bcc7d	-0.049755562
1	0xbd509977	-0.050927605
2	0xbc357033	-0.011074114
3	0xbc9d14b6	-0.019174915
4	0x3d19a20b	0.03750805
5	0x3cfa88b9	0.030582773
6	0xbc64d154	-0.013965923
7	0xbdbf72a3	-0.09348037
8	0x3c695a1a	0.014242673
9	0xbd64b022	-0.055832036
10	0x3c7d6a36	0.015467217
11	0x3c5f1ce0	0.013617724
12	0x3bad8c8e	0.0052962964
13	0x3d600a3e	0.054697268
14	0x3d4a2884	0.049355045
15	0xbc330c6b	-0.010928254
16	0xbd74db42	-0.059779413
17	0xbd997f88	-0.07495028
18	0x3ccd2642	0.025042657
19	0x3d0fa3ee	0.035068445
20	0x3cd8cd94	0.026465215
21	0xbd8cc04a	-0.06872614
22	0xbc772bdc	-0.0150861405
23	0x3da7b708	0.08189207
24	0x3d07cc7e	0.033154003
25	0xbcd3f906	-0.02587558
26	0xbbfb1af6	-0.007663126
27	0x3c04da2b	0.008108656
28	0x3d7b808c	0.06140189
29	0x3d8f941e	0.07010673
30	0x3d2b4c5d	0.041820873
31	0xbd18b8c8	-0.037285596
32	0xbcde240c	-0.027116798
33	0x3ab70134	0.001396215
34	0xbcb25e3d	-0.021773452
35	0x3c33df1a	0.0109784845
36	0x3c9f2fd8	0.019431993
37	0x3ba2c9ee	0.0049679196
38	0x3ce7fdda	0.028319288
39	0x3c9fb733	0.019496536
40	0xbb942903	-0.0045214905
41	0x3d0f729b	0.035021406
42	0xbc51bde7	-0.012801624
43	0x3b1813f3	0.002320525
44	0x3cbd4bb3	0.023107385
45	0x3dd05f31	0.10174406
46	0xbd84f2f8	-0.06491655
47	0xbd8f9c55	-0.0701224
48	0xbcf3af40	-0.029746652
49	0x3d1dffd4	0.038574055
50	0x3d3f0a44	0.04664065
51	0x3c00c5ca	0.007859657
52	0xbc26c7dc	-0.010179486
53	0xbc8dd48a	-0.01731326
54	0x3cc4b196	0.02401046
55	0xbc8f0ff4	-0.017463662
56	0xbca18c41	-0.019720199
57	0x3d06aea0	0.03288138
58	0x3d89a9d1	0.06721843
59	0x3e1a577c	0.15072435
60	0xbd8a9644	-0.06766942
61	0xbd5f66fd	-0.054541577
62	0x3da4b3e6	0.080421254
63	0xbcc7acba	-0.024374355
64	0xbcce16fe	-0.025157448
65	0x3d268859	0.040657375
66	0x3d491446	0.0490916
67	0x3d697dfd	0.057004917
68	0xbd85c9fe	-0.065326676
69	0x3de85c01	0.11345673
70	0xbcab49a4	-0.020909138
71	0x3c72f6f6	0.014829388
72	0xbd937842	-0.07200672
73	0xbcc70749	-0.024295466
74	0xbcadb7f3	-0.021205878
75	0xbcb4e76f	-0.022083012
76	0xbd4124e2	-0.047154315
77	0x3d49d35c	0.049273834
78	0xbbcbb6c8	-0.0062168576
79	0x3d11db63	0.035609614
80	0xbb872ec4	-0.004125448
81	0x3cf8bd1e	0.030363616
82	0xbd17c054	-0.037048653
83	0x38254fbc	3.9413324e-05
84	0x3d18662c	0.037206814
85	0xbc90d3ed	-0.01767918
86	0x3d3c29a8	0.045938164
87	0x3c81aa4f	0.01582828
88	0xbc321fab	-0.010871808
89	0x3dd06666	0.10175781
90	0xbdaa4fa2	-0.0831597
91	0xbb10065c	-0.0021976447
92	0xbd3d294d	-0.046181966
93	0xbd2d2528	-0.042271763
94	0x3ac23cbe	0.0014819128
95	0x3d008a16	0.03138169
96	0x3d94f785	0.07273773
97	0xbd763785	-0.06011154
98	0x3c797df4	0.0152277835
99	0x3cbc3654	0.022975124
100	0xbdec87ec	-0.115493625
101	0xbd998c1e	-0.07497428
102	0xbc2543c4	-0.010086957
103	0x3c4ab586	0.01237238
104	0x3c32cb37	0.010912708
105	0x3b5eb045	0.0033979577
106	0x3c74be0a	0.014937887
107	0x3ca482d1	0.02008191
108	0x3ca56e14	0.02019409
109	0xbd1ca621	-0.03824437
110	0x3d0d6e8d	0.034529258
111	0xbd27c44d	-0.04095869
112	0xbc1e73d8	-0.009671174
113	0xbddc659e	-0.107615694
114	0xbb532f06	-0.0032224073
115	0xbac4decc	-0.0015020012
116	0x3d2e3c03	0.0425377
117	0x3c7cd327	0.015431202
118	0xbd26cd6c	-0.04072325
119	0xbb22c1ea	-0.002483482
120	0xbce170e1	-0.027519645
121	0xbca7e2a7	-0.020493818
122	0x3dadf09c	0.08493158
123	0xbc91bcaf	-0.017790167
124	0x3bb36e11	0.0054757674
125	0x3d52d92c	0.051476642
126	0x3d272601	0.040807728
127	0x3d7b2094	0.061310366
128	0xbd1fe879	-0.039040063
129	0xbc97a9b2	-0.018513534
130	0xbd11b06d	-0.035568643
131	0x3cccc5c6	0.02499665
132	0x3cdcf9c0	0.026974559
133	0x3ca907a7	0.020633532
134	0x3db08da7	0.08620768
135	0xbd4070ff	-0.04698276
136	0xbb5ff595	-0.0034173478
137	0x3ba89031	0.005144142
138	0xbcd70c32	-0.026250932
139	0xbd612cd0	-0.054974377
140	0xbb93d88e	-0.0045118993
141	0xbd3b179d	-0.045676816
142	0xbc625feb	-0.013816814
143	0x3c31f7bb	0.010862286
144	0xbc3c0025	-0.011474644
145	0x3bab5ecf	0.005229808
146	0x3c30a536	0.010781577
147	0x3d52d0b3	0.051468562
148	0x3c50f392	0.012753384
149	0x3c8bf69d	0.017085368
150	0xbc1195f9	-0.008885854
151	0xbbaac6ca	-0.005211686
152	0x3c0b2abf	0.008494078
153	0xbd0bc67c	-0.034124836
154	0xbdabffe7	-0.08398419
155	0x3bbd3dbc	0.0057751816
156	0xbcfefb4d	-0.031125689
157	0x3c63e1df	0.013908832
158	0x3be3ede3	0.0069558485
159	0x3c8b8426	0.017030787
160	0x3d2f1273	0.042742204
161	0xbd3367b7	-0.043800082
162	0x3c5a62ba	0.013329202
163	0xbb9b6959	-0.004742783
164	0x3d34bd6d	0.044125963
165	0xbcb48dd5	-0.022040287
166	0x3d09c69a	0.033636667
167	0x3cdfd94c	0.027325295
168	0x3c63653c	0.013879117
169	0x3c1a7837	0.0094280755
170	0xbbadda28	-0.0053055473
171	0x3c828017	0.015930219
172	0xbc6362b8	-0.013878517
173	0xbd43445b	-0.04767261
174	0x3c2e5d8d	0.010642421
175	0xbd7cbe7f	-0.06170511
176	0xbb3f92d9	-0.0029231815
177	0xbc81bd07	-0.015837206
178	0xbd8d5620	-0.06901193
179	0xbc806503	-0.015673166
180	0x3d43b1ee	0.04777711
181	0x3bbe668b	0.005810564
182	0x3d8e6ba1	0.06954122
183	0x3d0d7435	0.03453465
184	0xbd434209	-0.047670398
185	0xbd027fa5	-0.031860013
186	0x3d851ef7	0.06500047
187	0x3c4794c0	0.012181461
188	0x3cf16689	0.029467838
189	0xbd3400f6	-0.04394623
190	0xbd574c41	-0.052562956
191	0xbd587d6f	-0.052853998
192	0xbcca9b94	-0.024732389
193	0x3cc1232e	0.023576345
194	0x3c934f06	0.017982017
195	0x3c8edb07	0.017438425
196	0x3bf85fd9	0.0075797853
197	0x3d1e94bf	0.038716074
198	0xbc4fdf9d	-0.012687591
199	0x3d38efc5	0.045150537
200	0xbb577880	-0.003287822
201	0xbd45b6ae	-0.04826992
202	0x3c8dedc1	0.017325284
203	0x3cd73dcf	0.02627459
204	0x3cefc4d1	0.029268654
205	0xbd5a5d33	-0.053311538
206	0x3cdbeaaa	0.026845295
207	0xbcc61788	-0.024181142
208	0x3d53fd5f	0.051755305
209	0x3b8d3082	0.004308761
210	0x3d2e63b1	0.042575542
211	0x3d181d60	0.03713739
212	0xbd62ef8d	-0.055404235
213	0x3d32a2ec	0.043612406
214	0xbcb31592	-0.021860871
215	0xbd68416f	-0.056703027
216	0x3d2ce9e3	0.04221524
217	0x3d685a35	0.056726653
218	0xbcf11146	-0.029427182
219	0x3ccc99aa	0.024975616
220	0x3c5051cb	0.012714813
221	0xbac153d0	-0.001474971
222	0xbd4038eb	-0.04692928
223	0xbba5b4f1	-0.0050569703
224	0xbc789a07	-0.015173442
225	0x3d8e36f4	0.06944075
226	0x3c0abe76	0.008468261
227	0x3c898dbb	0.016791215
228	0xbbd1a16d	-0.0063974173
229	0x3ce6d7a1	0.028178992
230	0xbc4bad07	-0.01243139
231	0xbd70bbad	-0.05877273
232	0xbbcda752	-0.0062760497
233	0xbcc161a5	-0.02360613
234	0xbcbd7bc3	-0.023130303
235	0x3d1bf2ed	0.03807347
236	0xbd208eb7	-0.039198603
237	0x3d17d59d	0.037068952
238	0x3d50b241	0.050951246
239	0xbd9f657b	-0.07783028
240	0xbd85c000	-0.06530762
241	0xbd9ee7bc	-0.077590436
242	0x3b5c99bf	0.0033660976
243	0xbd433f81	-0.047667984
244	0x3d825d69	0.06365473
245	0xbba02851	-0.0048876186
246	0x3cd0d881	0.025493862
247	0xbbf4fd81	-0.007476509
248	0xbb396f93	-0.0028295263
249	0x3d3bf9a0	0.045892358
250	0x3d242710	0.040076315
251	0xbcac2787	-0.021014942
252	0xbd1d9f15	-0.03848179
253	0x3bd19c2f	0.0063967924
254	0x3dac3a16	0.084095165
255	0x3c8d569f	0.017253218

pool_layer_before.clusters2 f4 [1, 512, 1]
0	0x3e103461	0.14082481
1	0xbfa9a6a2	-1.3253977
2	0xbbd12efc	-0.006383775
3	0x3ca033d1	0.019555958
4	0xbcca4ca7	-0.024694754
5	0xbc3a8d78	-0.011386268
6	0xbbe74a25	-0.0070583993
7	0x38b90d00	8.823909e-05
8	0x3cdb2bde	0.026754316
9	0x3c4845ea	0.0122237
10	0xbc8302a3	-0.015992468
11	0xbca0de37	-0.01963721
12	0xbc70630c	-0.014672052
13	0xbc1ada40	-0.009451449
14	0xbae3df19	-0.0017385214
15	0xbada9eb8	-0.0016679382
16	0xbb6799a7	-0.0035339387
17	0x3c1337e0	0.00898549
18	0x3c297e4d	0.010345054
19	0xbac25bbb	-0.0014828363
20	0x3ba442b8	0.0050128363
21	0xbc54c592	-0.012986558
22	0xbc6a8eb0	-0.014316246
23	0x3b60fb00	0.0034329295
24	0xbc15e2a8	-0.009148277
25	0xbd0dc9c3	-0.034616243
26	0x3ba4f6f0	0.00503432
27	0x3c1b3a19	0.009474301
28	0xb96e8f82	-0.0002275091
29	0x3ba1b674	0.00493508
30	0x3b4a4f4c	0.0030870019
31	0x3b08e357	0.0020887458
32	0x3c2dcd57	0.010608039
33	0xbb50c867	-0.003185773
34	0x3c65175d	0.013982621
35	0x3a1f8d73	0.0006086446
36	0xbc193da5	-0.009353076
37	0x3b0efbcc	0.0021817563
38	0x3c07dca9	0.008292356
39	0xbabd9c14	-0.001446607
40	0x3c1a41ad	0.009415072
41	0xbc6f73b3	-0.014614987
42	0xbc37ab6a	-0.011210302
43	0x3b453e6f	0.0030097028
44	0xbc15f1b0	-0.009151861
45	0xbc0d31de	-0.008617846
46	0x3b9c792e	0.004775188
47	0x3c638a20	0.013887912
48	0xbb3ac70d	-0.0028499991
49	0x3c800fd0	0.01563254
50	0xbbe31d68	-0.0069309957
51	0x3c291f6c	0.010322433
52	0xb8c1f7d9	-9.2491224e-05
53	0x3b8031f1	0.0039122035
54	0x3a12a89e	0.0005594584
55	0xbc01e7a8	-0.007928766
56	0x3ab84a5d	0.0014060248
57	0xbc29a814	-0.010355014
58	0xbc3644a0	-0.01112476
59	0xba9eb2bc	-0.001210771
60	0xbb8fafc7	-0.004384968
61	0xbc07b704	-0.00828338
62	0x3ca55310	0.020181209
63	0xbb1ce0c3	-0.002393768
64	0x3c0f5dc3	0.008750382
65	0x3a50c4c8	0.0007963893
66	0x3b78bd91	0.0037954787
67	0xbc448a00	-0.011995792
68	0x3b6e4cba	0.003636165
69	0x3b84341b	0.004034532
70	0xbaebb0f7	-0.0017981817
71	0xb9fd31ee	-0.0004829312
72	0x3bc7f402	0.006102086
73	0xbc4f3199	-0.012646102
74	0x3b104841	0.0022015723
75	0xbbafb805	-0.005362513
76	0x3bfa9e2a	0.007648249
77	0x3b153783	0.0022768683
78	0x3c5fd127	0.013660706
79	0x3c1f447c	0.009720918
80	0x3c0289a5	0.007967387
81	0x39a2dcba	0.00031063502
82	0x3c17bafd	0.00926089
83	0xbbc2e294	-0.0059474204
84	0xba4cc84b	-0.00078118284
85	0xbc075894	-0.008260865
86	0xbb4c9271	-0.0031215216
87	0xb9d2cac1	-0.00040205385
88	0x3b392692	0.002825175
89	0x3b1a71a8	0.002356628
90	0x3baee38e	0.005337185
91	0xbc3d47c7	-0.011552758
92	0x3c27dda8	0.010245718
93	0xbbd11530	-0.0063806996
94	0x39ce18fc	0.00039309997
95	0x3b8590b3	0.0040760874
96	0x3bb2f1d4	0.005460957
97	0xbc019bed	-0.007910711
98	0x3c84cde4	0.016211458
99	0xbb513efc	-0.003192841
100	0x3a79d509	0.0009530341
101	0x39b47cc7	0.00034425242
102	0xbc15e635	-0.009149124
103	0xbbb5a2a1	-0.0055430685
104	0x3b8a4cbf	0.0042205746
105	0xbc063876	-0.008192172
106	0x3af7e2db	0.0018912213
107	0x3b8c70ed	0.0042859227
108	0x3b328f78	0.0027246159
109	0xba668a6d	-0.0008794431
110	0x3b9a5d5d	0.004710837
111	0xbbc19e66	-0.005908775
112	0xbc45b437	-0.012066892
113	0x3995e586	0.00028590503
114	0xbdd822ac	-0.10553488
115	0xbcab3848	-0.02090086
116	0xbbf6e878	-0.0075350367
117	0x3cd86482	0.026415113
118	0x39a27755	0.00030987957
119	0xbbba9fff	-0.0056953426
120	0xbbed6be6	-0.0072455285
121	0xbac02359	-0.0014658972
122	0x3bda3a26	0.006659764
123	0xbb4cbfb5	-0.0031242196
124	0xba799c63	-0.00095218996
125	0x3bb873ef	0.0056290547
126	0x3b72c4ab	0.0037043493
127	0xba9a7970	-0.0011785459
128	0xbb06747f	-0.0020516214
129	0xbde6125f	-0.11233973
130	0x3baf8304	0.0053561945
131	0xbb997ed0	-0.0046843067
132	0xbad19825	-0.0015990777
133	0x3bd34061	0.0064468835
134	0x3bf36290	0.007427521
135	0xbc014871	-0.0078908065
136	0x3cf0ba62	0.02938575
137	0x3c176140	0.009239495
138	0x3ac07d82	0.0014685842
139	0xba0f6a31	-0.0005470841
140	0xbc86ccf6	-0.016455155
141	0x3bac1e06	0.0052526025
142	0x3b9cdbf1	0.0047869612
143	0x3b9782eb	0.004623761
144	0xbddf9dd6	-0.10918777
145	0x3bfde02c	0.0077476706
146	0xbb5c4a5e	-0.0033613662
147	0x39af80d9	0.000334746
148	0xbb98cd49	-0.004663144
149	0x3bebc117	0.007194649
150	0xbb61cf39	-0.003445579
151	0xbbe94dbe	-0.0071198633
152	0xbb6c5cd1	-0.0036066065
153	0xbe1ce689	-0.15322317
154	0xbb142908	-0.0022607464
155	0xbc60fdb6	-0.013732364
156	0x3c95a594	0.01826743
157	0xbd1ba25c	-0.037996635
158	0x39656ce6	0.0002187971
159	0xbaec4a72	-0.0018027558
160	0xbbaa50f1	-0.0051976372
161	0x3a5804f5	0.0008240485
162	0xbbe0da45	-0.0068619573
163	0xbc998eb1	-0.018744798
164	0xbb9c3fbe	-0.004768341
165	0x3d38662b	0.04501931
166	0xbbae911c	-0.005327357
167	0x3bd25048	0.0064182617
168	0xbb3b4ee1	-0.002858095
169	0x3bb41096	0.0054951413
170	0xbb60bbfa	-0.003429173
171	0x3c1dda41	0.009634555
172	0x3bd5d737	0.0065258997
173	0x3bc98438	0.006149795
174	0xbb53f55c	-0.003234229
175	0x3cd5afcf	0.026084809
176	0x3beca2a5	0.007221537
177	0x3c2aec9d	0.01043239
178	0xbcaa14ff	-0.020761965
179	0xba9e60d5	-0.0012083302
180	0xbc34f82b	-0.011045496
181	0xbcf584be	-0.029970523
182	0xbc03417f	-0.008011221
183	0x3b951ecf	0.004550792
184	0xbc108553	-0.0088208495
185	0xbb28e438	-0.0025770795
186	0xbbf4dc67	-0.007472563
187	0x39a34b27	0.00031145776
188	0x3c35b90c	0.011091482
189	0xbdecae65	-0.115567006
190	0x3e21613d	0.1575975
191	0xbc297b62	-0.010344358
192	0x3b6735b7	0.003527982
193	0x3bd10073	0.0063782274
194	0x3c26f4ad	0.010190171
195	0xbdb5b94e	-0.08873235
196	0xbc631aaf	-0.013861342
197	0x3a5e0c89	0.0008470496
198	0x3dbba820	0.09162927
199	0x3d9d6f48	0.07687241
200	0x3b84d389	0.0040535373
201	0x3c70f3fd	0.014706609
202	0xbdb16b78	-0.08663076
203	0x3d75b02b	0.05998246
204	0xbd4c9686	-0.049948238
205	0xbaf20473	-0.0018464461
206	0xbc30e937	-0.01079779
207	0xbb793617	-0.0038026625
208	0x3b675937	0.003530098
209	0x3b4f5c0a	0.0031640553
210	0xbd48f300	-0.049059868
211	0x3ca2ac2e	0.019857492
212	0xbbfb1966	-0.00766294
213	0xbb2e0333	-0.00265522
214	0x3d886400	0.066596985
215	0x3c2d78b0	0.010587856
216	0x3a99243a	0.001168377
217	0xbb09ab7a	-0.002100675
218	0x3d399966	0.045312308
219	0xbac96fff	-0.001536846
220	0x3ca5e3e9	0.020250278
221	0xbc713f7e	-0.01472461
222	0x3dc040e1	0.09387375
223	0xbb89d1c8	-0.004205916
224	0x3ca36c0d	0.019948984
225	0xbb1eda29	-0.002423892
226	0x3c677656	0.014127335
227	0x3ccd92eb	0.02509447
228	0xbc8a6287	-0.016892685
229	0xbd8c5ea8	-0.06853992
230	0x3da9550f	0.08268177
231	0xbc56822c	-0.013092559
232	0xbda57987	-0.0807982
233	0xbbda6dee	-0.0066659367
234	0xbd7b1699	-0.061300848
235	0x3c8e5a97	0.017377181
236	0x3a49214f	0.0007672505
237	0x3c466521	0.012109072
238	0x3dc26383	0.094916366
239	0x3d2bb9da	0.04192529
240	0x3ad6477d	0.001634821
241	0x3dd67fe2	0.104736105
242	0x3c0333d6	0.008007964
243	0x3c0906e1	0.008363456
244	0xbd2c6392	-0.042087145
245	0x3c97cdb5	0.018530706
246	0xbd882cc7	-0.066491656
247	0x3c5c155f	0.01343283
248	0xbe07809e	-0.13232657
249	0xbbf177da	-0.0073690237
250	0x3bd025b4	0.006352151
251	0xbd035a23	-0.032068383
252	0xbc164730	-0.009172246
253	0x3ceffc37	0.02929507
254	0x3b7049f2	0.0036665169
255	0xbc63ff8d	-0.0139159085

pool_layer_after.clusters f4 [512, 1]
0	0xbd443d69	-0.047910128
1	0xbbba6ec0	-0.005689472
2	0xbcf6938a	-0.030099649
3	0xbd6d1dd3	-0.05788977
4	0x3cef0b02	0.029180054
5	0xbd7f9c56	-0.062404953
6	0x3da60c1d	0.08107779
7	0x3ca52901	0.020161154
8	0x3c471cf1	0.012152896
9	0x3c104b4a	0.008807013
10	0x3b9e035f	0.004822179
11	0xbd189958	-0.037255615
12	0x3cdb1846	0.026744973
13	0x3d6e856c	0.05823271
14	0x3d41df60	0.047332168
15	0xbd5d2770	-0.05399269
16	0x3ce3ac67	0.027792169
17	0x3d3772bd	0.044787157
18	0xbd10b67a	-0.035330273
19	0xbbb5fcb4	-0.005553806
20	0x3cf4b619	0.029871987
21	0x3d1c2123	0.03811754
22	0x3da2a0a2	0.079407945
23	0xbd8876df	-0.06663298
24	0x3b52b4d1	0.0032151232
25	0xbdcf7e19	-0.10131473
26	0x3cc275cf	0.023737816
27	0x3cf6cba3	0.030126398
28	0xbd876ec5	-0.066129245
29	0xbd31d8d6	-0.04341968
30	0x3d020b0d	0.03174882
31	0x3c9f5fae	0.019454803
32	0xbccb6e48	-0.02483286
33	0x3cf0602a	0.02934273
34	0xbdbe5f0b	-0.09295472
35	0x3d1ee240	0.038789988
36	0xbc2bbe2a	-0.01048235
37	0x3d8db699	0.06919593
38	0xbd4f2299	-0.050570104
39	0xbdf10e64	-0.11770323
40	0x3dc04a41	0.09389163
41	0x3d7b2a7a	0.061319806
42	0x3d12e746	0.03586509
43	0x3bebefec	0.007200232
44	0xbcf33e18	-0.029692695
45	0xbd993819	-0.07481403
46	0xbd429520	-0.047505498
47	0x3d1aa6fe	0.037756912
48	0xbcd620da	-0.026138712
49	0x3c99abc1	0.018758656
50	0xbd607c68	-0.054806143
51	0xbb4cb00e	-0.0031232866
52	0xbb370c34	-0.0027930858
53	0x3cd65130	0.02616176
54	0xbca14f6c	-0.019691192
55	0xbd5ca8b6	-0.053871833
56	0xbd8c64e7	-0.06855183
57	0x3cab0574	0.020876624
58	0xbdf7f00f	-0.121063344
59	0x3a95ec11	0.0011438151
60	0xbc0e173a	-0.00867253
61	0xbd0d9145	-0.034562368
62	0xbdc1c11c	-0.09460661
63	0x3c71a72e	0.014749331
64	0xbd4b4806	-0.049629234
65	0x3ce0d090	0.0274432
66	0xbd1ea4f3	-0.038731527
67	0xbda0907c	-0.07840058
68	0xbd12b197	-0.035813894
69	0xbd8596be	-0.065228924
70	0x3cf17d20	0.02947861
71	0x3cf22203	0.029557234
72	0xbb59c97c	-0.0033231666
73	0x3bedef11	0.007261165
74	0x3a9f4c85	0.0012153542
75	0x3cd27569	0.025690751
76	0x3c2a258e	0.01038493
77	0x3d41fe3c	0.047361597
78	0xbcbd4c2d	-0.023107613
79	0xbd029145	-0.03187682
80	0xbc1504a2	-0.009095343
81	0xbd12670b	-0.0357428
82	0x3ca839c8	0.020535365
83	0x3c8dbb25	0.017301152
84	0xbd72acd9	-0.05924687
85	0x3d0982b6	0.03357192
86	0x3d03eced	0.032208372
87	0xbb41494c	-0.0029493151
88	0x3cc941ba	0.024567474
89	0xbd7ece84	-0.062208667
90	0x3ba0349a	0.004889083
91	0x3acbd4d8	0.0015551103
92	0xbccc645b	-0.024950197
93	0x3d25caf0	0.04047674
94	0x3c587c70	0.013213262
95	0x3c003a59	0.007826411
96	0xbc79071b	-0.015199448
97	0x3c25e31e	0.01012495
98	0x3c9e1177	0.019295437
99	0x3c43a1ac	0.011940401
100	0xbc10f9cd	-0.00884862
101	0x3d385a85	0.0450082
102	0xbc96f21b	-0.018425992
103	0xbab2489d	-0.0013601963
104	0xbd323b7e	-0.043513767
105	0x3c128973	0.008943903
106	0x3c967912	0.018368278
107	0xbd59e54a	-0.053197183
108	0xbbc1097e	-0.005891024
109	0xbc5472e5	-0.012966846
110	0x3ca84f47	0.020545615
111	0x3cd09fd3	0.025466835
112	0xbb2757e1	-0.0025534558
113	0x3d5411bf	0.051774736
114	0xbd897048	-0.06710869
115	0x3b09a85d	0.0021004893
116	0xb9eefc3f	-0.00045582835
117	0x3d81e9ac	0.063433975
118	0x3c36497d	0.011125919
119	0x3d061a6e	0.03274005
120	0xbd46c952	-0.048531838
121	0x3be028b1	0.0068407883
122	0xbd7d393f	-0.061822172
123	0x3aec5c6e	0.0018032917
124	0xbd4a464f	-0.049383458
125	0x3cfe7e1b	0.031065991
126	0xbcf1a6fe	-0.029498573
127	0x3bb592ad	0.0055411668
128	0x3c928551	0.017885836
129	0xbced1c62	-0.028944198
130	0x3b16f7c6	0.0023035868
131	0x3c7639f7	0.015028468
132	0xbc19ce49	-0.009387561
133	0x3d8d7584	0.0690718
134	0xbd24369d	-0.040091146
135	0xbd8dc141	-0.06921626
136	0x3b0c9be8	0.0021455232
137	0x3d33d7f0	0.043907106
138	0x3dbfb26b	0.093602024
139	0xbc044be9	-0.008074739
140	0xbd0c9fc2	-0.034332044
141	0x3da0c8a6	0.07850771
142	0xbcb634cc	-0.022241972
143	0x3b23dc83	0.0025003261
144	0xbcc66dc8	-0.02422227
145	0xbcfa6f1a	-0.030570555
146	0xbced7a66	-0.028989028
147	0x3cfb9703	0.030711656
148	0xbca917e2	-0.020641271
149	0xbbf33942	-0.007422597
150	0x3d094c63	0.033520114
151	0x3d57100a	0.05250553
152	0xbce4405d	-0.027862722
153	0xbb3d6f69	-0.0028905517
154	0x3ce00718	0.027347133
155	0x3db53264	0.08847502
156	0x3c55c66c	0.013047796
157	0x3cc060ea	0.023483712
158	0xbcbd3d40	-0.023100495
159	0x3b900f4c	0.004396355
160	0xbba9439c	-0.0051655304
161	0x3c86f9fe	0.016476627
162	0xbd38d6a3	-0.04512657
163	0x3d436776	0.04770609
164	0x3d4f9cb7	0.050686564
165	0xbbfaf42f	-0.0076585035
166	0x3b38879c	0.0028157001
167	0xbd65e122	-0.056122907
168	0xbce0e348	-0.027452126
169	0xbc2c62ab	-0.010521571
170	0x3b812f55	0.00394241
171	0x3da2fc49	0.07958276
172	0xbdbab0ce	-0.09115754
173	0x3c6946a8	0.014238037
174	0xbd4e3013	-0.050338816
175	0x3d60ca04	0.054880157
176	0xbd8973f8	-0.067115724
177	0x3d5950ad	0.053055454
178	0xbca127f8	-0.019672379
179	0x3b0fe24a	0.0021954947
180	0xbbfb6476	-0.007671888
181	0x3d0ad6c3	0.03389622
182	0x3cdfbf6f	0.027312962
183	0x3dfc8396	0.123297855
184	0x3c9c9746	0.019115102
185	0x3dc0d36f	0.09415328
186	0x3de6cce8	0.112695515
187	0x3c58ae81	0.013225199
188	0xbcd3553f	-0.025797484
189	0x3c6bacc8	0.014384456
190	0x3bc0f8c1	0.005889029
191	0x3bb4d9b7	0.0055191177
192	0xbd876617	-0.06611269
193	0x3a533698	0.00080571463
194	0x3c7a3da7	0.015273488
195	0x3ab4c3d8	0.0013791276
196	0x3c90f4f2	0.017694924
197	0x3c9a2485	0.018816242
198	0x3d17f805	0.037101764
199	0x3d6045e0	0.054754138
200	0x3cbdac9d	0.023153597
201	0xbd961942	-0.07329036
202	0x3cc684b8	0.024233207
203	0xbd7d1f86	-0.06179764
204	0xbdb2e275	-0.087345995
205	0x3d5f1ac8	0.0544689
206	0xbcc584f1	-0.024111243
207	0xbb490b4a	-0.0030676895
208	0x3d048cea	0.03236095
209	0xbbd9b498	-0.006643843
210	0xbd00012e	-0.031251125
211	0x3ca94089	0.020660656
212	0x3c49c8b8	0.0123159215
213	0x3d71c89e	0.059029214
214	0x3d512248	0.051058084
215	0xbb230e6e	-0.0024880427
216	0x3c9be63a	0.019030679
217	0xbd28d3a8	-0.041217476
218	0xbd883ef5	-0.06652633
219	0x3b959e7e	0.004566013
220	0x3d89b7b2	0.0672449
221	0x3c8452fd	0.016152853
222	0x3d8154f1	0.063150294
223	0x3c83e716	0.016101401
224	0x3d9865e7	0.07441311
225	0x3d36f1a0	0.044664025
226	0x3ce1265f	0.027484117
227	0x3dcec99a	0.10097046
228	0x3d8e8b4b	0.06960162
229	0xbc60d5f9	-0.01372289
230	0x3d8760a0	0.06610227
231	0x3d35a120	0.044343114
232	0xbd821b22	-0.063528314
233	0x3af9a57f	0.0019046514
234	0xbd94f018	-0.07272357
235	0xbd849077	-0.06472867
236	0x3c7d8708	0.0154740885
237	0xbb995e13	-0.004680404
238	0xbd060b39	-0.032725547
239	0x3d51907a	0.051163174
240	0x3d82a3ba	0.063788846
241	0x3c0fa7fb	0.008768077
242	0xbd480f15	-0.04884251
243	0xbdb860ec	-0.090028614
244	0x3dc0ac8e	0.09407912
245	0xbc140aee	-0.009035809
246	0x3ca99a25	0.020703385
247	0x3d59e14a	0.053193368
248	0x3c6306bc	0.013856586
249	0x3d8f7cf3	0.07006254
250	0x3d1f2047	0.03884914
251	0x3df8e713	0.12153449
252	0xbcbc5f8e	-0.022994783
253	0xbdcf56a8	-0.1012395
254	0xbd2ebf2a	-0.042662777
255	0xbdab69a5	-0.083697595

pool_layer_after.clusters2 f4 [1, 512, 1]
0	0x3c09986d	0.008398158
1	0x3d7399ea	0.059472956
2	0x3ddc9b93	0.10771861
3	0x3d37f396	0.044910036
4	0xbde53f04	-0.1119366
5	0x3d46c56a	0.048528112
6	0xbcb308a5	-0.021854708
7	0xbcc02d23	-0.023459023
8	0x3d8523ce	0.0650097
9	0x3ccb20b6	0.024795871
10	0xbcaad812	-0.020854983
11	0xbc8dd1e3	-0.017311996
12	0xbcb826b0	-0.022479385
13	0xbc494579	-0.01228463
14	0xbcc10a7b	-0.023564568
15	0xbc36cce5	-0.011157249
16	0xbca59a1f	-0.020215092
17	0x3c134741	0.008989156
18	0x3aad4e21	0.0013222137
19	0x3c090722	0.008363517
20	0x3c1f01da	0.009705031
21	0xbc37bccf	-0.011214449
22	0xbb48849e	-0.0030596624
23	0x3c10b696	0.008832594
24	0x3b513e88	0.003192814
25	0x3b9d48ea	0.004799952
26	0xbb9787fc	-0.004624365
27	0xba5cce06	-0.0008423034
28	0xbbd9a605	-0.0066421055
29	0xbb4024ae	-0.0029318738
30	0x3bf3b8f9	0.007437822
31	0x3bdb8cde	0.0067001423
32	0x3b9d6669	0.004803468
33	0x3b79e400	0.0038130283
34	0xbb1576f4	-0.0022806497
35	0xbb8dcd4f	-0.004327453
36	0xbc504fba	-0.012714321
37	0xba648d18	-0.00087185344
38	0xbb56e6f2	-0.0032791463
39	0x3ab4eee2	0.0013804103
40	0x3b051055	0.0020303924
41	0xba39fb25	-0.00070946134
42	0x3b3d4a14	0.0028883265
43	0x3b2575ab	0.0025247138
44	0x3ba028f1	0.004887693
45	0x3b4eda30	0.0031563155
46	0x3b9516a6	0.004549819
47	0xbc62c7de	-0.013841597
48	0x3c46b98e	0.012129201
49	0x3ab6a041	0.0013933257
50	0xbc0b4272	-0.0084997285
51	0xbbdc240a	-0.0067181634
52	0xba1b6488	-0.0005927761
53	0x3bd97116	0.0066357953
54	0x3b968dd6	0.004594545
55	0xbb7ea1dc	-0.00388538
56	0xbba3409a	-0.0049820663
57	0x3b010c33	0.001969111
58	0xbb475e1b	-0.0030421081
59	0x3b16a1d3	0.0022984638
60	0xbc26c783	-0.010179403
61	0xbb9b9663	-0.004748152
62	0x3af9b78b	0.0019051892
63	0x3bf80dca	0.007570003
64	0x3acc2a39	0.0015576548
65	0xbbbaeef3	-0.0057047545
66	0x3b021e1a	0.0019854368
67	0xbb956194	-0.0045587514
68	0xbbbe9fd0	-0.005817391
69	0x3b6107d9	0.0034336953
70	0x3ba15f0a	0.0049246596
71	0x3ba0d3cc	0.0049080607
72	0xba29369e	-0.0006454977
73	0xbb575213	-0.0032855317
74	0xbc057c4c	-0.00814731
75	0x3bf325fc	0.0074202996
76	0xbbad1241	-0.005281717
77	0x3b1b7f81	0.0023727121
78	0xbb511b1b	-0.0031907025
79	0xbada97e8	-0.0016677352
80	0xbb6dea98	-0.003630316
81	0x3c3156ea	0.010823945
82	0x3c053837	0.008131078
83	0x3b61731a	0.0034400881
84	0xbb518fdb	-0.0031976614
85	0x3c049f3b	0.008094604
86	0x3b975a94	0.004618952
87	0x3ae2a1b0	0.0017290618
88	0x3bd63865	0.0065374845
89	0xbbf33e6d	-0.007423213
90	0xbc103a3b	-0.008802946
91	0x3b46740d	0.0030281574
92	0x3b566dd5	0.0032719274
93	0x3b85a544	0.004078539
94	0xbaec6eaf	-0.0018038357
95	0xbaf08472	-0.0018350019
96	0xbafd8757	-0.0019342703
97	0xba926b07	-0.0011170813
98	0xbad4c4a3	-0.0016232919
99	0x3bc7b959	0.006095093
100	0xbb6246ab	-0.0034526985
101	0x3b156e12	0.0022801203
102	0xbb7dfb86	-0.0038754656
103	0x3a86050d	0.0010224894
104	0xbc54f972	-0.0129989255
105	0x3b5b457f	0.003345817
106	0x38bad8b7	8.9095374e-05
107	0xbae5fdb9	-0.0017546929
108	0xbc04bcaf	-0.008101626
109	0x3c489228	0.012241878
110	0x3b9de994	0.0048191044
111	0x3bc567f5	0.0060243555
112	0x3b6c6820	0.0036072806
113	0x3b935508	0.0044962205
114	0x3ab14dab	0.0013527175
115	0x3be09407	0.0068535837
116	0xbba8a463	-0.0051465495
117	0xbb3a5ca3	-0.0028436563
118	0xbb0b3380	-0.0021240413
119	0xbb8f3440	-0.0043702424
120	0x3ba498dd	0.0050231055
121	0x3b9cecdc	0.004788978
122	0x3c241595	0.010014911
123	0x3b8f0d03	0.004365565
124	0xbbd6c91e	-0.0065547368
125	0xbadcf7bb	-0.0016858497
126	0xbae02dc6	-0.0017103485
127	0xbb374841	-0.002796665
128	0xbac3cc6f	-0.0014938245
129	0xbc36a267	-0.011147118
130	0x3b9373e2	0.0044998983
131	0x3b442169	0.002992714
132	0x3b9a2593	0.004704186
133	0x3b7d687b	0.0038667012
134	0xbaea7b51	-0.0017889534
135	0x3b92e32a	0.0044826465
136	0xbb51ded3	-0.0032023683
137	0x3b0b3df6	0.0021246648
138	0x3b39a343	0.0028326071
139	0xbad2dfdb	-0.0016088443
140	0xbbb02cd2	-0.0053764367
141	0xbbd00823	-0.006348626
142	0xbb2e3ab5	-0.0026585285
143	0xbc383660	-0.011243433
144	0x3ace8118	0.0015755026
145	0xbba15ff5	-0.004924769
146	0x3b29a3c4	0.0025884965
147	0xba9d395a	-0.0011995242
148	0x3981edfc	0.0002478211
149	0x3b3f6406	0.0029203906
150	0xbac838f5	-0.0015275764
151	0x3ab8a3bc	0.0014086883
152	0x3bcfd1fe	0.0063421717
153	0xbc0c2c64	-0.008555505
154	0xb9e34e8d	-0.0004335534
155	0xbbdbed34	-0.0067116264
156	0x3b9ba1d6	0.004749517
157	0xba51963f	-0.00079951057
158	0xbb605ec1	-0.0034236165
159	0x3babb7f5	0.0052404352
160	0x3ba296fc	0.0049618464
161	0x3beafa17	0.0071709263
162	0x3befa6d1	0.0073135872
163	0x3c440e7e	0.011966346
164	0x3b3b3587	0.002856584
165	0x3be15769	0.006876875
166	0x3c1891b9	0.009312087
167	0x3c1c7b8e	0.009550942
168	0x3c13c5ff	0.009019374
169	0x3bd52e18	0.006505739
170	0x3ae9ab37	0.0017827515
171	0x3c21b1fe	0.009869097
172	0xb901d94d	-0.0001238335
173	0x3b15c77b	0.0022854495
174	0xba82d0dc	-0.0009980458
175	0x3b581b8d	0.0032975406
176	0xbbc59833	-0.0060301065
177	0x3b05dc79	0.0020425601
178	0x3bae26d8	0.005314689
179	0xbbcf8b40	-0.0063337386
180	0x3b94a249	0.0045359475
181	0xbbac2604	-0.0052535553
182	0xba964009	-0.0011463176
183	0xbbdd1a80	-0.006747544
184	0xba45effc	-0.0007550714
185	0xba107e44	-0.0005511979
186	0x3b50bd41	0.0031851085
187	0x3c261dc5	0.010138934
188	0xba050ea0	-0.00050757267
189	0x3b93b9fd	0.0045082555
190	0x3a3f2b6a	0.0007292541
191	0xbbb560a3	-0.0055352016
192	0x3a804f91	0.0009789338
193	0x3b9c0fa8	0.0047626086
194	0xb820d430	-3.8344588e-05
195	0xbb25a48d	-0.0025275082
196	0xbc2b6142	-0.0104602
197	0x3ba58081	0.0050507192
198	0x3b9c8bb2	0.004777395
199	0x3b37d53c	0.0028050682
200	0xbb85b7a0	-0.0040807277
201	0xb8e1b963	-0.00010763367
202	0xbc09e02e	-0.008415265
203	0xbbed69ac	-0.007245263
204	0xbbcf8752	-0.00633327
205	0xba2b8994	-0.0006543633
206	0x3a572c47	0.0008208197
207	0x3ba26557	0.0049559283
208	0x3bf70de1	0.0075394963
209	0x3ababd6b	0.0014247125
210	0xb817c340	-3.6183046e-05
211	0xbbd2246a	-0.0064130323
212	0xbb8653c9	-0.0040993434
213	0x3aba6869	0.001422179
214	0xbb0069ee	-0.001959439
215	0x3af6671e	0.0018799042
216	0x3b34b96e	0.0027576345
217	0x3b82fc1c	0.003997339
218	0x3a643241	0.0008704998
219	0xbbf92d3e	-0.0076042702
220	0x3928ee13	0.00016110418
221	0xbbc9d820	-0.0061597973
222	0x3b992d90	0.004674621
223	0x3a9be961	0.0011895114
224	0xbaf5cd7e	-0.0018753258
225	0x3bc0d575	0.005884821
226	0x3c4473f3	0.011990535
227	0xbb96ea98	-0.0046056025
228	0xba8308ee	-0.0009997168
229	0xbb60fb51	-0.0034329484
230	0x3c103b5a	0.008803213
231	0xbb867f4b	-0.00410453
232	0xb99d15c9	-0.00029961605
233	0x3b9b0682	0.0047310004
234	0x3bb2047f	0.005432665
235	0xbb508429	-0.0031817055
236	0x3b92829e	0.004471137
237	0x39ea6e2f	0.0004471405
238	0x3c0f5f9c	0.008750822
239	0xbbe49583	-0.006975831
240	0xbc04fd97	-0.008117101
241	0x3bafcc69	0.0053649438
242	0xbb869cb8	-0.004108038
243	0xbb8ba443	-0.004261525
244	0xbc6d1471	-0.014470206
245	0xbb0960eb	-0.0020962309
246	0x3b2119bf	0.0024581996
247	0xbaf15b63	-0.0018414076
248	0xbbc29108	-0.005937699
249	0xbc2eebf1	-0.01067637
250	0x3b4bcd41	0.0031097683
251	0xbb484ee0	-0.0030564591
252	0x3c11c992	0.008898156
253	0xbc0fc805	-0.008775716
254	0xbb61a6f3	-0.0034431785
255	0x3bd6ef12	0.006559261

fc.weight f4 [18, 1024]
0	0x3c51a205	0.012794976
1	0xbcd4c701	-0.025973799
2	0xbf021798	-0.5081725
3	0xbec3bd8d	-0.38230553
4	0x3f257437	0.64630455
5	0x3cf0e4fc	0.029406063
6	0xbd952e5f	-0.07284235
7	0xbf0fc204	-0.5615542
8	0xbf9afba2	-1.2108042
9	0xbef40e16	-0.47666997
10	0x3f57a582	0.8423692
11	0x3f0fc5d0	0.5616121
12	0x3ea17537	0.3153474
13	0x3f10e0a6	0.56592786
14	0x3e5e83fb	0.21730034
15	0xbe34631d	-0.17615934
16	0x3ecc851f	0.39945313
17	0xbf2b7bf2	-0.66986
18	0xbf3f987e	-0.7484206
19	0x3ea6e6a4	0.3259784
20	0xbed90b95	-0.4239165
21	0x3f519942	0.8187448
22	0x3fbff6d8	1.4997206
23	0x3cae76f0	0.021296948
24	0x3f8803d5	1.062617
25	0x3e344b85	0.17606933
26	0xbf6c2aaa	-0.922526
27	0xbf9bbd29	-1.2167102
28	0xbe987bda	-0.2978199
29	0xbe6df275	-0.23237021
30	0xbf1c6e5a	-0.61105883
31	0xbd8470a7	-0.06466799
32	0xbd5095f4	-0.050924256
33	0xbc09fd56	-0.008422216
34	0xbf56deab	-0.83933514
35	0x3e1b88b7	0.15188871
36	0x3f0538be	0.52039707
37	0x3e13d66f	0.14437269
38	0xbf280987	-0.6563954
39	0x3e9351ba	0.2877329
40	0xbf8e4192	-1.111376
41	0x3f469cb7	0.7758288
42	0x3fa0de59	1.2567855
43	0x3f079a1f	0.52969545
44	0x3ca3a35b	0.019975355
45	0x3ea99bfd	0.33126822
46	0x3ea0c082	0.31396872
47	0xbe95a0e8	-0.29224324
48	0x3e7d120e	0.24713919
49	0xbec04604	-0.37553418
50	0x3f10e51e	0.56599605
51	0xbf669e03	-0.90084857
52	0x3f17ddb1	0.5932265
53	0xbe05909e	-0.13043448
54	0xbea25c04	-0.31710827
55	0x3df1562c	0.11784014
56	0xbe8c5809	-0.27410915
57	0x3f56d0ed	0.83912545
58	0x3e64b43d	0.2233438
59	0x3ed0fe36	0.40818948
60	0xbddfb0f1	-0.10922421
61	0x3e9b6468	0.3035004
62	0xbef9706e	-0.4871859
63	0x3fa86d45	1.3158346
64	0xbe93852d	-0.28812543
65	0x3f11a5f9	0.5689388
66	0x3eddb97f	0.43305585
67	0x3f8ce06a	1.1005986
68	0xbe876996	-0.26447743
69	0xbf0a5239	-0.5403171
70	0x3f41fdf3	0.7577812
71	0x3e088ee9	0.13335766
72	0xbf1324f9	-0.5747829
73	0x3f07df8c	0.5307548
74	0xbd5cfd14	-0.05395229
75	0x3f2db1a3	0.6784918
76	0xbf139bce	-0.57659614
77	0x3ee7f128	0.45301175
78	0xbf2798c0	-0.65467453
79	0xbf26feb3	-0.6523239
80	0xbea49ba6	-0.3215
81	0x3f6bda9f	0.92130464
82	0xbe063037	-0.1310433
83	0x3eb6eedd	0.35729113
84	0xbf49d73c	-0.78844047
85	0x3f1bd431	0.60870653
86	0x3ea3377d	0.31878272
87	0x3eb0468b	0.3442882
88	0xbed620f5	-0.4182202
89	0xbe27a226	-0.16370448
90	0xbf1d1249	-0.61356026
91	0x3eb771e3	0.35829076
92	0xbc117e60	-0.008880228
93	0x3f3f8104	0.7480624
94	0xbf9b306b	-1.2124151
95	0xbf25fe9a	-0.64841616
96	0xbe91243b	-0.28347954
97	0x3ebe2fdd	0.37145892
98	0xbed43189	-0.41444042
99	0x3e22076a	0.1582314
100	0xbf94d980	-1.1628876
101	0x3e765d42	0.24059013
102	0x3f0953e1	0.53643614
103	0x3fce8031	1.6132871
104	0xbebe7763	-0.3720046
105	0x3fadd4a3	1.3580517
106	0xbf384d24	-0.7199271
107	0xbe99f1d1	-0.30067304
108	0xbf473d11	-0.77827555
109	0xbd08bc9f	-0.033383008
110	0xbf148993	-0.5802242
111	0x3f54e2ee	0.8315877
112	0x3eca0ea5	0.39464298
113	0xbeeaeed9	-0.4588535
114	0xbca3fe39	-0.020018684
115	0x3e9bc508	0.3042376
116	0x3ecc9e72	0.39964634
117	0xbecf4950	-0.4048562
118	0xbddf6221	-0.109073885
119	0xbe5a9146	-0.2134448
120	0x3fb1f0ab	1.3901571
121	0x3f98436a	1.1895573
122	0x3ddf8d0b	0.10915574
123	0x3f87cbd0	1.0609074
124	0x3f35b615	0.7098096
125	0xc03827e8	-2.8774357
126	0xbe3b2bf5	-0.18278487
127	0xbe7a3174	-0.24432927
128	0x3f437a03	0.7635805
129	0x3cabda49	0.02097811
130	0x3ed5f0fc	0.4178542
131	0x3f561074	0.83618855
132	0x3fd71464	1.6803098
133	0x3eca6960	0.3953352
134	0xc0219a10	-2.5250282
135	0x3fae877e	1.3635099
136	0xbc87615f	-0.016525922
137	0xbf744d98	-0.954309
138	0x3f592e6f	0.8483648
139	0x401d8f8a	2.461886
140	0x3f7345be	0.95028293
141	0xbea8c3d8	-0.32961917
142	0xbf838c6d	-1.027723
143	0xbf825464	-1.0182004
144	0x3ca6a5fa	0.020342816
145	0xbf15b4ca	-0.5847899
146	0x3fd15136	1.6352909
147	0x3f46bf01	0.776352
148	0x3edb356f	0.42814204
149	0xbe9c4900	-0.30524445
150	0x3fa7baca	1.3103878
151	0x3f5298fe	0.822647
152	0xbeef6b2e	-0.4676146
153	0x3d8c5fe4	0.06854227
154	0xbe71a667	-0.23598634
155	0xbe90694c	-0.28205335
156	0xbe8fb967	-0.28071138
157	0xbcfd8bc3	-0.030950433
158	0xbc4cc90a	-0.012499103
159	0x3e53aba6	0.20670947
160	0x3fe1f781	1.7653657
161	0x3f910784	1.1330419
162	0x3f27a5ea	0.6548754
163	0xbe1eda90	-0.15513062
164	0x3f827b2a	1.0193837
165	0x3de0f787	0.10984712
166	0x3fb6f821	1.4294473
167	0xbf8c8a1a	-1.0979645
168	0x3fe9aeec	1.8256507
169	0x3c32d9ab	0.010916154
170	0x3f491732	0.7855102
171	0xbce126df	-0.027484355
172	0xbf9e3d01	-1.2362367
173	0xbdb03ee1	-0.08605743
174	0x3fb30f8f	1.3989123
175	0xbecb260b	-0.39677462
176	0xbf859d28	-1.0438585
177	0xbfa9bf16	-1.326144
178	0x3e1e2e4a	0.15447345
179	0xbed3fa7c	-0.41402042
180	0x3f580d79	0.8439556
181	0x3dbfcac9	0.0936485
182	0x3f13ed9e	0.5778445
183	0xbf5e2838	-0.8678012
184	0x3e445011	0.19171168
185	0x3f5eb097	0.86988205
186	0x3ee2d86d	0.44305745
187	0xbee43bdf	-0.44576928
188	0xbf9e1fee	-1.2353494
189	0x3d19ca9c	0.03754674
190	0x3c1f0880	0.009706616
191	0xbe4674f7	-0.19380556
192	0x3e0502ec	0.12989396
193	0xbf1604e8	-0.58601236
194	0xbd34c70a	-0.04413513
195	0xbca87438	-0.02056323
196	0xbddc3a0d	-0.1075326
197	0x3eda3ad5	0.4262301
198	0xbc8d304a	-0.01723494
199	0x3b009054	0.0019617276
200	0xbed37d68	-0.41306615
201	0xbeaafb25	-0.33394733
202	0x3ca8b9fb	0.020596495
203	0xbd9af1c3	-0.07565644
204	0xbc4b03b7	-0.012391022
205	0x3e518109	0.2045938
206	0x3ee4a832	0.44659573
207	0x3fb7aabd	1.434898
208	0xbf602cad	-0.8756817
209	0xbf15ee62	-0.5856687
210	0x3ce97ae4	0.028500982
211	0xbee8d32a	-0.45473605
212	0x3ef8c18f	0.48585173
213	0xbf2405d1	-0.64071375
214	0x3d47ff96	0.04882773
215	0x3de86e9d	0.11349223
216	0xbf46ca9a	-0.77652895
217	0x3f946e3f	1.1596144
218	0x3e069526	0.13142833
219	0x3eb36926	0.3504116
220	0xbeb4051c	-0.35160148
221	0xbe00361f	-0.12520646
222	0xbd81e827	-0.06343108
223	0x3e1564af	0.14589189
224	0xbdb433b2	-0.087989226
225	0x3f846c6f	1.0345591
226	0x3e21c255	0.15796788
227	0xbd799132	-0.060929485
228	0x3eb7dfcc	0.3591293
229	0xbcf40d3a	-0.029791463
230	0xbaebe9bc	-0.0017998735
231	0x3f063942	0.5243112
232	0x3cfab3b4	0.030603267
233	0x3f2ae9cd	0.66763
234	0x3d0aeac7	0.033915307
235	0xbe9da390	-0.3078885
236	0x3f05cd59	0.5226646
237	0xbecf5e16	-0.4050147
238	0xbb9b7827	-0.004744548
239	0xbdbcdc64	-0.09221724
240	0xbf064cbb	-0.5246083
241	0xbdb5514f	-0.08853399
242	0xbcac2611	-0.021014245
243	0xbea0ad89	-0.31382397
244	0x3dc95527	0.09830695
245	0xbe93b6bc	-0.28850353
246	0x3c0c7a98	0.0085741505
247	0xbea66330	-0.3249755
248	0xbce4a202	-0.027909283
249	0x3bfe0435	0.0077519664
250	0xbf6b0449	-0.91803414
251	0xbda5ed98	-0.08101958
252	0x3e37ea8e	0.1796057
253	0xbceb7fee	-0.028747525
254	0xbf272135	-0.65285045
255	0x3f5b7b27	0.8573479

fc.bias f4 [18]
0	0x4012cbc9	2.293688
1	0xbf947e20	-1.160099
2	0xc01ed488	-2.4817219
3	0xc0031d6b	-2.0486705
4	0xbfce91ba	-1.6138222
5	0xc0538c5c	-3.3054419
6	0xc00e6318	-2.2247982
7	0xc01f58db	-2.4897983
8	0xc0392d25	-2.8933804
9	0xc05ed68b	-3.4818447
10	0xc0516b28	-3.2721653
11	0xc0698147	-3.6485155
12	0xc06e5a74	-3.7242708
13	0xc00b3ae9	-2.1754706
14	0xc00eb81b	-2.229987
15	0xc0283ae5	-2.6285946
16	0xbfa57be3	-1.2928432
17	0xbf9f4ab9	-1.2444679

exp_avg f4 [512, 1]
0	0x00000000	0.0
1	0x00000000	0.0
2	0x00000000	0.0
3	0x00000000	0.0
4	0x00000000	0.0
5	0x00000000	0.0
6	0x00000000	0.0
7	0x00000000	0.0
8	0x00000000	0.0
9	0x00000000	0.0
10	0x00000000	0.0
11	0x00000000	0.0
12	0x00000000	0.0
13	0x00000000	0.0
14	0x00000000	0.0
15	0x00000000	0.0
16	0x00000000	0.0
17	0x00000000	0.0
18	0x00000000	0.0
19	0x00000000	0.0
20	0x00000000	0.0
21	0x00000000	0.0
22	0x00000000	0.0
23	0x00000000	0.0
24	0x00000000	0.0
25	0x00000000	0.0
26	0x00000000	0.0
27	0x00000000	0.0
28	0x00000000	0.0
29	0x00000000	0.0
30	0x00000000	0.0
31	0x00000000	0.0
32	0x00000000	0.0
33	0x00000000	0.0
34	0x00000000	0.0
35	0x00000000	0.0
36	0x00000000	0.0
37	0x00000000	0.0
38	0x00000000	0.0
39	0x00000000	0.0
40	0x00000000	0.0
41	0x00000000	0.0
42	0x00000000	0.0
43	0x00000000	0.0
44	0x00000000	0.0
45	0x00000000	0.0
46	0x00000000	0.0
47	0x00000000	0.0
48	0x00000000	0.0
49	0x00000000	0.0
50	0x00000000	0.0
51	0x00000000	0.0
52	0x00000000	0.0
53	0x00000000	0.0
54	0x00000000	0.0
55	0x00000000	0.0
56	0x00000000	0.0
57	0x00000000	0.0
58	0x00000000	0.0
59	0x00000000	0.0
60	0x00000000	0.0
61	0x00000000	0.0
62	0x00000000	0.0
63	0x00000000	0.0
64	0x00000000	0.0
65	0x00000000	0.0
66	0x00000000	0.0
67	0x00000000	0.0
68	0x00000000	0.0
69	0x00000000	0.0
70	0x00000000	0.0
71	0x00000000	0.0
72	0x00000000	0.0
73	0x00000000	0.0
74	0x00000000	0.0
75	0x00000000	0.0
76	0x00000000	0.0
77	0x00000000	0.0
78	0x00000000	0.0
79	0x00000000	0.0
80	0x00000000	0.0
81	0x00000000	0.0
82	0x00000000	0.0
83	0x00000000	0.0
84	0x00000000	0.0
85	0x00000000	0.0
86	0x00000000	0.0
87	0x00000000	0.0
88	0x00000000	0.0
89	0x00000000	0.0
90	0x00000000	0.0
91	0x00000000	0.0
92	0x00000000	0.0
93	0x00000000	0.0
94	0x00000000	0.0
95	0x00000000	0.0
96	0x00000000	0.0
97	0x00000000	0.0
98	0x00000000	0.0
99	0x00000000	0.0
100	0x00000000	0.0
101	0x00000000	0.0
102	0x00000000	0.0
103	0x00000000	0.0
104	0x00000000	0.0
105	0x00000000	0.0
106	0x00000000	0.0
107	0x00000000	0.0
108	0x00000000	0.0
109	0x00000000	0.0
110	0x00000000	0.0
111	0x00000000	0.0
112	0x00000000	0.0
113	0x00000000	0.0
114	0x00000000	0.0
115	0x00000000	0.0
116	0x00000000	0.0
117	0x00000000	0.0
118	0x00000000	0.0
119	0x00000000	0.0
120	0x00000000	0.0
121	0x00000000	0.0
122	0x00000000	0.0
123	0x00000000	0.0
124	0x00000000	0.0
125	0x00000000	0.0
126	0x00000000	0.0
127	0x00000000	0.0
128	0x00000000	0.0
129	0x00000000	0.0
130	0x00000000	0.0
131	0x00000000	0.0
132	0x00000000	0.0
133	0x00000000	0.0
134	0x00000000	0.0
135	0x00000000	0.0
136	0x00000000	0.0
137	0x00000000	0.0
138	0x00000000	0.0
139	0x00000000	0.0
140	0x00000000	0.0
141	0x00000000	0.0
142	0x00000000	0.0
143	0x00000000	0.0
144	0x00000000	0.0
145	0x00000000	0.0
146	0x00000000	0.0
147	0x00000000	0.0
148	0x00000000	0.0
149	0x00000000	0.0
150	0x00000000	0.0
151	0x00000000	0.0
152	0x00000000	0.0
153	0x00000000	0.0
154	0x00000000	0.0
155	0x00000000	0.0
156	0x00000000	0.0
157	0x00000000	0.0
158	0x00000000	0.0
159	0x00000000	0.0
160	0x00000000	0.0
161	0x00000000	0.0
162	0x00000000	0.0
163	0x00000000	0.0
164	0x00000000	0.0
165	0x00000000	0.0
166	0x00000000	0.0
167	0x00000000	0.0
168	0x00000000	0.0
169	0x00000000	0.0
170	0x00000000	0.0
171	0x00000000	0.0
172	0x00000000	0.0
173	0x00000000	0.0
174	0x00000000	0.0
175	0x00000000	0.0
176	0x00000000	0.0
177	0x00000000	0.0
178	0x00000000	0.0
179	0x00000000	0.0
180	0x00000000	0.0
181	0x00000000	0.0
182	0x00000000	0.0
183	0x00000000	0.0
184	0x00000000	0.0
185	0x00000000	0.0
186	0x00000000	0.0
187	0x00000000	0.0
188	0x00000000	0.0
189	0x00000000	0.0
190	0x00000000	0.0
191	0x00000000	0.0
192	0x00000000	0.0
193	0x00000000	0.0
194	0x00000000	0.0
195	0x00000000	0.0
196	0x00000000	0.0
197	0x00000000	0.0
198	0x00000000	0.0
199	0x00000000	0.0
200	0x00000000	0.0
201	0x00000000	0.0
202	0x00000000	0.0
203	0x00000000	0.0
204	0x00000000	0.0
205	0x00000000	0.0
206	0x00000000	0.0
207	0x00000000	0.0
208	0x00000000	0.0
209	0x00000000	0.0
210	0x00000000	0.0
211	0x00000000	0.0
212	0x00000000	0.0
213	0x00000000	0.0
214	0x00000000	0.0
215	0x00000000	0.0
216	0x00000000	0.0
217	0x00000000	0.0
218	0x00000000	0.0
219	0x00000000	0.0
220	0x00000000	0.0
221	0x00000000	0.0
222	0x00000000	0.0
223	0x00000000	0.0
224	0x00000000	0.0
225	0x00000000	0.0
226	0x00000000	0.0
227	0x00000000	0.0
228	0x00000000	0.0
229	0x00000000	0.0
230	0x00000000	0.0
231	0x00000000	0.0
232	0x00000000	0.0
233	0x00000000	0.0
234	0x00000000	0.0
235	0x00000000	0.0
236	0x00000000	0.0
237	0x00000000	0.0
238	0x00000000	0.0
239	0x00000000	0.0
240	0x00000000	0.0
241	0x00000000	0.0
242	0x00000000	0.0
243	0x00000000	0.0
244	0x00000000	0.0
245	0x00000000	0.0
246	0x00000000	0.0
247	0x00000000	0.0
248	0x00000000	0.0
249	0x00000000	0.0
250	0x00000000	0.0
251	0x00000000	0.0
252	0x00000000	0.0
253	0x00000000	0.0
254	0x00000000	0.0
255	0x00000000	0.0

exp_avg_sq f4 [512, 1]
0	0x00000000	0.0
1	0x00000000	0.0
2	0x00000000	0.0
3	0x00000000	0.0
4	0x00000000	0.0
5	0x00000000	0.0
6	0x00000000	0.0
7	0x00000000	0.0
8	0x00000000	0.0
9	0x00000000	0.0
10	0x00000000	0.0
11	0x00000000	0.0
12	0x00000000	0.0
13	0x00000000	0.0
14	0x00000000	0.0
15	0x00000000	0.0
16	0x00000000	0.0
17	0x00000000	0.0
18	0x00000000	0.0
19	0x00000000	0.0
20	0x00000000	0.0
21	0x00000000	0.0
22	0x00000000	0.0
23	0x00000000	0.0
24	0x00000000	0.0
25	0x00000000	0.0
26	0x00000000	0.0
27	0x00000000	0.0
28	0x00000000	0.0
29	0x00000000	0.0
30	0x00000000	0.0
31	0x00000000	0.0
32	0x00000000	0.0
33	0x00000000	0.0
34	0x00000000	0.0
35	0x00000000	0.0
36	0x00000000	0.0
37	0x00000000	0.0
38	0x00000000	0.0
39	0x00000000	0.0
40	0x00000000	0.0
41	0x00000000	0.0
42	0x00000000	0.0
43	0x00000000	0.0
44	0x00000000	0.0
45	0x00000000	0.0
46	0x00000000	0.0
47	0x00000000	0.0
48	0x00000000	0.0
49	0x00000000	0.0
50	0x00000000	0.0
51	0x00000000	0.0
52	0x00000000	0.0
53	0x00000000	0.0
54	0x00000000	0.0
55	0x00000000	0.0
56	0x00000000	0.0
57	0x00000000	0.0
58	0x00000000	0.0
59	0x00000000	0.0
60	0x00000000	0.0
61	0x00000000	0.0
62	0x00000000	0.0
63	0x00000000	0.0
64	0x00000000	0.0
65	0x00000000	0.0
66	0x00000000	0.0
67	0x00000000	0.0
68	0x00000000	0.0
69	0x00000000	0.0
70	0x00000000	0.0
71	0x00000000	0.0
72	0x00000000	0.0
73	0x00000000	0.0
74	0x00000000	0.0
75	0x00000000	0.0
76	0x00000000	0.0
77	0x00000000	0.0
78	0x00000000	0.0
79	0x00000000	0.0
80	0x00000000	0.0
81	0x00000000	0.0
82	0x00000000	0.0
83	0x00000000	0.0
84	0x00000000	0.0
85	0x00000000	0.0
86	0x00000000	0.0
87	0x00000000	0.0
88	0x00000000	0.0
89	0x00000000	0.0
90	0x00000000	0.0
91	0x00000000	0.0
92	0x00000000	0.0
93	0x00000000	0.0
94	0x00000000	0.0
95	0x00000000	0.0
96	0x00000000	0.0
97	0x00000000	0.0
98	0x00000000	0.0
99	0x00000000	0.0
100	0x00000000	0.0
101	0x00000000	0.0
102	0x00000000	0.0
103	0x00000000	0.0
104	0x00000000	0.0
105	0x00000000	0.0
106	0x00000000	0.0
107	0x00000000	0.0
108	0x00000000	0.0
109	0x00000000	0.0
110	0x00000000	0.0
111	0x00000000	0.0
112	0x00000000	0.0
113	0x00000000	0.0
114	0x00000000	0.0
115	0x00000000	0.0
116	0x00000000	0.0
117	0x00000000	0.0
118	0x00000000	0.0
119	0x00000000	0.0
120	0x00000000	0.0
121	0x00000000	0.0
122	0x00000000	0.0
123	0x00000000	0.0
124	0x00000000	0.0
125	0x00000000	0.0
126	0x00000000	0.0
127	0x00000000	0.0
128	0x00000000	0.0
129	0x00000000	0.0
130	0x00000000	0.0
131	0x00000000	0.0
132	0x00000000	0.0
133	0x00000000	0.0
134	0x00000000	0.0
135	0x00000000	0.0
136	0x00000000	0.0
137	0x00000000	0.0
138	0x00000000	0.0
139	0x00000000	0.0
140	0x00000000	0.0
141	0x00000000	0.0
142	0x00000000	0.0
143	0x00000000	0.0
144	0x00000000	0.0
145	0x00000000	0.0
146	0x00000000	0.0
147	0x00000000	0.0
148	0x00000000	0.0
149	0x00000000	0.0
150	0x00000000	0.0
151	0x00000000	0.0
152	0x00000000	0.0
153	0x00000000	0.0
154	0x00000000	0.0
155	0x00000000	0.0
156	0x00000000	0.0
157	0x00000000	0.0
158	0x00000000	0.0
159	0x00000000	0.0
160	0x00000000	0.0
161	0x00000000	0.0
162	0x00000000	0.0
163	0x00000000	0.0
164	0x00000000	0.0
165	0x00000000	0.0
166	0x00000000	0.0
167	0x00000000	0.0
168	0x00000000	0.0
169	0x00000000	0.0
170	0x00000000	0.0
171	0x00000000	0.0
172	0x00000000	0.0
173	0x00000000	0.0
174	0x00000000	0.0
175	0x00000000	0.0
176	0x00000000	0.0
177	0x00000000	0.0
178	0x00000000	0.0
179	0x00000000	0.0
180	0x00000000	0.0
181	0x00000000	0.0
182	0x00000000	0.0
183	0x00000000	0.0
184	0x00000000	0.0
185	0x00000000	0.0
186	0x00000000	0.0
187	0x00000000	0.0
188	0x00000000	0.0
189	0x00000000	0.0
190	0x00000000	0.0
191	0x00000000	0.0
192	0x00000000	0.0
193	0x00000000	0.0
194	0x00000000	0.0
195	0x00000000	0.0
196	0x00000000	0.0
197	0x00000000	0.0
198	0x00000000	0.0
199	0x00000000	0.0
200	0x00000000	0.0
201	0x00000000	0.0
202	0x00000000	0.0
203	0x00000000	0.0
204	0x00000000	0.0
205	0x00000000	0.0
206	0x00000000	0.0
207	0x00000000	0.0
208	0x00000000	0.0
209	0x00000000	0.0
210	0x00000000	0.0
211	0x00000000	0.0
212	0x00000000	0.0
213	0x00000000	0.0
214	0x00000000	0.0
215	0x00000000	0.0
216	0x00000000	0.0
217	0x00000000	0.0
218	0x00000000	0.0
219	0x00000000	0.0
220	0x00000000	0.0
221	0x00000000	0.0
222	0x00000000	0.0
223	0x00000000	0.0
224	0x00000000	0.0
225	0x00000000	0.0
226	0x00000000	0.0
227	0x00000000	0.0
228	0x00000000	0.0
229	0x00000000	0.0
230	0x00000000	0.0
231	0x00000000	0.0
232	0x00000000	0.0
233	0x00000000	0.0
234	0x00000000	0.0
235	0x00000000	0.0
236	0x00000000	0.0
237	0x00000000	0.0
238	0x00000000	0.0
239	0x00000000	0.0
240	0x00000000	0.0
241	0x00000000	0.0
242	0x00000000	0.0
243	0x00000000	0.0
244	0x00000000	0.0
245	0x00000000	0.0
246	0x00000000	0.0
247	0x00000000	0.0
248	0x00000000	0.0
249	0x00000000	0.0
250	0x00000000	0.0
251	0x00000000	0.0
252	0x00000000	0.0
253	0x00000000	0.0
254	0x00000000	0.0
255	0x00000000	0.0
