TemporalContextAggregation/models/TCA_T20_K8/model.pth.tar (torch, 989367 bytes, 18 tensors)

pool_layer_before.clusters f4 [512, 4]
00000000: e490 2d40 42bc 76c0 a63a c5bf 60a4 3c40
00000010: 3ed0 1940 d666 4f3f 2722 febd 023f 15c0
00000020: 3f13 983f a077 0bc0 68bd 793f 7f7b c4be
00000030: af15 e63f e121 31bd ccac 45be 83e4 86bf
00000040: d966 113f ecb2 233f 6812 09c0 a259 ba3f
00000050: 0fa5 233e 78eb dc3e 1591 43bd 748c d9be
00000060: e284 a4bf 3ecc 1140 b74d 29bf e92a a9be
00000070: 6e24 063e f2a7 143f 6c27 023f 7922 52bf
00000080: 3191 a23f 6b86 10c0 7c05 bd3e 0fce 543e
00000090: 33ce c03f bf30 96bf 4f53 b23f 0ed6 e0bf
000000a0: 0277 cbbf 3a3d b0be 3aed 073f 81ce 893f
000000b0: 4c63 f8bf 9488 3b40 c06c fbbf 974c b33f
000000c0: 3560 683d 8aaf df3f 3b66 e93e 9176 edbf
000000d0: 1c93 eebe a477 7bbf 3a45 a83e 4320 543f
000000e0: f99c 673f a16e c2bf 2d9c ba3f 822f 49bf
000000f0: 85db dc3e 7a93 eb3f 7ad2 47bf ce4b 78bf
00000100: 2946 2f3f 6bc2 18c0 10c0 25be 97b9 be3f
00000110: a186 633f c008 2ebf 72b2 e83e 9947 2cbf
00000120: b415 3d40 2f88 013f d95a 803f 154c 7ac0
00000130: ab5e 9ebf 2c5d 40bf 77df 133f b1d2 893f
00000140: 43a4 89be 0ccb 4b3f b92f 8abf 6ab8 253f
00000150: 16bf 82bf 86ed 943f fe98 a8bf be07 ae3f
00000160: 2aea b2bf aaa7 9abf e72a 2b3f 2531 a43f
00000170: 4dd4 53c0 6a4e 98bf 0c2c 38bf f0f6 8240
00000180: ec83 12be ce48 0ebf 7ae8 a9be d47b 803f
00000190: 9325 4abf 6aa5 6d3f 1dad 703f 57c5 93bf
000001a0: 2b4e d83f a88f c53f 8d5f b53e 94cf 39c0
000001b0: fcbb 493e f57f 2f3f 36a1 adbe 1335 afbe
000001c0: 4a6d 553f b927 73bf 2f5e 133f 97d5 1ebf
000001d0: dfb2 c5bf 143a 9d3f 01ad 94bf da45 c53f
000001e0: 9859 dabf 37d6 4f3f 2dc1 5b3f 6872 5fbe
000001f0: 03eb 4bc0 75ee bebd b5c8 f63f 2266 423f
00000200: 6450 8ebe 60b1 6d3f 765b dcbe 6a2b 31bb
00000210: 7c1d e73f 2883 acbf 7bec 80bf a1e4 433f
00000220: a621 86be 03f8 a03e 1222 453e b087 c7be
00000230: 6e94 f03d 421e 863f d6e6 1b3e 0672 78bf
00000240: 1799 0abf b892 04c0 d90e 6c3f ffea 9b3f
00000250: 95d3 8fbf 29b1 5140 60fa 6bbf 1260 54bf
00000260: 5226 903e 4182 04c0 b4dd c83d 0739 8d3f
00000270: 5e15 f5be df6f d7be d8c5 21bf 8d08 a83f
00000280: ca75 1d40 7b41 74be 3048 743f e244 38c0
00000290: 3d42 86be 211a 2f3f ae33 c1bf cebb b43f
000002a0: 1455 9fbf 5905 fa3d 19cb cabe 5fd6 b03f
000002b0: 437f b6bf 1d58 a93d ef7b 6d3e 11c2 313f
000002c0: ab3e 6ac0 89c2 553f c97b 043f 50dc b73f
000002d0: 39f0 ebbf 295a 0f3f 1021 303f 7b68 a93e
000002e0: 3927 ebbf 1598 5f3f 1d84 1740 a47b e2bf
000002f0: 94da 943f f442 c4be 23c0 d6bd cb34 1cbf
00000300: 0310 c0be 794a 683e 9508 6b3b 0412 033e
00000310: 0208 933e 1a2b ac3f f877 63bf a969 c7be
00000320: 43d8 27bf 945e f93f 0cad dbbf 10b2 0a3f
00000330: 9bef 753f 3acb 3c40 5aba 36c0 353d e0be
00000340: f0e2 69bf 3661 d63f b155 d1bf bd0a 8e3f
00000350: d3f3 a83f d90d 913f 55f0 8cbf 36b6 86bf
00000360: 81ff 73c0 2dde 753f 7551 283f f8b9 cf3f
00000370: 8149 c4bf 065b 7a3f 6f58 b9be 4518 3c3f
00000380: bad2 f13d 7eaf 74bf d2d4 36bf e255 b93f
00000390: a8cb f6bd 8f32 e03e 0e43 51bf deb8 023f
000003a0: 802d b63f 5588 e33e ca6d fbbe cc72 63bf
000003b0: 339d bebf 1d47 d63f deba a23d 16cb 69be
000003c0: fe47 c33e e378 debf f216 1fbe 02cb 7e3f
000003d0: c47e 20c0 8c47 0240 478b 723e 0bb7 80be
000003e0: 7a20 fbbe 8a9a fc3f 9f31 d43e ed5d c2bf
000003f0: 6014 1fc0 ee62 13bd 8fe8 9c3f 5ce7 413f
2.7119684 -3.8552403 -1.5408523 2.9475327 2.403335 0.8101629 -0.12408858 -2.3319707
1.1880873 -2.1791763 0.97554636 -0.3837547 1.7975367 -0.0432452 -0.19304198 -1.0538486
0.5679756 0.6394489 -2.1417484 1.4558604 0.15980934 0.43148398 -0.047745783 -0.4248997
-1.2853053 2.278091 -0.6613421 -0.3304055 0.13099834 0.58068764 0.50841403 -0.8208385
1.2700559 -2.2582042 0.36918247 0.2078173 1.5062927 -1.1733626 1.3931674 -1.7565324
-1.5895693 -0.34421712 0.53096354 1.0766145 -1.9405303 2.930211 -1.9642563 1.4007748
0.056732375 1.7475445 0.45585808 -1.8551809 -0.4659661 -0.9822943 0.32865316 0.8286173
0.90473896 -1.5190011 1.4578911 -0.78588116 0.4313623 1.8404381 -0.78055537 -0.9699067
0.6846643 -2.3868663 -0.16186547 1.4900388 0.888773 -0.679821 0.45448643 -0.6729675
2.9544497 0.50598425 1.0027725 -3.9108937 -1.237264 -0.7514217 0.57762855 1.0767423
-0.26883134 0.796067 -1.0795814 0.6473452 -1.0214565 1.1634986 -1.317169 1.3596113
-1.3977711 -1.2082417 0.6686234 1.2827498 -3.3098328 -1.189893 -0.7194221 4.0926437
-0.14308137 -0.5557984 -0.33185178 1.0037789 -0.78963584 0.92830527 0.9401415 -1.1544598
1.6898855 1.5434465 0.35424462 -2.9032946 0.19700617 0.6855462 -0.33912057 -0.3422018
0.83369887 -0.94982487 0.5756559 -0.6204466 -1.5445212 1.2283349 -1.1615297 1.5411942
-1.7058592 0.8118624 0.8584164 -0.21820986 -3.186219 -0.09322826 1.9280001 0.7593709
-0.27795708 0.9284878 -0.4303853 -0.0027033933 1.8055873 -1.3477526 -1.0072168 0.76520735
-0.26197547 0.31439218 0.19251278 -0.3897071 0.11747061 1.0477984 0.15224776 -0.97048986
-0.54139847 -2.071455 0.92210156 1.218109 -1.1236445 3.276438 -0.92178917 -0.8295909
0.28154236 -2.07045 0.098079115 1.1033028 -0.47867864 -0.42077538 -0.6319251 1.312761
2.4603143 -0.23853104 0.9542265 -2.8792043 -0.2622241 0.68399245 -1.5093896 1.4119813
-1.2447839 0.12208051 -0.39608076 1.3815421 -1.4257587 0.082687594 0.23191808 0.69436747
-3.660075 0.8349996 0.5175138 1.4364109 -1.8432685 0.5599695 0.6880045 0.33087525
-1.8371345 0.87341434 2.3674386 -1.7693982 1.1629205 -0.3833233 -0.10485866 -0.61018056
-0.37512216 0.22684659 0.003586327 0.12799841 0.28717047 1.3450654 -0.8885493 -0.389478
-0.65564364 1.9481988 -1.7162185 0.5417795 0.96068734 2.949904 -2.855124 -0.43796697
-0.91361904 1.6748416 -1.6354276 1.1097027 1.3199409 1.1332351 -1.1010844 -1.0524356
-3.8124697 0.9604214 0.65749294 1.6228628 -1.5334932 0.9779514 -0.36200282 0.7347453
0.11807771 -0.9558028 -0.7141849 1.4479334 -0.12050563 0.43788573 -0.8174294 0.51063335
1.4232635 0.4443995 -0.491072 -0.8884704 -1.4891723 1.6740452 0.07945798 -0.22831377
0.38140863 -1.7380642 -0.15536097 0.99528515 -2.5077372 2.0356169 0.23685943 -0.2513965
-0.49048215 1.9734662 0.41444108 -1.5184914 -2.4856186 -0.03598302 1.2258471 0.7574365

pool_layer_before.clusters2 f4 [1, 512, 4]
00000000: 5518 953e 3123 133f 1f55 89be 5c7f 19bf
00000010: 3bfc 3e3e f50d 983c 8154 ac3d bf57 8abd
00000020: 72a4 1c3e 1d17 8dbd 3c42 963d bf7a dcbd
00000030: 799f eb3d 8abe 4bbd b108 1f3d 9cd9 5dbc
00000040: e02f 5ebd 745b 673d cad3 a7bb b492 a3bb
00000050: 4646 643c 520f ccbc 6c6f 98bb 2a0d a13c
00000060: d9cf 66bc 42bc 553c a163 cfbc 9db1 193b
00000070: 2b84 9c3a f6b2 bebd 33fb 8cbc 5a6e 153d
00000080: e8c2 df3c 06e9 fbbc b371 263c ef10 dd3c
00000090: 4ca6 e73c 1d37 21bc f0e1 3fbc 90fc 013d
000000a0: e035 cdbc c769 13bc 7ab4 35bd 534e 24bd
000000b0: 677b d6bc e46d 043c 0b7b 8bbc 26c8 f7bb
000000c0: 9971 9fba f6a2 0cbb d04d 68bc 4007 8c3c
000000d0: 1a00 20bc d29b 3d3c 8540 62ba 9357 8abb
000000e0: 9720 173b bd92 1cba 1412 8b3b 6fa8 523c
000000f0: 4aee 2ebc 67a9 28b9 56d3 31bc e6bf 2fbc
00000100: cf9e 13bc d0f9 a9bb 20a8 8fbc 9431 133d
00000110: 083c 003c 05e1 90bc 4b22 623c 18e8 d8ba
00000120: 0a28 823c 5003 5f3c b68f 78bb 7fad c1bc
00000130: 9aad 50bc 40de e5bb 0872 5abc f071 ffba
00000140: 7633 fe3b b683 2a3b 9c7b 25ba 9008 283c
00000150: 1223 17bc 7a40 803b 0e81 a9bb 603e 00bc
00000160: 4fe7 75bc 6969 68bc 2043 833a 00fa b1bb
00000170: f548 5fbc a7fd 46bc abc2 96bb 292b e63c
00000180: 99ba 7abc 6201 0abb fbc7 223b 7e58 b139
00000190: e0f6 65bb 9bfe 3c3c d29e 8d3b a0a8 97bc
000001a0: 0347 8c3c 9b69 833c 7e6e acb7 2c1d 07bc
000001b0: e6db 373c a730 363c e3a6 aaba 4f59 153c
000001c0: 1e44 273c 102c 263a 06ec 1bbb ec11 a4b8
000001d0: 4267 16bb aef9 f83b f041 51bb e18c da3a
000001e0: fa90 9ebb 4c03 e6bb 54d7 0d3b ed4a 2e3c
000001f0: a839 a3bb 1c05 143c 0dee 103c 7b8b ba3c
00000200: ea6d 02bb dd45 523c 54a5 673b 593e 0aba
00000210: 5c95 2d3c f3e6 a8bb 8c0b 0bbc 5b84 243c
00000220: 5d76 bdba 269d d438 5bda 00bc 8aa7 3abc
00000230: 4141 9c3b 74f4 0c3c 772a 08bc 0907 00bc
00000240: 209c edbb dd63 70bc 5db6 5e3a 4f03 023c
00000250: aa61 1b3b ce9b 193b 2993 12bc 3ad1 9abb
00000260: 4d70 b13b aa56 663c 60f9 34bc 170c d83b
00000270: cb89 cab9 7b9d b8bc 60a9 39bb 7a74 16bb
00000280: 172d a93c 8690 143c 2ee6 70bb 814b dab7
00000290: ec94 9ab9 5d17 1fbc cba9 8dbb a6f2 36bc
000002a0: 02a3 9dbb 1a9c 0ebc 3fc4 ed3b b0ed b7ba
000002b0: a0eb f13a 823b 2b3c 9ad2 7f3b b488 7dbb
000002c0: a332 e5bb d338 86bc c745 103b 4f07 1a3c
000002d0: 7544 d7bb 64e4 0ebc 9ceb f63b 976e 873b
000002e0: f01b 4ebc 6706 183c 303a e53b 4b3d 2bbc
000002f0: a9f9 c53b 53f9 a03b abbd c2bb 66c0 10bb
00000300: e433 ce3b 45fa 1b3b bfcd 1b3c 6d99 9bbb
00000310: 7172 4c3a 585e 473c 6ff5 013b 1a2e e1ba
00000320: d7e8 e4bb b5c5 13bb e998 503b e3ed 65bc
00000330: 07b1 7a3b b4c6 e43b 32ae 6ebc bfcd 1cbb
00000340: e7d3 0dbc 02e8 e6bb 1816 8f38 f4bb 4d3c
00000350: b279 e73b 0b86 9c3b c4d8 cdbb 18ad d2bb
00000360: dec9 13bc a686 efbb 0da3 a33b 9353 003c
00000370: c7fe 32bc 9fd8 09ba a186 353b 8169 013c
00000380: cd0d 84bb 3f4a b9bc 0e03 4dbc 5d98 5d3c
00000390: 091a 933a 2c67 803b d49f 8c3b a044 28bc
000003a0: 7015 61ba 5591 9e3b b6cf 893b 1c6a c13b
000003b0: 1cb7 70bb bea1 013b 2f47 8f3b 8c85 033b
000003c0: 7b6d b5bb 4b6e c9ba c244 a2bb d93b 2a3c
000003d0: 3e07 a0bb 0dbc 59bb 038b 23bb b89c f73b
000003e0: 1d97 883b 6742 103c 4b60 73bc 3e39 62bb
000003f0: a66d 0ebc 5514 60bb b69d 3b3c 314c b9bb
0.29120126 0.5747557 -0.26822755 -0.5995996 0.18650906 0.018561343 0.08414555 -0.067550175
0.15297106 -0.06889174 0.07336852 -0.107655995 0.11505026 -0.04974226 0.03882665 -0.013540652
-0.054244876 0.0564837 -0.005121683 -0.0049918536 0.01393277 -0.024909649 -0.0046519544 0.019659597
-0.014087641 0.013045372 -0.025316061 0.0023451813 0.0011941245 -0.09311478 -0.017209625 0.036482193
0.027314618 -0.030750763 0.010158944 0.026985614 0.028277539 -0.0098398 -0.011711583 0.031735003
-0.025050104 -0.008997387 -0.04436157 -0.04011376 -0.02618189 0.008082841 -0.017026445 -0.0075617013
-0.0012164592 -0.0021459437 -0.014178708 0.0170933 -0.009765649 0.011572795 -0.000863083 -0.0042218654
0.0023060197 -0.00059727934 0.0042440984 0.0128575405 -0.01067693 -0.00016084836 -0.010853609 -0.0107269045
-0.009010031 -0.0051872507 -0.017536223 0.035935953 0.007826813 -0.017685423 0.013802121 -0.0016548662
0.015888233 0.01361163 -0.0037927455 -0.0236423 -0.012736702 -0.0070150197 -0.013332851 -0.0019488912
0.0077575995 0.0026018447 -0.000631267 0.010255948 -0.00922467 0.003913936 -0.005172855 -0.007827371
-0.015008762 -0.014185288 0.0010014512 -0.0054314137 -0.013628234 -0.012145436 -0.004600843 0.028096752
-0.015303277 -0.0021057953 0.0024838436 0.00033826003 -0.0035089776 0.011535312 0.0043219114 -0.018513024
0.017123705 0.016041568 -2.055545e-05 -0.008246701 0.0112218615 0.011119998 -0.0013019707 0.009115531
0.0102091115 0.0006338963 -0.0023791804 -7.8234676e-05 -0.002294973 0.0075981235 -0.003193017 0.0016674065
-0.00483906 -0.007019436 0.0021643238 0.010637981 -0.0049812384 0.009034421 0.008845818 0.022771588
-0.001990194 0.0128340395 0.0035346346 -0.0005273573 0.010594692 -0.0051544844 -0.00848664 0.010041322
-0.0014454831 0.00010138219 -0.00786456 -0.0113924835 0.004768521 0.008603204 -0.008310906 -0.007814177
-0.0072512776 -0.014672247 0.0008495802 0.007935359 0.0023709335 0.0023438814 -0.0089462185 -0.004724649
0.0054149986 0.014058748 -0.011045784 0.006593238 -0.00038631106 -0.02253603 -0.0028329715 -0.002295761
0.020651383 0.00906766 -0.0036758292 -2.6022784e-05 -0.00029484124 -0.00971016 -0.0043232194 -0.01116625
-0.004810692 -0.00870421 0.0072560604 -0.0014032628 0.0018457063 0.0104511995 0.003903544 -0.0038686218
-0.0069945618 -0.016384518 0.0022014247 0.009401157 -0.00656944 -0.008721445 0.007535411 0.0041330564
-0.012579903 0.00927887 0.006995462 -0.010451625 0.0060417247 0.0049125343 -0.0059430203 -0.0022087335
0.006292807 0.0023800295 0.009509503 -0.0047485144 0.00077990355 0.012168489 0.0019830128 -0.0017179877
-0.0069857645 -0.0022548262 0.0031829423 -0.014033767 0.003825249 0.006981695 -0.014567899 -0.0023926345
-0.0086564785 -0.0070467005 6.822887e-05 0.012557019 0.0070640678 0.0047767214 -0.006281944 -0.006429326
-0.009020297 -0.0073097525 0.0049938024 0.007832426 -0.010925001 -0.00052584143 0.0027698653 0.007898689
-0.0040299655 -0.022618411 -0.012512935 0.013525096 0.0011222969 0.003918549 0.004291514 -0.010270268
-0.0008586263 0.0048391023 0.0042056693 0.005902542 -0.0036730235 0.0019780244 0.0043724994 0.0020068614
-0.0055367327 -0.0015367953 -0.004952044 0.010390245 -0.004883676 -0.003322366 -0.0024954684 0.007556524
0.0041684047 0.008804894 -0.014854501 -0.0034518982 -0.008693134 -0.0034191806 0.011451175 -0.0056548347

pool_layer_after.clusters f4 [512, 4]
00000000: 1d3f 0dc0 201b 83c0 7f4a e540 727c d6bd
00000010: bbfc 8cbf 1074 09bf e434 a9bd c564 0a40
00000020: 5674 8e3f 8a8c 9bbe bebb 923f f2b8 16c0
00000030: aa61 acbf 3703 1cc0 5f79 e63d b8be 8640
00000040: fc95 0dc0 659a 5dc0 f993 3b40 7ddb 4240
00000050: 02cf 93be 21a8 b7be 88d7 07bf e4df 9d3f
00000060: 1041 83bf 1975 aebf 1c38 08bf 97aa 4840
00000070: 13ed 3a3f 74c1 fc3e 2818 4abf 96fb f5be
00000080: baa1 87bf fd0d 6cbf 6fd9 cf3f 152f 2e3e
00000090: 614f 5fbd f94a d6bd 160a 2e3f 1d51 4bbf
000000a0: b87f 6d3f 2616 0740 7fd2 8d3f 193c 98c0
000000b0: 815f a3bf 81bd 24be fb44 723e 1a0c a03f
000000c0: daf1 303f 7ad8 843f fe1c 5abf 38ba 85bf
000000d0: db54 f83e 409e 2440 8023 e9be d99e 3bc0
000000e0: a9bf fc3f 953e 4d3f 5abe f53d 1073 66c0
000000f0: c2b1 e1bf 653d dabf f30c 9e3f 9467 2340
00000100: 6449 ea3e 2e36 e9be e3a7 873e 2fde f9be
00000110: 6006 553f 82e3 b53f 0ca7 2dc0 817c 2e3f
00000120: 2c42 0b3f 65b6 e03e 69b0 0ec0 3476 cd3f
00000130: c1ac 2cbe 7d53 2ebf bb03 ed3e a431 9f3e
00000140: 2682 8dbf 473a 0bc0 0e7e 993e 8ba4 5d40
00000150: df96 6abf c0d5 0ec0 b989 4abf 93b6 8f40
00000160: 24e2 1c40 a9a1 063f 177e a9be 8095 3ec0
00000170: 3928 53bf 806a 37c0 3665 a83f 4fe4 1040
00000180: f91f efbe 5310 4cc0 aea3 b03f 5711 1740
00000190: 1ca3 b03e 8021 673f 5d70 9dbf 0f6e 063e
000001a0: 9ef4 be3e 4344 803e b6d6 203e 1035 5dbf
000001b0: c8bf c2bf 4b57 cc3e 9012 073f 67b5 283f
000001c0: 7665 3f3f 2876 c53f 063c d0be 1456 01c0
000001d0: 8d41 84bf 5b4b ab3f 723f f93f 7f06 20c0
000001e0: 1db0 b3be 60e3 b13e 85e1 b3bf dbfb ba3f
000001f0: c6fa af3f 4bf1 433f acda 09be bdf5 15c0
00000200: 59be 4ac0 ec88 76be f99b 4240 30d6 4c3f
00000210: dea5 bb3e 8db1 a0bf 52d8 1c3f 496c 913e
00000220: 00de ffbe c3ed 833f cf26 b3bf 86a0 743f
00000230: cbd5 1dbf 1e63 c73f 4754 423f 8d95 f0bf
00000240: eb50 e13f 7e41 96bf 65fd 243f 6e50 d2bf
00000250: 69c8 b1bf 3c72 4f3e 315b 1c40 c035 aebf
00000260: 02f8 843f e425 593e d318 07bf 6e92 63bf
00000270: 4d2e 753f 54d8 1e3e e9c0 4c3f fe77 11c0
00000280: 54d5 873f 44c6 0f40 dc83 873d 4b83 72c0
00000290: bb15 7dbf 71ed 8dbf ef48 3f40 644f 98bf
000002a0: ddce 93bf 3f79 88bf 189f dc3f 7d29 3b3f
000002b0: c167 293d 349a b53f 0888 56bf 467e 3cbf
000002c0: 26b2 123f 6e98 1240 9c72 e2bf 6f59 bdbf
000002d0: 3f21 ea3e 4a13 8f3f 39e9 c3be 8533 babf
000002e0: 751e e23f aa1a 1840 a4be cfbf 7d86 42c0
000002f0: 6309 98bf 81ad 80be ab3b bcbe bc02 0240
00000300: fc70 323d dd53 d33f e08d 10bf 46e7 9cbf
00000310: 59f2 473e 688c 3c3f 8977 c93f 1750 3ec0
00000320: 6e50 b93e 6ef3 a5bf 66a6 89bc 73d1 553f
00000330: 7d67 bfbf 8084 5cbf f305 72bc 6d82 3c40
00000340: dc2c a7bf 9e4c d1bf eb32 7f3b f010 5b40
00000350: 13c4 703c f444 1e40 65e0 f73e b00d 4ec0
00000360: a0e5 0e3f 5549 00c0 b41a 05be eb64 d83f
00000370: 5a88 d5bf be21 ebbf b0be 87be ad4a 8740
00000380: a5a3 523f 3efa 1cc0 93f0 1c3f 9800 733f
00000390: 65d9 663e 34b9 ddbf b449 a83f ca01 b73e
000003a0: 7f8c 29bf 9e6b 8abf 7dfc 5abd cf66 f73f
000003b0: 6b2c 8f3f 3ef4 af3f be01 6ebf f7a9 e2bf
000003c0: 2b71 083f 6b57 393f d4b0 643f d695 16c0
000003d0: 837b 7fbe 604d aabf 859d 7fbf dc28 2a40
000003e0: c8f6 31bf ca67 dc3f 5256 46bf 1ae2 d1bd
000003f0: 6738 7e3f 7b7f 593f 21b5 df3f 2782 82c0
-2.2069771 -4.097061 7.1653438 -0.10472955 -1.1014627 -0.5369272 -0.08262041 2.1624005
1.1129253 -0.3038066 1.1463544 -2.3550382 -1.3467305 -2.4376962 0.112536184 4.210781
-2.2122793 -3.4625485 2.9309065 3.0446465 -0.28868872 -0.3587046 -0.5306325 1.2333951
-1.025423 -1.3629485 -0.53210616 3.135412 0.73017997 0.49366343 -0.7894311 -0.48043507
-1.059623 -0.92208844 1.623823 0.17010148 -0.05451906 -0.10463519 0.6798414 -0.79420644
0.9277301 2.1107268 1.1079863 -4.757336 -1.276352 -0.16087915 0.23659126 1.2503693
0.69119036 1.0378563 -0.8520049 -1.0447454 0.4850224 2.5721588 -0.45534897 -2.9315703
1.974599 0.8017362 0.11999197 -3.6007729 -1.7632372 -1.7049986 1.2347702 2.553197
0.45759118 -0.45549148 0.26495275 -0.48802325 0.8321285 1.4210055 -2.7133207 0.6815873
0.54397845 0.43889156 -2.2295172 1.6051698 -0.16862775 -0.68096143 0.4629191 0.3109256
-1.1055343 -2.175432 0.29978985 3.463168 -0.9163646 -2.2317963 -0.791164 4.491037
2.4513025 0.52590424 -0.3310401 -2.9778748 -0.8248325 -2.8658752 1.3155887 2.2639349
-0.4670408 -3.1884964 1.3799951 2.3604333 0.34499443 0.9028549 -1.2299916 0.13127922
0.37296003 0.2505208 0.15706906 -0.8640909 -1.5214777 0.3991035 0.527627 0.659018
0.7476419 1.5426683 -0.40670794 -2.0208788 -1.0332505 1.3382372 1.9472487 -2.5003965
-0.350953 0.34743786 -1.4053198 1.460811 1.3748405 0.7654006 -0.13462323 -2.3431237
-3.167868 -0.24075669 3.0407698 0.80014324 0.36649984 -1.2554184 0.6126758 0.28402928
-0.4997406 1.0306934 -1.3996218 0.9555744 -0.6165435 1.5577123 0.7590985 -1.8795639
1.7602819 -1.1738737 0.6444915 -1.6430795 -1.3889285 0.2025842 2.443066 -1.3610153
1.0388186 0.2120586 -0.52772254 -0.8889531 0.95773774 0.1551221 0.7998186 -2.2729487
1.0611978 2.2464762 0.06616947 -3.7892635 -0.98861283 -1.1088086 2.9888265 -1.1899228
-1.1547505 -1.0662001 1.7236052 0.7311018 0.041358713 1.4187684 -0.8380132 -0.7363018
0.5730308 2.2905536 -1.7691226 -1.4792918 0.4572849 1.1177762 -0.38263872 -1.4546973
1.7665545 2.3766274 -1.6230054 -3.0394585 -1.1877865 -0.25132373 -0.36764273 2.031417
0.04356478 1.6509968 -0.56466484 -1.2258079 0.19526042 0.7365174 1.5739604 -2.9736383
0.36194175 -1.2964914 -0.016802978 0.8352272 -1.4953457 -0.8613968 -0.014771926 2.9454606
-1.3060565 -1.6351507 0.0038940262 3.4229088 0.014695185 2.4729586 0.48413387 -3.2195854
0.5581913 -2.0044758 -0.12998468 1.6905798 -1.6682236 -1.8369672 -0.2651267 4.2278657
0.8228095 -2.4527736 0.6130459 0.9492278 0.22543867 -1.7322145 1.3147492 0.35743552
-0.66230005 -1.0814092 -0.053463448 1.932825 1.118543 1.3746412 -0.9297141 -1.7708119
0.5329768 0.72399014 0.8933232 -2.3528953 -0.2494946 -1.3304863 -0.9984973 2.6587439
-0.69517183 1.7219174 -0.77475464 -0.102482036 0.99304813 0.84960145 1.7477151 -4.0783877

pool_layer_after.clusters2 f4 [1, 512, 4]
00000000: 6612 edbe 9004 1e3f 0f5e da3e c4a9 cabe
00000010: 69e8 c23b 4efe a1bd 6aca f5bb 54ff c03d
00000020: eb8f b5bc 3e58 48bd b3a0 163d 5155 3abd
00000030: 6526 7a3c 51b1 17be ffff 5cbd c2cb c13d
00000040: af05 ccbc f9fe 573d f901 7abd d5b6 4ebc
00000050: 4791 cebb f8df 6abd 5c03 cc3d 7fd1 203c
00000060: 794a d7bc 03e9 d6bc 30d3 753c 6bc1 8abb
00000070: c10f e53a 1871 0ebd 622d 2e3b cfad a9bb
00000080: 35d6 473c 68bc 483c 2c23 0c3d 5cac fa3c
00000090: ada4 d4bc 0988 24bc 0217 ef3c 7dfb de3c
000000a0: 2f72 82bc 426e 723b 2a36 1bbd 0564 14bd
000000b0: 8ffd aabb d71b 1abc 7336 05bd f705 9ebb
000000c0: fd0c a4bb 6a61 c0bc d5f7 cb3b 4c88 a8bb
000000d0: 4621 c1bc 14ca 9e3c 29fd 313c ee50 2cbc
000000e0: 6f1d 043c fc5a d2bb d7f2 1ebb 6bb7 ddbc
000000f0: c702 90bc 3469 4abc 3e69 a9bb 0ac1 533b
00000100: df36 65bc 42d7 d1bb c77c e339 dbdb d8bb
00000110: 9261 c73a b1f7 90ba eb53 91bb 1688 96bb
00000120: e078 ccba d7e8 ec3a 122e e43b af8a 3b3b
00000130: 8ab6 abbb 97a0 883b aeab 0fbd 83d3 84ba
00000140: e577 14bc 9013 38bc e492 0c3b 9d06 133c
00000150: ec80 4a3c d7dd fcba 770d 4cbc 84f9 b0bb
00000160: 721b 9e3b d2a5 94bb 1f07 6cbc 68f5 b0bc
00000170: 56de 3e3c 647f e03b 6b19 153a c7b3 543b
00000180: d0c6 483c cd16 8dbb 3688 eabb daf1 a6b8
00000190: 7349 083c c98a 1a3b 52ae dcbb 2430 eabb
000001a0: c418 d5ba 1651 1c3c 71ac 8a3b cf24 81ba
000001b0: 26fe c4ba 9364 563b 97df 8f3c 6e26 7d39
000001c0: 04b0 c5bb 6b49 353c 6950 823c 4a1f 233c
000001d0: b1c7 9d39 08c8 abbc e0c2 b0bb 9a4d 44bc
000001e0: b27f 35bb be6b bb39 c0b2 37bb febe 0c3c
000001f0: 53ad 843b 9e11 a23c 2e63 ddbb 208a 2d3c
00000200: b143 71bc 78cc b2bb ad98 203c f29e a23b
00000210: 8504 2f3c fba0 913c 1a05 e3ba 4555 003c
00000220: 348b 13ba 2110 2b3c 82cb 2fbc c994 a93b
00000230: 8934 86bc 04d1 eabc ca51 6d3a e68b dbbb
00000240: 4e0f af3b e01f 80bc e69f 77bc 4c2d b0ba
00000250: bbf4 00bc 07d5 b8bc 4404 3e3c f982 fabb
00000260: 0b90 9cbb 918b 803c 7c69 953c 53fb a43a
00000270: 56f8 463b e99c 813c fee6 4aba 184b 05bb
00000280: b9e2 d03b 1760 433c 656f 4f3c 6c7f 833a
00000290: 8b81 30bb a85b b4bc 7728 9a3a e270 ebbb
000002a0: 8c57 883a fa7d 5abc 7f79 9dbc 5423 c4bb
000002b0: 8fa9 e03a 6cd6 643c 5f15 f13b 4f7d cabb
000002c0: d761 583b 9226 cb3c 4814 a1bc 0665 17ba
000002d0: 0ee4 673b e0c0 28bc 629a a9bc f57c 03bc
000002e0: e8b3 f53b b930 8bbb f3be 543b 2221 72bb
000002f0: ffe0 63bc de05 d4bb 9f38 a23c 8d2f 313b
00000300: a001 1b3c 9b69 9bbc 2466 013d b9cb 0bbc
00000310: 05ea 0d3b 1175 773c b79f be3b d83f 27bb
00000320: ff86 c03b 137b 9fba c5b6 34bc 4104 d93b
00000330: 4560 0bbc 9ef2 353c f307 133b dc92 023b
00000340: fd50 fbba 2175 39bc 91c5 fabb e7c5 243c
00000350: bccb e7bb 49e7 933b b291 113c c5d7 cbbb
00000360: d61f 97ba 98a7 b9bb 8593 ccbc 1264 503a
00000370: f82b 5c3a fc34 b2bc 87b9 6bbc 577e 293c
00000380: 3125 cebb 0019 9b3b 32c4 edba 0832 a33b
00000390: 4929 e43b ec83 acba fa7d 853b ddfe 26b9
000003a0: 1026 8ebb 67ed bbbb 0d62 5cb9 cab9 5d3b
000003b0: 031a ab3b 71df 87bb 1cc9 ca38 ab03 c13b
000003c0: 401b bebb 0aa3 623c eba0 ebbb f99c 9639
000003d0: 8fd5 c8b9 df14 2d3c 36de 98bb 2a8b b03b
000003e0: bbe5 5b3b 7db0 f1bb 6aec 4b3c e958 9bbb
000003f0: 70b7 f63b 8671 1ebc 7536 59bb e944 b8bb
-0.463031 0.6172571 0.42649886 -0.39582646 0.0059481156 -0.07909833 -0.0075009363 0.094237
-0.022163352 -0.04891228 0.03677435 -0.04549152 0.015267943 -0.14813735 -0.053955074 0.09462692
-0.024905054 0.052733395 -0.061037038 -0.012616833 -0.0063039395 -0.0573425 0.09961578 0.009815573
-0.026280629 -0.026234156 0.015003964 -0.004234483 0.0017476009 -0.034775823 0.0026577343 -0.0051781903
0.012197067 0.012251951 0.03421323 0.030599765 -0.02595743 -0.010042199 0.029185776 0.027219528
-0.015923588 0.0036991988 -0.03789345 -0.0362282 -0.005218215 -0.009406052 -0.03252263 -0.0048224884
-0.005006431 -0.02348395 0.0062246122 -0.005143201 -0.023575436 0.019383468 0.010863581 -0.010517342
0.008063658 -0.0064195376 -0.002425363 -0.027065 -0.01757945 -0.012354184 -0.0051700165 0.0032311105
-0.013990133 -0.0064038346 0.0004338978 -0.0066180057 0.0015211573 -0.0011060146 -0.0044350526 -0.0045938594
-0.0015599988 0.0018074763 0.0069635 0.0028616597 -0.005240266 0.0041695344 -0.035075836 -0.0010133836
-0.009061788 -0.011235133 0.0021449858 0.008973745 0.012359839 -0.0019292188 -0.012454382 -0.0054008383
0.004825049 -0.004536369 -0.014405995 -0.021601394 0.011649689 0.0068511236 0.00056876865 0.0032455788
0.012254432 -0.0043056966 -0.007157351 -7.960545e-05 0.008318293 0.0023581258 -0.006734648 -0.007146852
-0.0016257991 0.009540817 0.0042319824 -0.0009852889 -0.0015029355 0.0032713755 0.01756267 0.00024142276
-0.0060329456 0.0110648675 0.015907483 0.00995619 0.00030094155 -0.020969406 -0.0053943247 -0.011981392
-0.002769452 0.00035747694 -0.0028030127 0.008590458 0.004048982 0.019783791 -0.006756208 0.010592014
-0.014725612 -0.0054565035 0.009802026 0.0049627954 0.01068223 0.017776957 -0.0017320246 0.00783283
-0.0005628348 0.010440857 -0.010729672 0.0051752073 -0.016382473 -0.02866412 0.000905302 -0.006700027
0.0053424006 -0.0156402 -0.015113806 -0.0013441234 -0.007870848 -0.022562517 0.011597697 -0.0076450077
-0.0047779134 0.01569155 0.018238775 0.0012587107 0.0030360422 0.01582189 -0.0007740109 -0.0020338949
0.0063746837 0.011924765 0.012660836 0.0010032482 -0.0026932682 -0.022016361 0.0011761327 -0.0071850875
0.0010402068 -0.013335699 -0.019222973 -0.0059856568 0.0017140376 0.013967138 0.007357284 -0.0061794887
0.0033017301 0.024798665 -0.019662991 -0.00057752465 0.0035383734 -0.010299891 -0.020703498 -0.008025398
0.007498253 -0.0042477516 0.0032462447 -0.0036946018 -0.013908624 -0.006470426 0.01980239 0.00270364
0.009460837 -0.018971255 0.03159155 -0.008532458 0.002165438 0.015103594 0.0058173793 -0.0025520232
0.005875468 -0.0012167416 -0.011029904 0.0066228216 -0.008506839 0.011105208 0.0022435158 0.001992396
-0.0019173917 -0.01131943 -0.0076529463 0.010056949 -0.0070738476 0.0045136553 0.008884834 -0.00622079
-0.0011529874 -0.0056657307 -0.024972687 0.0007949482 0.0008398886 -0.02175378 -0.014387495 0.010345063
-0.0062910547 0.004733205 -0.0018140136 0.0049803294 0.0069629294 -0.0013161874 0.0040738555 -0.00015925938
-0.0043380335 -0.0057350877 -0.00021017362 0.0033832663 0.0052216067 -0.0041465093 9.66957e-05 0.00589033
-0.0058015883 0.013832817 -0.007190814 0.00028727183 -0.00038306086 0.010564058 -0.0046651615 0.0053876834
0.0033553678 -0.0073757754 0.012446502 -0.0047408235 0.0075291917 -0.009670621 -0.0033144031 -0.005623449

fc.weight f4 [18, 4096]
00000000: 64f0 133e 159b 4c3d 6103 033e b63f cebc
00000010: 89ba 31be 4b6b 8bbc 9502 4fbe 32ce 3cbe
00000020: 0fa1 9abe bf11 97be 36b2 4abe 8ede 9ebe
00000030: f392 cdbd 2d51 373e 4a64 48be 4c58 8f3d
00000040: d83d d8bd d546 923f 652a b53e eda8 ab3d
00000050: 7161 973d c591 bf3d 18c3 50bd f2ac ad3d
00000060: 0aa7 fd3d 73f4 603f 2b10 ac3d cac2 94bc
00000070: a7ad 9c3d 7311 d2bd 1420 d9bd f279 aa3c
00000080: 2d29 d1bd ff84 89be 24b4 94be aff8 5cbe
00000090: d1ba f63c 2c11 02bf f6f2 89be 9dd0 753e
000000a0: 54b8 2d3f 81b3 073e ef11 d63e 2955 333e
000000b0: 47c9 123f f321 bc3e 58aa 763e 5720 573e
000000c0: b550 703e bea7 07be ff2f aa3d 79c6 173f
000000d0: 77c8 45be 3fc4 1dbd 8828 123e cad7 1abe
000000e0: 66e3 9fbd df06 a4be 9762 28be 32d7 4e3f
000000f0: 3390 02bd 51d3 1a3f f30a cb3e 238a 58be
00000100: b376 673e 8b65 83bd 52c9 c03e f6ff 143f
00000110: 6e2f f6be c45b acbd 437f a5bc 3f73 27bf
00000120: b750 76bf 76d5 42bf 187a 4ebf c42a 09bf
00000130: c31a bbbd 917d 583e 66b5 803d 45da 65bf
00000140: e0f0 db3b a2ea ca3e d4bf 12be 2717 afbc
00000150: 7a36 ab3e a5a5 7e3f 69ad 933f ea98 043e
00000160: 6756 403f 4a8c c93e f16d 6d3f 0464 483f
00000170: 5f30 063e d807 ec3e 0cf4 8f3e 7df7 34be
00000180: 6aef f63d d714 853f 8230 5a3f c045 0a3d
00000190: cb20 b6bd c593 883e f7f6 a8be a4fe 34bf
000001a0: 11e9 fcbe 241d 85bf 6f8b 48bf 34c1 ef3d
000001b0: b43d 5fbd 86d4 bcbe 4876 4fbf fb4c 40bf
000001c0: 3c73 c1be ea28 ecbe b475 9cbe 2022 f83e
000001d0: bff7 633f 724d 39bf a545 6e3e 25c0 57bf
000001e0: 9cd5 1f3e 8fbe 453f 4fad 2cbf 2b52 22bf
000001f0: d422 0f3e 2590 84be cfb0 203f 25aa 29bf
00000200: e0e2 7d3e fb6f 1cbe 7c7e b7bd dd5e d9bd
00000210: 9399 64be 3d85 f6be e044 a8bd 5f18 eb3c
00000220: 87b8 9fbe 65e6 53be 8d13 8cbf 283d 12bf
00000230: f055 1abe 3bad 10be ac98 45bf b09c 15bf
00000240: 91c0 9a3e a908 ff3c a029 b43f 211a 2e3f
00000250: 1695 7c3e c76b 99be 977f 823e 688a 863f
00000260: 2f17 d5be 306f 71be 88f0 eebe 6742 653e
00000270: bfa5 853e 8881 903e 85a7 7f3d 700e 173f
00000280: 87b8 debe 8d04 77bf e344 99bf 8ec9 40bd
00000290: ac7a 4b3f 1905 0f3f ebb8 103e 93b3 d33e
000002a0: 09b4 a13f d6ed b63e e6ea 643f 42f5 6b3f
000002b0: 74d2 813f f26f e9be f780 cd3e 4712 933f
000002c0: 4680 cf3e 2e4b 763e b127 28bf d61e cebd
000002d0: e137 033f a3f4 ddbd cae3 a23e 4a65 aabe
000002e0: 6f6d 3b3e 50fc 3bbf 04e6 903d f700 a3bc
000002f0: 8384 ddbe 11a2 aa3c 56f9 05bd 0503 4f3f
00000300: 88d9 bf3d 56cf 4abe a868 c93e 8963 373f
00000310: 0bbc f43e cb25 03bf dbb4 6dbe 497a 5f3f
00000320: 050e 093f 6295 b73e fd25 523f 482a b93d
00000330: e58f 20bf 4aa4 e3be a08b 42bf 9ff4 14bf
00000340: 9d59 1d3e 6839 ba3f 97ee b03e 5d07 0cbf
00000350: 1f1f f13d 5540 8bbf a7ae b7be 1010 6d3e
00000360: d42f 083e a91e 1e3f 9daa 173e 6868 52be
00000370: 05aa 4ebe 007b 013f 27e5 dcbe fa4d 95bf
00000380: b8d3 343e 8818 a5bd 3718 08bf d429 083e
00000390: 5efd 4c3f a535 b9be cfea 273f 215c 963f
000003a0: 28ff 7cbf 4b5f 3b3f 2431 763e c7a8 c0be
000003b0: 4d24 55be 5d1b 323e eb92 a53d 4e2d 6cbd
000003c0: 8687 6c3c e2fe 86bf 3c37 6ebe f3fd 76be
000003d0: d980 aebe ec4a b73f ca11 da3d 759f 5ebf
000003e0: 35ff 0cbe 299d 8d3e 4825 15bf f64e 81bf
000003f0: ecf8 9b3f a160 4e3e 1609 143f 636c 373f
0.1444717 0.049952585 0.12794258 -0.025176864 -0.17356314 -0.017018935 -0.20215829 -0.18438032
-0.30201003 -0.29505727 -0.19794545 -0.3102917 -0.10037794 0.1790206 -0.19569507 0.06999263
-0.10558671 1.1427866 0.35383907 0.083818294 0.07391632 0.09353975 -0.050967306 0.08480252
0.12385376 0.87873 0.08401521 -0.018159289 0.07650309 -0.102572344 -0.106018215 0.020810101
-0.10212932 -0.2685928 -0.29043686 -0.2157924 0.030118378 -0.5080745 -0.26943177 0.24005361
0.6785939 0.13252069 0.41810557 0.17512955 0.57338375 0.3674465 0.24088418 0.2100843
0.23468287 -0.13247582 0.08309936 0.5928722 -0.19314753 -0.038517233 0.14273274 -0.1512138
-0.07807045 -0.32036492 -0.16443859 0.8079711 -0.0318758 0.60478693 0.3965679 -0.21146445
0.22603874 -0.06415852 0.37653595 0.58203065 -0.4808306 -0.084159404 -0.020202285 -0.65410227
-0.9621691 -0.76106966 -0.8065505 -0.5358088 -0.09135964 0.2114165 0.06284599 -0.8978618
0.006712064 0.39632136 -0.14330989 -0.021373345 0.3344 0.99471503 1.1537296 0.12948957
0.7513184 0.39364845 0.9274588 0.7827761 0.1310439 0.46099734 0.2811588 -0.17672534
0.12057383 1.0396985 0.8523027 0.033757925 -0.088929735 0.2667524 -0.3300092 -0.7070105
-0.49396566 -1.0399518 -0.7833776 0.117067724 -0.054502204 -0.36880893 -0.8103986 -0.7511746
-0.3778323 -0.46124965 -0.3055855 0.48463535 0.89049906 -0.723838 0.23268755 -0.84277564
0.1560883 0.77243894 -0.6745195 -0.6340663 0.1397813 -0.25891224 0.6276979 -0.66275245
0.24793577 -0.15277092 -0.08959672 -0.10613797 -0.22324209 -0.48148528 -0.08216262 0.028698144
-0.3119547 -0.20693357 -1.0943466 -0.5712457 -0.15071845 -0.14128582 -0.77186084 -0.5844221
0.30225042 0.03113206 1.4075203 0.6800862 0.24666247 -0.2996504 0.25487968 1.0510988
-0.4161925 -0.23577571 -0.46667886 0.22388612 0.26103017 0.28223825 0.06241562 0.59006405
-0.43500158 -0.9649132 -1.1974148 -0.047067218 0.7948406 0.55867153 0.1413304 0.41347942
1.2633067 0.3572833 0.89420927 0.9217111 1.014235 -0.4559322 0.40137455 1.1489953
0.40527552 0.24052116 -0.65685564 -0.10064475 0.5125714 -0.108376764 0.31814414 -0.33280402
0.18303464 -0.73431873 0.07075122 -0.019897921 -0.4326516 0.020829232 -0.03270849 0.8086398
0.09367663 -0.19805655 0.3933766 0.71636254 0.47799715 -0.5122954 -0.23213522 0.8729597
0.5353702 0.35856158 0.82089216 0.09041268 -0.62719566 -0.4446128 -0.759943 -0.5818576
0.15366216 1.4548769 0.3455703 -0.54698735 0.11773514 -1.0879008 -0.35875437 0.23150659
0.13299495 0.61765534 0.14811178 -0.2054764 -0.20182045 0.5057831 -0.4314358 -1.1664422
0.1765889 -0.080613196 -0.5316195 0.13297206 0.8007411 -0.3617374 0.65592664 1.1746866
-0.9882684 0.7319228 0.24042183 -0.37628767 -0.20814629 0.17393251 0.08084663 -0.057660393
0.014436608 -1.0546534 -0.23263258 -0.24120311 -0.34082678 1.4319739 0.10647924 -0.8696206
-0.13769229 0.27658966 -0.5826001 -1.0102222 1.218534 0.20154049 0.57826364 0.7164976

fc.bias f4 [18]
00000000: 7f6f b1bd 32e5 38bf f841 92bf 70e1 3cbf
00000010: 3ad9 5abf 95f6 58bf 7742 72bf 1948 6bbf
00000020: dc97 96bf bb37 f5bc 9535 89be 2843 9dbe
00000030: 1549 59bf 86f9 36bf e673 d2bf f3a7 19bf
00000040: 5892 31bf ff54 1abf
-0.08663844 -0.72224724 -1.1426382 -0.7378149 -0.8548771 -0.84751254 -0.9463267 -0.9190689
-1.1765094 -0.0299338 -0.26798692 -0.307153 -0.8487714 -0.7147449 -1.6441619 -0.60021895
-0.6936393 -0.60285944

exp_avg f4 [512, 4]
00000000: d0ff 9638 3693 f938 0ba1 a5b8 f5f1 eab8
00000010: 3fa2 b638 3f85 ddb7 a89c 72b8 8a53 3eb6
00000020: 9d06 f137 94a6 9036 204f 9b36 0302 1eb8
00000030: 6df5 22b6 9436 2638 3a68 0c38 bd37 94b8
00000040: 6488 89b7 d9be 9637 8c03 cdb7 1acd bf37
00000050: 0ec6 71b7 19fe c035 5917 33b7 d15e c637
00000060: d5c5 86b7 3192 ac36 4bb6 6037 f6ce 25b6
00000070: 1e0e a9b6 9584 1337 dc0b 7537 ab04 9ab7
00000080: 77bc 1db8 17f7 d036 6993 8d37 714f 7337
00000090: 70ff a837 8b0d f9b6 4d12 0037 32c5 aab7
000000a0: c3bf 2fb6 6e54 07b8 ee6a cd37 e86b 2e37
000000b0: 7414 0638 ba11 b0b7 a7cf 74b5 5ee1 28b7
000000c0: d99f 67b7 d195 24b7 bd05 8e37 7554 e036
000000d0: ee23 f1b7 831e b835 1b5b e436 3e8b ac37
000000e0: f57d 09b6 0847 f3b6 acb3 0a37 8f7a 8a35
000000f0: add1 0537 6168 6736 ef67 7435 43f2 4eb7
00000100: cc95 adb6 09b4 3336 60f4 08b7 3fd2 3237
00000110: 9a85 ddb6 af98 82b7 a9d4 6c37 8f1f 0737
00000120: 5e7b 52b4 aa7f 9536 22f1 fcb5 165f 1fb6
00000130: ed98 71b7 72ad ce35 783a bc36 104c f336
00000140: fdd3 84b7 77ae 30b7 7f52 5937 ed03 6137
00000150: e138 6db6 b606 d8b6 9d98 1b36 626b 0037
00000160: 5018 f5b6 d105 8837 d280 24b6 96be d8b6
00000170: b884 e435 37e6 74b7 e8d0 4e37 bb4b 1835
00000180: 6c9b 44b7 1a14 4136 ad83 9e36 2429 8a36
00000190: d467 54b6 225d 93b5 fc51 aab6 98ae 1c37
000001a0: 10de 4c37 3005 1b37 7b5e 82b7 a14c c6b6
000001b0: e508 3037 8f8a 52b5 f3f7 1b37 186c 9fb7
000001c0: baaf 6a37 3ce3 54b6 49b5 27b7 de19 5cb5
000001d0: e2ae 6235 b1af 0037 7e72 9736 d693 5ab7
000001e0: 0bf8 ee34 d27c ff36 7c90 c0b6 c0b7 1bb6
000001f0: ee48 84b6 03b2 dcb6 4a7a 3d37 48cd 4fb5
00000200: 004d 90b7 a5ef 92b7 689c 9437 3da0 8e37
00000210: 7c7f 01b7 59ce 8936 db06 1835 8f5f 4c36
00000220: e16b 64b6 f958 4e37 beb2 20b7 ad4b 3735
00000230: 1df4 32b7 99b9 0837 1c72 7236 cd0f 93b5
00000240: b275 f236 b057 8933 05c3 83b6 39b0 61b6
00000250: f655 2bb7 2193 31b6 2ddf 4c36 f082 2437
00000260: 33d5 1e37 e633 97b5 3d22 efb6 80ec a2b5
00000270: 9a14 e036 296c f5b5 19c4 57b7 5367 0637
00000280: b1aa 0137 79f7 17b5 8122 cbb5 e28d bdb6
00000290: 79ad 70b7 ced3 46b4 6ecd 2c35 f4fb 6837
000002a0: 1d53 c4b5 91e0 c7b6 6dde aa36 da2d 1c36
000002b0: c709 30b6 2d72 3536 165f 8436 3613 87b6
000002c0: a0d8 f1b6 4deb 66b6 40c4 7137 7974 7cb6
000002d0: fc02 83b5 275e 2436 c4c2 e935 10be 57b6
000002e0: 6221 5037 b535 19b6 1ca5 18b7 de76 89b5
000002f0: 559e 89b6 7265 cfb6 dd47 2537 cc40 e734
00000300: 32f8 a5b6 4297 1537 701b 4db7 4280 0a37
00000310: ba11 1cb7 c110 b736 f90c 52b4 1ea3 8736
00000320: cb9b 1a34 b18a be35 1c92 abb5 1231 99b4
00000330: 3cc5 8336 3f5c 0335 44c2 51b6 863e adb5
00000340: ac98 1f36 be16 a736 75de 50b7 d2d9 aa36
00000350: e5c7 bfb4 b1ae 37b4 1d02 86b6 18bc 9736
00000360: 9fdb 2eb6 40fc 9836 0c31 38b6 7550 5435
00000370: cdc4 6e35 7092 5cb6 1d15 59b6 2dfb bc36
00000380: ed3a 9136 7c06 ee36 ea1f 8a36 5758 82b7
00000390: 8f05 c6b5 1700 3ab6 b71e cb36 1075 f2b5
000003a0: 19c2 92b5 3a27 de36 bce6 0bb7 91ad 3c36
000003b0: 9d0a eab6 f922 ac35 7cb0 6037 882f 01b7
000003c0: cdd8 f436 d7b8 31b7 9bdc fe34 2756 3d36
000003d0: 82b8 0a34 a54a ac36 a315 4eb7 ce8a eb36
000003e0: 13c1 4437 8c68 7534 a7c5 50b6 4c65 14b7
000003f0: 173e 9db6 847d ae35 b685 e435 10f5 e135
7.200206e-05 0.000119006654 -7.89781e-05 -0.000112030575 8.708657e-05 -2.64073e-05 -5.7843194e-05 -2.8360832e-06
2.8732518e-05 4.3109267e-06 4.6285713e-06 -3.767201e-05 -2.4282738e-06 3.9628314e-05 3.347567e-05 -7.067572e-05
-1.6395185e-05 1.7970264e-05 -2.4439556e-05 2.2864482e-05 -1.4410833e-05 1.4379067e-06 -1.06746675e-05 2.3647592e-05
-1.6066168e-05 5.1430184e-06 1.3393884e-05 -2.4707383e-06 -5.038236e-06 8.792752e-06 1.4605899e-05 -1.8360404e-05
-3.760724e-05 6.227648e-06 1.6877153e-05 1.4502425e-05 2.0146108e-05 -7.422355e-06 7.6336555e-06 -2.0357405e-05
-2.6188652e-06 -3.226514e-05 2.4487697e-05 1.0396332e-05 3.1967138e-05 -2.098909e-05 -9.119926e-07 -1.0066053e-05
-1.380589e-05 -9.810044e-06 1.6930391e-05 6.6855523e-06 -2.874617e-05 1.3717948e-06 6.8055356e-06 2.0568837e-05
-2.0487907e-06 -7.2502335e-06 8.267274e-06 1.031747e-06 7.976237e-06 3.448244e-06 9.1048327e-07 -1.2334963e-05
-5.1732404e-06 2.6777873e-06 -8.16313e-06 1.06585785e-05 -6.6018665e-06 -1.5568306e-05 1.411621e-05 8.053975e-06
-1.9602655e-07 4.455408e-06 -1.8845642e-06 -2.3748194e-06 -1.4400325e-05 1.5398675e-06 5.6096433e-06 7.250819e-06
-1.5834341e-05 -1.0531038e-05 1.29534155e-05 1.3411959e-05 -3.534886e-06 -6.438083e-06 2.3185632e-06 7.6543965e-06
-7.3043993e-06 1.6215172e-05 -2.4512888e-06 -6.4594888e-06 1.702595e-06 -1.4597134e-05 1.2327197e-05 5.6734615e-07
-1.1718697e-05 2.8770942e-06 4.724096e-06 4.11751e-06 -3.1650898e-06 -1.0979459e-06 -5.075939e-06 9.338975e-06
1.22110505e-05 9.239928e-06 -1.5541204e-05 -5.9097806e-06 1.0492488e-05 -7.8432726e-07 9.29645e-06 -1.9004612e-05
1.3988401e-05 -3.172273e-06 -9.996184e-06 -8.199403e-07 8.444605e-07 7.670301e-06 4.5134793e-06 -1.3028233e-05
4.451143e-07 7.614123e-06 -5.738866e-06 -2.3203756e-06 -3.9423967e-06 -6.577234e-06 1.12937505e-05 -7.741223e-07
-1.7201994e-05 -1.751615e-05 1.7715807e-05 1.7002336e-05 -7.718681e-06 4.10694e-06 5.663439e-07 3.0453991e-06
-3.4037441e-06 1.2299272e-05 -9.57836e-06 6.8282935e-07 -1.0666464e-05 8.1494445e-06 3.612723e-06 -1.0956952e-06
7.2258636e-06 6.39551e-08 -3.9268075e-06 -3.3630188e-06 -1.0212409e-05 -2.6460696e-06 3.0528274e-06 9.805648e-06
9.467173e-06 -1.1265481e-06 -7.126741e-06 -1.2138771e-06 6.6781186e-06 -1.8285401e-06 -1.2860656e-05 8.011079e-06
7.728741e-06 -5.6612004e-07 -1.5134721e-06 -5.6491563e-06 -1.43455045e-05 -1.8517241e-07 6.437393e-07 1.388694e-05
-1.4627327e-06 -5.956805e-06 5.0922886e-06 2.32725e-06 -2.6231735e-06 2.703756e-06 3.944976e-06 -4.02555e-06
-7.207578e-06 -3.4409634e-06 1.4410412e-05 -3.7618722e-06 -9.761129e-07 2.4492708e-06 1.7416537e-06 -3.2148128e-06
1.2405539e-05 -2.2830038e-06 -9.0983485e-06 -1.024189e-06 -4.1013504e-06 -6.1808905e-06 9.851498e-06 4.307425e-07
-4.946277e-06 8.9163095e-06 -1.22253405e-05 8.255303e-06 -9.302452e-06 5.4557754e-06 -1.9562493e-07 4.042303e-06
1.4399045e-07 1.4196468e-06 -1.2783016e-06 -2.8534174e-07 3.9270653e-06 4.893554e-07 -3.1256504e-06 -1.2907701e-06
2.3781713e-06 4.9796354e-06 -1.2449561e-05 5.0917524e-06 -3.5721965e-07 -1.7106755e-07 -3.993757e-06 4.5220477e-06
-2.6055857e-06 4.5593188e-06 -2.7446686e-06 7.9093235e-07 8.894829e-07 -3.2867792e-06 -3.234781e-06 5.6320773e-06
4.3281966e-06 7.0937076e-06 4.116436e-06 -1.5538344e-05 -1.4753767e-06 -2.7716212e-06 6.053447e-06 -1.8064475e-06
-1.0934338e-06 6.620682e-06 -8.338768e-06 2.8115212e-06 -6.974979e-06 1.2825177e-06 1.3392531e-05 -7.700066e-06
7.2970056e-06 -1.05930585e-05 4.7471698e-07 2.8213342e-06 1.2919375e-07 5.134689e-06 -1.22835945e-05 7.0197048e-06
1.1727464e-05 2.2855437e-07 -3.1109464e-06 -8.845072e-06 -4.686193e-06 1.300054e-06 1.7026239e-06 1.6835129e-06

exp_avg_sq f4 [512, 4]
00000000: e3cd 5033 5de5 1934 c593 6f34 5bdc 4834
00000010: 26fc 1133 631b 6a32 417e 0a33 efef 1433
00000020: 0ba9 cf32 2ffb 7832 e8f7 c632 35f6 e632
00000030: b1ca a932 b5fd 6f32 1dcb e532 ae5b dd32
00000040: d2d1 4a32 b605 2a32 84ed 6432 58f7 5032
00000050: 95e4 0432 bd69 1432 6c41 4132 d599 4932
00000060: 547c ae31 57f3 c331 6daa e631 646c e331
00000070: 3429 d831 90fa 5e31 5e01 fb31 57d8 0432
00000080: db43 0332 eee0 b031 b615 1b32 7993 1f32
00000090: 3d37 9e31 5314 8331 9bcf c631 8fa4 c131
000000a0: 4228 9c31 b048 9f31 4f37 c331 cd4c d631
000000b0: 0b2c 9e31 146f 5a31 e464 a931 4843 c231
000000c0: 18f5 8e31 6efc 4c31 754b a331 c7c3 aa31
000000d0: c0f5 6831 c751 6231 d970 8e31 4b61 9831
000000e0: 7c9d 5a31 9e7a 4831 94da 9331 6259 9431
000000f0: 693f 4f31 65cb 2b31 c70f 7f31 6c99 8231
00000100: 0173 4531 5b4b 1831 0286 7831 01cd 8f31
00000110: 01c5 3831 fe29 2931 9780 6331 8984 7731
00000120: 3b8b 1231 0d7d 1831 d365 5b31 3d1a 4d31
00000130: bd0c 2131 634f 3131 c455 6c31 a997 6831
00000140: c1bf 1131 4705 0c31 073b 4f31 8467 5531
00000150: fefe d930 4a70 2631 157a 4c31 006c 4a31
00000160: 43ef 1131 a21f 0131 6d1c 3231 ff33 3b31
00000170: a6d6 f330 5332 cf30 b808 1e31 7976 2731
00000180: a8c8 e330 22bb d530 583b 2031 3250 1431
00000190: 1989 f030 661c bf30 4268 2831 c169 2631
000001a0: 5d24 c830 85a1 db30 e619 1131 6dac 1b31
000001b0: a8b9 f830 709f c230 1beb 1331 289b 1c31
000001c0: ee7d c730 96a4 ad30 9fb2 1431 533a 1331
000001d0: 51c9 c130 039e b630 370a 0131 a111 1131
000001e0: fb61 b230 4097 ad30 e669 fb30 5293 0031
000001f0: 19c4 9f30 b492 c730 b0ba e530 ef1a e730
00000200: 71f1 b630 f917 b430 b67b 0131 fd59 f830
00000210: ba46 9830 2ef6 a930 ff72 ea30 8279 f830
00000220: 312e 9330 2c51 bc30 ad53 e530 a278 fd30
00000230: 4203 c430 4b31 8d30 01d9 de30 1b53 f030
00000240: 8828 9a30 5daf 8e30 ae40 e430 c523 da30
00000250: 8643 9730 a546 a230 4280 d730 1839 d630
00000260: 46b4 a130 3b3c 7e30 4745 ce30 fd48 d530
00000270: 0460 8c30 92bf 8830 b555 ca30 6746 cb30
00000280: 2135 8630 f58a 8630 476a b130 1564 c630
00000290: 481c 8930 2808 8330 e8c9 b630 caf5 a830
000002a0: 41c4 8e30 70e0 6e30 ffa8 b030 c714 b730
000002b0: 1104 7530 e5aa 8030 71a4 b030 2d0c b230
000002c0: 3c16 4130 81d8 9330 18a9 b730 a058 bb30
000002d0: 3ce7 4330 81e0 8730 13de a030 8cf1 9d30
000002e0: af00 3c30 aa6d 6c30 5608 9b30 b5c2 9430
000002f0: 7d24 3e30 3b95 6f30 0009 9a30 260a 9830
00000300: f187 5530 79b8 5d30 7c3b 9230 9730 9430
00000310: bf13 4b30 ad3f 4930 71b9 8d30 823b a530
00000320: 6d51 1f30 d2e3 6a30 a36f 8630 fa8b 9130
00000330: bf2b 2630 36c8 6330 9312 8f30 b411 9e30
00000340: 80d7 0f30 ea27 6230 b891 8730 e02a 8b30
00000350: 1cef 3830 cbef 2c30 81de 7f30 60dd 8130
00000360: 56ba 2d30 9713 3330 99e0 8930 7ac5 8930
00000370: 3456 1e30 16f4 4b30 4b48 6d30 d38c 7830
00000380: 6602 3630 02bf 2630 2c05 7030 8958 7b30
00000390: 4113 1030 a266 3e30 2ee6 6230 3eb2 6530
000003a0: 042f 0730 0cc3 3930 e6d4 7930 c377 8130
000003b0: dbd8 1f30 db91 2330 6dbb 6a30 a36e 6a30
000003c0: 4f83 2b30 b4b0 1a30 f797 5e30 0443 6230
000003d0: 36ed e32f 63cf 5530 2594 7a30 7e62 7d30
000003e0: 1868 1230 d747 1430 53eb 4a30 0b87 5e30
000003f0: 0c91 1e30 0c3b 1430 d4b2 6030 cda0 6930
4.8616027e-08 1.4332677e-07 2.2312368e-07 1.8706616e-07 3.398977e-08 1.362682e-08 3.2245456e-08 3.4677154e-08
2.4174843e-08 1.4492612e-08 2.3162968e-08 2.6887486e-08 1.9766363e-08 1.3969317e-08 2.6751474e-08 2.5769477e-08
1.1805655e-08 9.896601e-09 1.33253515e-08 1.2163433e-08 7.735385e-09 8.638776e-09 1.1248954e-08 1.1734717e-08
5.078201e-09 5.7029115e-09 6.713256e-09 6.618892e-09 6.2911116e-09 3.244768e-09 7.305217e-09 7.732601e-09
7.640632e-09 5.1478457e-09 9.027124e-09 9.2885495e-09 4.604685e-09 3.8149124e-09 5.7861604e-09 5.6357474e-09
4.5447743e-09 4.6357727e-09 5.681535e-09 6.236951e-09 4.6034123e-09 3.1786316e-09 4.9300173e-09 5.653792e-09
4.160608e-09 2.9829397e-09 4.752503e-09 4.9699085e-09 3.3900136e-09 3.2933813e-09 4.145573e-09 4.434843e-09
3.1812695e-09 2.917353e-09 4.3031125e-09 4.3175286e-09 3.015851e-09 2.4999391e-09 3.7116352e-09 3.80094e-09
2.8732645e-09 2.2161746e-09 3.6164924e-09 4.185154e-09 2.6887508e-09 2.4616607e-09 3.3105942e-09 3.6018568e-09
2.132494e-09 2.2189994e-09 3.1926575e-09 2.984634e-09 2.3435824e-09 2.5802016e-09 3.4391272e-09 3.3846652e-09
2.1209277e-09 2.0375681e-09 3.0156018e-09 3.1054421e-09 1.5861301e-09 2.4220008e-09 2.9755303e-09 2.945626e-09
2.1236282e-09 1.8789952e-09 2.5918567e-09 2.7241638e-09 1.7741584e-09 1.5075535e-09 2.2996982e-09 2.4369042e-09
1.6573454e-09 1.5550976e-09 2.3316797e-09 2.158242e-09 1.7501264e-09 1.390515e-09 2.4506481e-09 2.4216293e-09
1.456225e-09 1.5980254e-09 2.1114999e-09 2.2653481e-09 1.8097142e-09 1.4160673e-09 2.1524957e-09 2.2789184e-09
1.4514947e-09 1.2634185e-09 2.1638369e-09 2.1424469e-09 1.4099816e-09 1.3287152e-09 1.8777777e-09 2.1110298e-09
1.2979052e-09 1.2630395e-09 1.8292752e-09 1.8710193e-09 1.1624507e-09 1.4520851e-09 1.6715003e-09 1.6815117e-09
1.3310865e-09 1.3103537e-09 1.8842292e-09 1.8069951e-09 1.1079557e-09 1.2366337e-09 1.7058425e-09 1.807891e-09
1.0708786e-09 1.3701871e-09 1.6685725e-09 1.8442459e-09 1.4261803e-09 1.027311e-09 1.6214302e-09 1.7485918e-09
1.1216494e-09 1.0381701e-09 1.6607566e-09 1.5871754e-09 1.1005887e-09 1.180713e-09 1.5679762e-09 1.5586776e-09
1.1765529e-09 9.2490254e-10 1.5008162e-09 1.5518534e-09 1.021363e-09 9.94975e-10 1.4721794e-09 1.4790204e-09
9.764883e-10 9.789277e-10 1.2908651e-09 1.4434841e-09 9.9761e-10 9.533823e-10 1.3299628e-09 1.2293466e-09
1.0387639e-09 8.690284e-10 1.2853717e-09 1.3320908e-09 8.913626e-10 9.361797e-10 1.2852422e-09 1.2954665e-09
7.024459e-10 1.0757192e-09 1.3363062e-09 1.363123e-09 7.126919e-10 9.886351e-10 1.170465e-09 1.1491905e-09
6.8394973e-10 8.601214e-10 1.1280104e-09 1.0823756e-09 6.917345e-10 8.715976e-10 1.1207533e-09 1.106234e-09
7.7682133e-10 8.0661483e-10 1.0639805e-09 1.0782227e-09 7.387903e-10 7.321386e-10 1.0311806e-09 1.2022243e-09
5.7959576e-10 8.5452456e-10 9.781512e-10 1.0589922e-09 6.0452615e-10 8.2866636e-10 1.0409898e-09 1.1501045e-09
5.232934e-10 8.227504e-10 9.863959e-10 1.0125767e-09 6.7278605e-10 6.2914e-10 9.3084657e-10 9.448904e-10
6.320183e-10 6.514766e-10 1.0031896e-09 1.0024188e-09 5.7602567e-10 7.4197837e-10 8.632283e-10 9.0422e-10
6.621462e-10 6.0661887e-10 8.731884e-10 9.1439084e-10 5.2414256e-10 6.926745e-10 8.2545426e-10 8.356301e-10
4.9179527e-10 6.7579786e-10 9.088822e-10 9.420024e-10 5.8152033e-10 5.950633e-10 8.539505e-10 8.528593e-10
6.239604e-10 5.6275984e-10 8.0979085e-10 8.2313556e-10 4.1459608e-10 7.7783663e-10 9.1159996e-10 9.218083e-10
5.3262417e-10 5.3944177e-10 7.382159e-10 8.0955037e-10 5.768619e-10 5.3925997e-10 8.1744855e-10 8.499342e-10
