TemporalContextAggregation/models/TCA_T15_K8/model.pth.tar (torch, 989374 bytes, 18 tensors)

pool_layer_before.clusters f4 [512, 4]
000000 f0 e5 7a c0 30 1e 4c bf 17 77 63 40 49 5a 18 40
       -3.9202843 -0.7973356 3.5541437 2.3805106
000010 95 8a 9d 3e ca a2 8d 3f 20 17 d1 bd 59 6e 73 bf
       0.30769792 1.1065304 -0.10209489 -0.9509025
000020 62 60 de bf 3c 34 c5 3f 27 e2 35 40 d5 36 2d c0
       -1.7373164 1.5406566 2.8419282 -2.7064717
000030 64 53 03 bf 83 ff 3e 3f 77 b5 98 bd a2 05 f3 bd
       -0.5129912 0.7460863 -0.07456487 -0.11866309
000040 9c bc 9e be 72 40 53 c0 29 ac 80 3f 5c 64 17 40
       -0.31003273 -3.3008084 1.0052539 2.3655005
000050 82 36 10 3f a9 f2 86 3e f2 82 05 c0 d0 75 a3 3f
       0.5633317 0.2635701 -2.0861173 1.2770329
000060 ba 16 af 3f 1d 36 b0 bf 1e 6c 56 c0 1b f8 22 40
       1.3678811 -1.3766514 -3.350349 2.5463932
000070 95 fa 41 3f 1b 9e d4 3e ec 65 d1 3e a5 ad bf bf
       0.7577298 0.41526875 0.40898073 -1.4974867
000080 57 d9 2c c0 97 67 fc 3f 24 8b 9a 3f 74 3a a8 be
       -2.7007654 1.9719113 1.2073712 -0.32857096
000090 c8 67 30 bf 39 02 73 40 be 85 1d bf 1b 0c 16 c0
       -0.6890836 3.7970107 -0.615322 -2.3444889
0000a0 32 21 4c 3f b3 ec 49 be 7d 63 38 bd 88 27 0d bf
       0.7973815 -0.197192 -0.045016754 -0.55138445
0000b0 ea 46 be 3f 99 fe 17 c0 c4 b4 a1 bf 1e 6b 06 40
       1.4865391 -2.3749144 -1.263329 2.100288
0000c0 94 54 25 40 87 7c 87 3f a9 88 f5 bf 91 bb cb bf
       2.5832872 1.0584878 -1.918233 -1.5916616
0000d0 01 c5 ac be 71 12 b1 3b d1 a0 37 3f 75 4b af be
       -0.33744052 0.0054038097 0.7172976 -0.34237257
0000e0 88 8d 8a bf 95 85 14 40 f3 8c 5a 3f ac 66 cc bf
       -1.0824442 2.3206532 0.8537132 -1.5968833
0000f0 77 b4 18 3f 9e 50 59 bf 65 ba 15 bf dd 47 11 3f
       0.5965037 -0.8488864 -0.5848754 0.5675028
000100 ae 12 db bf 97 8d 26 bf 40 fd e7 3f 6e c4 31 3f
       -1.7115076 -0.650598 1.8124161 0.6944035
000110 11 f6 4e 3f 8b 52 96 3e b3 c6 8c be 4e da 79 bf
       0.8084422 0.2935985 -0.27495345 -0.9759873
000120 05 9b 29 3f 95 84 a2 3f 1e 00 d2 3e 1c b0 18 c0
       0.66252166 1.2696711 0.41015714 -2.3857489
000130 59 5b d3 bf b1 00 2c bf 8b e1 ac be 8e 71 2a 40
       -1.6512252 -0.67188555 -0.33765826 2.6631808
000140 51 fe 29 bd 9e 8b 14 bf 9a f0 03 c0 59 de 29 40
       -0.0415023 -0.5802554 -2.0615602 2.654196
000150 3d 08 99 be 45 45 23 c0 fe 74 12 3f f1 7f 1f 40
       -0.29889098 -2.5511029 0.57209766 2.492184
000160 09 ae 9d 3f 31 0e a7 bf 4c 98 6f be 66 af f4 3c
       1.2318736 -1.3051206 -0.2339794 0.029868793
000170 6b cc ed bf 03 83 da bf 4b 34 b2 bf a2 72 90 40
       -1.8578008 -1.7071232 -1.3922209 4.5139933
000180 72 bf 3f bf 42 40 f7 bf b1 70 0e 40 6f 32 1e 3f
       -0.749015 -1.9316485 2.2256281 0.61795706
000190 df 21 3a 3f e0 0e 03 bf 5c 15 64 bf c6 8a 2b 3e
       0.72707933 -0.5119457 -0.8909509 0.16752157
0001a0 01 ae 84 3f 77 18 b5 3f 12 6e 3d bf 2c 38 c9 bf
       1.0365602 1.4148091 -0.7399608 -1.5720267
0001b0 38 c9 49 bf a4 e2 18 be fb 1d 65 bf db d2 fc 3f
       -0.7882266 -0.14930207 -0.8949887 1.9751848
0001c0 49 97 a8 be 38 75 3d 3f 59 f4 25 40 eb 36 37 c0
       -0.3292792 0.74006987 2.5930388 -2.862727
0001d0 21 a1 69 3f 42 12 46 bf ea 4a ed bf 64 2f e8 3f
       0.9126149 -0.7737161 -1.8538487 1.8139462
0001e0 b5 09 fe 3e ce 7e be 3f 73 43 de bf ca 90 e6 be
       0.4961678 1.4882448 -1.7364334 -0.4503234
0001f0 74 58 6e bf a6 4f 16 3f b0 d5 6d bd ca 99 f9 3e
       -0.9310372 0.58715284 -0.058065116 0.48750144
000200 6c 50 51 3f 80 8b ad bf 1b 27 9e bf 57 ad d9 3f
       0.8176334 -1.3558197 -1.2355684 1.7006024
000210 75 49 a5 bf 3b 60 9c bd 95 1f 23 40 a3 b3 bb be
       -1.2913042 -0.07635542 2.5488026 -0.3666049
000220 21 92 2c bf c5 6b 00 40 14 4c 94 bf d4 10 62 be
       -0.67410475 2.0065777 -1.1585717 -0.22076732
000230 a2 f1 a3 3e 98 94 01 3e 50 fb 51 bf 85 35 81 3e
       0.3202029 0.1265434 -0.820241 0.25236145
000240 c9 3e eb bf 46 eb 10 3f bc 1e 04 40 45 16 4d bf
       -1.8378536 0.56609 2.0643759 -0.80112106
000250 24 cc a2 3f 1a e7 fe be 2d ef a5 bf 2a a8 35 3f
       1.2718549 -0.49785691 -1.2963616 0.70959723
000260 8a c2 72 bf de 06 89 bf 1b 85 2e 40 45 8d 09 bf
       -0.94828093 -1.0705221 2.726874 -0.53731185
000270 01 ff 9a bf 6f e4 23 be c6 0b 74 3f 72 07 47 3f
       -1.2109071 -0.16005109 0.95330465 0.77745736
000280 56 8c ef 3e 91 36 23 40 dc 18 f4 3e a0 f9 53 c0
       0.46786755 2.5502055 0.47675216 -3.312111
000290 66 ea 3e 3f fd 6d 8d bf c3 7e 9e bf 3c da cf 3f
       0.74576414 -1.1049191 -1.2382435 1.6238475
0002a0 0f f2 92 be 95 0a 9a bf 49 33 a6 be 24 91 eb 3f
       -0.287003 -1.2034479 -0.32461002 1.8403668
0002b0 37 ae 9c 3f 7b 99 ad bf 97 40 4a bf 29 7b 2f 3f
       1.2240666 -1.3562464 -0.79004806 0.685473
0002c0 f8 85 07 40 a7 ee 1e bf b8 79 29 c0 44 e1 16 3f
       2.1175518 -0.62082905 -2.6480541 0.5893748
0002d0 2a a4 79 3f 62 6e 2d 3f 33 7e d1 bf 71 c4 20 be
       0.9751612 0.67746556 -1.6366638 -0.15699936
0002e0 ac cf a4 3f 8f 29 46 40 91 ca 04 c0 0e 51 15 c0
       1.2875876 3.0962865 -2.0748637 -2.3330722
0002f0 ae af ab 3f 9a bd 34 bf 10 d3 4b 3f db 09 a9 bf
       1.3412988 -0.7060181 0.7961893 -1.3206133
000300 63 bf 85 3f 56 a3 82 bf 8d f2 38 3f 92 d1 39 bf
       1.0449032 -1.0206096 0.72245103 -0.72585404
000310 6c 56 6a 3e be 57 05 bc c8 88 8b bf 4e 65 88 3f
       0.2288453 -0.008138595 -1.0901117 1.0655916
000320 22 a1 86 3f f1 25 50 bf 1e a5 d6 3e c2 66 3e bf
       1.0517924 -0.81307894 0.4192285 -0.74375546
000330 fa b6 a5 3f be 7c ef bf 2b 88 a8 3d 36 ac 03 3f
       1.2946465 -1.8709943 0.08229097 0.5143465
000340 12 9c a4 bf eb 9e e5 bf 56 28 44 be ff 7d 61 40
       -1.2860129 -1.7939123 -0.19156012 3.5233152
000350 73 6e 49 3f 4f 4f d5 be ca bd 2d bf 1e f2 c1 3e
       0.7868416 -0.4166207 -0.6786772 0.37880033
000360 07 1b 8c bf 63 b9 14 bf 10 e9 4e bf 2d 1c 20 40
       -1.0945748 -0.5809538 -0.80824375 2.5017197
000370 42 ff 52 bf 6e db 07 bf 25 4d 08 be 09 e6 a6 3f
       -0.8242074 -0.530692 -0.13310678 1.3038951
000380 d2 93 1b c0 ed 28 34 3f 19 de b0 3e d6 22 d2 3f
       -2.4308972 0.7037495 0.34544447 1.6416881
000390 ef 2e 2b 3f e0 60 5e be e6 2c 45 3f 9c 11 9a bf
       0.6686849 -0.21716642 0.77021635 -1.2036624
0003a0 f1 08 6a 3e f8 6c 99 bf 74 de b4 3f ed 88 25 bf
       0.22854973 -1.198638 1.4130387 -0.6466206
0003b0 2b 6e 6a 3f 8d 9d 18 3f 02 72 e1 bf 92 38 10 bd
       0.9157435 0.59615403 -1.7612917 -0.0352102
0003c0 d3 56 05 bf df 70 19 be df 1b e2 be 77 60 5c 3f
       -0.5208561 -0.14984463 -0.4416189 0.86084694
0003d0 5e f5 88 3f a6 89 a3 be 0b 9b 2f bf 1e c8 c0 be
       1.069988 -0.31940955 -0.6859595 -0.37652677
0003e0 40 56 d8 3f 2e a9 ad bf bd e3 33 bf 28 a4 05 3e
       1.6901321 -1.3567255 -0.70269376 0.13050902
0003f0 7b e7 42 3f 57 2a 58 3f 09 d2 33 3e 95 f6 c8 bf
       0.7613446 0.84439605 0.17560591 -1.5700251

pool_layer_before.clusters2 f4 [1, 512, 4]
000000 35 53 24 3f 56 2f f8 be 11 76 ca 3e 76 e6 2e bf
       0.64189464 -0.48473614 0.39543203 -0.68320405
000010 ba f5 04 bb 0d d8 d9 3c 98 ac 21 3e ae 2e 51 ba
       -0.0020288066 0.026592279 0.15788496 -0.0007979673
000020 c6 96 0b bd b4 7e 22 3c 66 54 32 3e 35 04 0f be
       -0.034079336 0.009917904 0.17415008 -0.13966449
000030 de c9 1e bd 60 62 27 3d c7 4f 95 3d bc 65 41 bc
       -0.038766734 0.040865302 0.07290607 -0.0118040405
000040 91 ba b5 3d fa 49 1f 3d 2b 12 aa bd 1e 59 c9 bc
       0.08873475 0.03888891 -0.083042465 -0.024578627
000050 3e a5 5a bd 7d a1 43 bb 9a 9a 4b 3c 73 ea bf 3c
       -0.053380243 -0.0029850893 0.012426997 0.023427224
000060 f3 a2 df bb d4 3e 06 bd 9d 1d 6d bc ce e1 9d ba
       -0.006824845 -0.03277476 -0.014472392 -0.0012045444
000070 b9 65 28 bd 3c d1 f5 bb 6c 9b e3 3c 5a b0 af 3c
       -0.041112635 -0.0075017493 0.027784072 0.021446396
000080 4c 68 49 bd 7b fe c8 3b 7f 4e 33 3d ac c4 01 3b
       -0.04917173 0.006133852 0.04377603 0.0019801063
000090 b7 19 f5 bb 24 16 20 3c 78 cb c6 3c 0b 55 c4 3c
       -0.007479872 0.009770904 0.024266943 0.023966333
0000a0 8f 43 56 3c 3e c9 b6 bc 96 24 03 bd b0 37 c4 bc
       0.013077631 -0.022312757 -0.032017313 -0.023952335
0000b0 94 d6 76 bb eb c5 19 bc 66 d7 ef bc a4 4b e2 3a
       -0.003766452 -0.009385566 -0.029277515 0.0017264974
0000c0 2a 66 15 ba 45 c6 1b 3b f9 1e bb bc 35 53 1f 3b
       -0.00056991226 0.00237693 -0.022841917 0.002431107
0000d0 a4 a3 3e 3b 81 16 24 bd 1c 13 77 bb 59 f0 11 3b
       0.0029089237 -0.040060524 -0.00377006 0.0022268503
0000e0 6a 8f cf bb 19 ea 9e 3b d2 f9 39 3c b8 44 7e 39
       -0.006334235 0.004849684 0.011351066 0.00024248927
0000f0 e7 6c 0e 39 0a 4f 6f bc 30 30 07 bc 56 b8 7b 3b
       0.00013582745 -0.014606247 -0.008251235 0.0038409433
000100 92 26 f5 b9 2c a2 80 bc 17 be db 3a bb c4 92 3c
       -0.0004675878 -0.01570233 0.0016765025 0.017916074
000110 0b 03 ec bb 30 87 f3 3b fc b4 38 3c 4e 51 84 3b
       -0.007202511 0.007431887 0.011273619 0.0040380126
000120 c2 5a 32 3b 46 2c 81 3a 96 a4 80 3c b4 ac 0d bc
       0.002721474 0.0009855113 0.01570348 -0.008647133
000130 60 fc 12 bc 65 32 1f bc 47 a1 45 bb 0c b6 8e 3c
       -0.008971304 -0.009716605 -0.0030155943 0.017420791
000140 93 78 a0 bb 74 2c 84 3c 7b a3 a2 3b e7 1b 26 3c
       -0.004897186 0.016134478 0.004963336 0.010138488
000150 81 a5 87 bb 29 43 a7 bb ba 4b 8d ba e6 23 a0 3b
       -0.0041396026 -0.0051044417 -0.0010780015 0.004887092
000160 b9 73 98 bb 8a 6b f9 ba 8b ee 50 bc 9e fc 05 bc
       -0.004652467 -0.0019029242 -0.012752186 -0.008177904
000170 ef 86 7e bc 46 7e a3 bb 93 cd 50 bc 16 c5 d8 3c
       -0.0155351 -0.004989418 -0.012744325 0.026461165
000180 57 e8 77 ba 0f 1c 7b 3b 53 32 36 bc ff bc 41 bc
       -0.00094569236 0.0038316285 -0.011120397 -0.011824845
000190 ef e1 13 bb 38 80 a4 3a 42 7a 76 ba 7c 63 17 bc
       -0.0022565087 0.0012550419 -0.0009402373 -0.0092400275
0001a0 1a 70 36 3c 73 92 b3 3a d5 46 2b 3c 89 0b cf bb
       0.0111351255 0.0013700261 0.010453899 -0.006318514
0001b0 53 fe 86 3a 20 65 19 3c 61 11 48 3c c3 0f 06 3c
       0.0010299183 0.009362489 0.012211175 0.008182469
0001c0 4c 7a 78 3b 68 f6 9c bb 0c 76 8c 3c e3 36 af bb
       0.0037914691 -0.004790116 0.017146133 -0.005347119
0001d0 30 1a 5a 3b 6c 29 9b bb 29 26 c8 ba ca 6f 11 3c
       0.003327977 -0.0047351625 -0.0015270162 0.00887675
0001e0 0c 74 bf 3b f3 d1 1f 3c 16 63 cc 3a 94 73 19 3c
       0.0058426913 0.009754646 0.0015593495 0.009365935
0001f0 15 5b 50 3c 55 3e aa 3b 85 91 35 3b f8 6c ae 3c
       0.012717028 0.005195419 0.0027705145 0.021292195
000200 67 86 7d 3c 9b 61 16 3c 82 12 a5 bb d7 ff 8b 3b
       0.015473939 0.009178544 -0.0050376067 0.004272442
000210 b7 7f 10 3a ba 0c d4 ba 6d 8b c0 3b 38 95 2b 3b
       0.0005512195 -0.0016178109 0.005875996 0.002618147
000220 67 dd df 3b 62 46 fb 3a 73 fa 13 3a ff 53 bf 3b
       0.006831813 0.0019170756 0.0005644925 0.0058388705
000230 e7 c8 30 3c 58 d1 39 bb 84 be d6 3b c7 3a 7c bc
       0.010790086 -0.0028353538 0.006553473 -0.015394873
000240 5e 2f 85 bc 95 82 8f 3b c5 28 d7 bb fc 3b 9c 3b
       -0.016257938 0.0043795803 -0.0065661394 0.004767893
000250 b2 3d 9d bb fa 95 08 bc 74 5f 2a bb 53 c8 35 3b
       -0.0047986144 -0.008336538 -0.0025996836 0.002773781
000260 1c 4c 62 3c ed 89 0e bc 9f b2 08 3c fe 09 35 3b
       0.013812091 -0.008699876 0.008343368 0.0027624364
000270 9a 83 ee 3b 9b b6 a6 3a 20 af cf bb 33 21 50 bc
       0.0072788717 0.0012719216 -0.006338015 -0.012703228
000280 05 4f 11 3c 6a d2 8f 3b f3 6a ab 3c 71 b1 13 bb
       0.008868937 0.004389097 0.02092502 -0.0022536183
000290 1c 16 58 bc 6d 0f b0 bb d3 e4 db ba fb 78 4f bc
       -0.013188865 -0.0053729326 -0.0016776569 -0.012663121
0002a0 c1 c1 93 bc a3 6f 0b 3b d0 b6 02 bc ef 44 04 bc
       -0.018036725 0.0021276257 -0.007978156 -0.008073076
0002b0 65 d8 5e 3c 15 fc c5 ba ec f1 07 3c a8 33 ca bb
       0.013601397 -0.0015105034 0.008297425 -0.0061707087
0002c0 6b 1c 46 bc ad a2 cb bb fd 33 bf 3b c3 c9 cf 38
       -0.012091736 -0.006214461 0.005835055 9.90811e-05
0002d0 35 2e 5e 3a 55 c3 1f 3c 8f 0b 54 bc c6 0e 9d 3a
       0.00084755133 0.009751161 -0.012942209 0.0011982552
0002e0 6e 15 10 3c 65 47 bb 3b e1 b6 20 bc 6b fe bc bc
       0.008794172 0.005715298 -0.009809227 -0.023070535
0002f0 73 b9 b0 3b 94 94 d2 bb 1c 0f da 3b 0c d8 3e bc
       0.005393201 -0.0064264033 0.006654633 -0.011648189
000300 19 7b 17 bb 82 f2 35 3b 8d 13 83 3c 7f 6c 7b bc
       -0.0023114143 0.0027762954 0.016000533 -0.015345692
000310 1b 9c 66 3c 24 ef 27 3c 6c 63 9f 3b c5 ac 8f ba
       0.014075304 0.010249887 0.004864147 -0.0010961524
000320 b8 5a bd bb 30 dd 22 bb 55 15 94 bc 0b 28 56 b9
       -0.005778637 -0.0024851076 -0.018076578 -0.00020423548
000330 da 34 d4 3b f9 4d 21 bc a5 a2 02 37 c3 59 1c 3b
       0.006476027 -0.00984525 7.786472e-06 0.0023857213
000340 16 49 38 bc 1f 74 9a 3b 0d 94 ab bc 3b b5 53 3c
       -0.011247894 0.0047135497 -0.02094462 0.012921627
000350 85 32 14 3c c4 08 98 bb ec de 03 3c 96 3c 68 bc
       0.009045248 -0.004639717 0.008048754 -0.014174601
000360 cc c6 61 bc 27 88 21 bb 34 0c 93 bc 40 25 33 3c
       -0.013780307 -0.0024647804 -0.017950155 0.010934174
000370 66 70 49 bc 4c 75 be 3b 85 5c 68 bc 94 ec 3f 3c
       -0.012294864 0.0058123227 -0.014182215 0.011714119
000380 bd 79 07 bc 14 86 56 bb 92 82 39 bc 13 ae 0e 3c
       -0.008268771 -0.0032733725 -0.011322634 0.008708495
000390 fa 64 91 bb 05 9b 65 3b 1c aa 32 3c d7 6f 76 bc
       -0.004437086 0.0035035026 0.010904815 -0.015041313
0003a0 1f 81 0b bc bd c2 77 bc ae 12 2d bb 9c 7c 07 bb
       -0.008514672 -0.015122113 -0.002640884 -0.0020673638
0003b0 dd ec 53 bb aa 39 02 3c b1 74 94 bb e4 91 89 3a
       -0.0032337226 0.0079483185 -0.0045305123 0.0010495749
0003c0 42 0c 38 bb d8 09 a3 3b 8a 2b 21 bc 03 de 4f 3c
       -0.0028083478 0.0049755387 -0.009837041 0.012687209
0003d0 8b a8 d7 bb 2b b0 b5 ba 7b e6 e5 bb cf a4 bd 3b
       -0.006581371 -0.0013861706 -0.007016001 0.005787469
0003e0 4f 60 4e ba e0 08 25 bc cf 3b ba 3b b3 26 8a ba
       -0.00078726275 -0.010072917 0.0056833993 -0.0010540098
0003f0 b3 7d 14 bc 8d 0d 2f 3c 50 a4 fa bb 35 0b 1f bc
       -0.009063172 0.010684383 -0.007648982 -0.009707262

pool_layer_after.clusters f4 [512, 4]
000000 4f f3 7d c0 fe 1b 81 c0 fa ae 04 41 f9 0d f4 3f
       -3.9679754 -4.034667 8.292719 1.9066764
000010 c4 3e ac 3c 17 29 dc bf c8 15 5a bf e5 3c 5c 40
       0.021026023 -1.720004 -0.85189486 3.4412167
000020 df 29 05 bf ba ed 69 3f 9f 92 84 3f 00 c1 d1 bf
       -0.52017015 0.91378367 1.0357245 -1.6387024
000030 8d 1b f2 3d 82 68 52 c0 58 35 3b be 8d 45 97 40
       0.11821661 -3.2876287 -0.18282068 4.72724
000040 08 e0 1f bf aa f5 b4 c0 15 2f 37 40 cd 65 a0 40
       -0.6245122 -5.6549883 2.8622487 5.012427
000050 c3 3b eb 3f b7 82 31 bf 97 ed 5d bf 05 49 f8 be
       1.8377613 -0.6934008 -0.8669066 -0.4849321
000060 dd c2 c7 3f 00 e0 2c c0 1b ab 95 bf 8c 11 38 40
       1.5606343 -2.7011719 -1.1692842 2.876071
000070 56 6b 8c 3d 82 cf fc 3e df 67 81 bf 43 7d 0c 3f
       0.0685641 0.49377066 -1.0109824 0.54878634
000080 f9 5f 32 bf 70 0f df bf a1 98 f2 3f ee 69 5d 3f
       -0.6967769 -1.7426586 1.8952829 0.8648976
000090 27 fc 19 be f3 7f 1e ba be 2d b8 3f 2b f3 cd bf
       -0.15037595 -0.00060462876 1.438896 -1.6089834
0000a0 0a 1e 95 bf 9f 69 41 40 c7 0c ed 3f 70 fa 99 c0
       -1.1649792 3.0220716 1.8519524 -4.811821
0000b0 08 fa 1d bf e4 fe 85 bf 3d f7 e2 3f 4e 3c 59 be
       -0.6170964 -1.0468411 1.7731701 -0.2121441
0000c0 fd 95 fc 3e fd 7b a0 3f 90 d5 48 bf 54 76 ab bf
       0.49333182 1.2537838 -0.7845087 -1.3395486
0000d0 b2 da 80 be e6 2a 12 40 96 0e c9 be 43 b0 16 c0
       -0.2516685 2.2838683 -0.3926894 -2.3545082
0000e0 46 a6 69 3e b0 57 d8 3f 69 16 a5 3e c5 7a 46 c0
       0.22817335 1.690176 0.3224366 -3.1012433
0000f0 42 7c ee bf b9 3b 16 c0 58 ba ac 3f c3 07 6f 40
       -1.863167 -2.3473952 1.3494368 3.7348487
000100 65 ba c2 3c 42 79 46 bd 82 fa 31 3f 8d fb 86 bf
       0.02377052 -0.048455484 0.6952287 -1.0545517
000110 94 89 c8 3f 2b 9b d3 3f 31 12 70 c0 26 76 ad 3e
       1.5666986 1.6531729 -3.7511103 0.33879203
000120 3f eb 4d 40 20 0f 79 3f bf ee 41 c0 54 4e c9 bf
       3.2174833 0.97288704 -3.030197 -1.5727029
000130 d0 75 7b 3f 59 f3 cd bf 21 aa 43 3f 2d 9d ce 3d
       0.9822664 -1.6089889 0.7643147 0.10088573
000140 56 e8 1e 3e 2f d2 16 c0 92 fe 77 3d d8 14 35 40
       0.15518317 -2.3565786 0.06054551 2.8293972
000150 8a 21 90 3e 2a 36 1c c0 21 d5 22 be 61 53 4e 40
       0.28150588 -2.440806 -0.15901615 3.223839
000160 9f 41 3d 3e d0 97 ba 3f df c9 33 3f 8f 18 35 c0
       0.18482064 1.457758 0.70229906 -2.829624
000170 64 3b ad be c2 26 34 c0 7c bb b4 3f 69 54 04 40
       -0.33834374 -2.8148656 1.4119716 2.067652
000180 af eb b1 3f 86 04 86 c0 75 5a de 3f 85 ea f6 3f
       1.390005 -4.188052 1.7371355 1.929032
000190 8c 54 79 3f 17 80 8c 3e 71 10 a2 bf e9 92 af 38
       0.97394633 0.27441475 -1.2661268 8.3720144e-05
0001a0 bc 22 1b be 68 7d 8c 3f ae 93 37 bf b7 0d e3 be
       -0.15149969 1.0975771 -0.71709716 -0.443464
0001b0 d8 6c a7 be c5 af 95 bf 89 dc 81 bd 90 53 d9 3f
       -0.3270023 -1.1694266 -0.06340892 1.6978626
0001c0 81 1d fa 3f 48 25 5a 3f 67 e3 b9 bd a0 ee 51 c0
       1.9540254 0.85213137 -0.09076577 -3.2801895
0001d0 21 67 18 c0 81 11 55 3e 38 c3 52 40 63 00 8e bf
       -2.3812945 0.20807458 3.2931652 -1.1093868
0001e0 9d b6 9e 3f 20 c9 df bf b1 bd 0e bf 0b 6c a0 3f
       1.2399479 -1.7483253 -0.55758196 1.2532972
0001f0 23 4f 7e 3e 62 6a 83 3f 05 b3 82 3f 9d 0b 31 c0
       0.24834876 1.026684 1.0210882 -2.7663338
000200 25 09 fc bf b4 7b 06 c0 87 d4 50 40 25 1d eb 3f
       -1.9690291 -2.1013002 3.2629716 1.8368269
000210 4b 7c 49 bf 00 a2 56 3f 7c ef 3f bf d7 30 29 3f
       -0.7870528 0.8384094 -0.749748 0.6609015
000220 ab d2 bb bd e7 a4 cd 3e 74 3b 3e be 75 ea 85 be
       -0.09171041 0.40164873 -0.18577367 -0.2615544
000230 06 34 11 bf 7e 1d ab 3f 4d ce 3c be e5 f8 4c bf
       -0.56720006 1.3368375 -0.18438073 -0.8006728
000240 f7 2c 0f bf d8 ad ef 3e 07 74 de 3f 8b d7 f4 bf
       -0.55927986 0.4681232 1.7379159 -1.9128278
000250 70 88 e5 be ef 8e 12 3f 8f 0c a3 3f fe e3 b3 bf
       -0.44830656 0.5724935 1.2738208 -1.4053953
000260 3b 7b 67 3f 65 71 b7 3f cc 5b ac bf 78 f9 c4 bf
       0.9042241 1.433148 -1.3465514 -1.5388632
000270 b0 b0 ae be 69 fb f5 3f 16 bd 8c be 26 86 ef bf
       -0.34119177 1.9217349 -0.2748801 -1.8712814
000280 7a aa 41 bf af d0 ee 3f f5 20 7f 3e 44 2c d3 bf
       -0.7565075 1.8657435 0.24914916 -1.6497884
000290 31 9c a1 be a4 d1 78 bf a2 8b f4 3f 11 8e 1d bf
       -0.31564477 -0.97194886 1.9105113 -0.615449
0002a0 ca 3e 6a bf a8 8e 01 bf 0f 54 d0 3f 9b c6 3a 3b
       -0.9150206 -0.506083 1.6275653 0.0028499726
0002b0 cb 95 2e 3d 77 fb 6c 3f d3 bf 2d bf 0c 36 19 bf
       0.042623322 0.92571205 -0.67870826 -0.59848094
0002c0 41 1f eb 3d 82 7b ef 3e 4e ad 70 bc 88 ce 40 bf
       0.114805706 0.46773916 -0.014689757 -0.7531514
0002d0 21 2b 2f 3f 42 18 e3 be cc ae 16 3f e2 18 49 bf
       0.68425184 -0.44354445 0.5886047 -0.78553593
0002e0 2f f8 15 bf b3 b3 44 40 cc 40 b0 bf 41 ac 03 c0
       -0.58581823 3.073468 -1.3769774 -2.0573885
0002f0 8d 04 35 bf 58 05 98 bf f7 41 25 bf 0b 80 4c 40
       -0.7071007 -1.1876631 -0.6455378 3.1953151
000300 8b 89 b5 be 0c 9c 00 40 19 24 c7 bf 18 5e 0c bf
       -0.354565 2.0095243 -1.5557891 -0.54831076
000310 e5 e8 02 3e e7 8e a8 3f db 80 ab 3f e5 25 55 c0
       0.12784155 1.316861 1.3398699 -3.330438
000320 b0 44 e7 be 15 e6 e4 bf 10 b9 09 be cf b3 3a 40
       -0.45169592 -1.7882715 -0.13449502 2.9172246
000330 34 5e 1d 3e b0 81 fa bf 21 ba 18 3f 01 72 0a 40
       0.15367967 -1.9570827 0.5965901 2.1632082
000340 3b 7c 00 bf 61 8f b0 bf 98 a0 5d 3f de 1b a2 3f
       -0.5018956 -1.3793756 0.8657317 1.2664754
000350 5a b0 46 3f 08 be 06 40 b0 27 bd bd c3 d1 5c c0
       0.7761284 2.1053486 -0.092360854 -3.4503028
000360 14 c5 aa 3f 42 1e fd bf 6d b1 b3 3e 75 48 15 3f
       1.3341393 -1.9774859 0.35096303 0.58313686
000370 09 e6 3b 3f 68 94 0b c0 1b 83 63 3e 7e 0d c8 3f
       0.7339788 -2.180933 0.22217982 1.5629117
000380 b5 9f a3 3e b8 5a 87 bf 8e 15 5d 3f 35 35 e9 bd
       0.31957784 -1.057456 0.86361015 -0.113871016
000390 bb bb c7 be 00 66 24 bf 1d 9f e1 3e bd ed 93 3f
       -0.39010414 -0.6421814 0.44066706 1.1556927
0003a0 3d f6 01 be 9a 21 f8 bf 0b 56 5a 3e a5 89 10 40
       -0.12691589 -1.9385254 0.21321885 2.2584012
0003b0 61 f2 a0 3f 12 d8 72 3d 3d 0e bb 3e 51 a1 01 c0
       1.2573968 0.059288092 0.365343 -2.025471
0003c0 c3 31 19 bf f0 d1 81 3f 49 86 97 3f 02 ae e2 bf
       -0.59841555 1.0142193 1.1837856 -1.7709353
0003d0 5b b1 b6 3e 5c 83 d7 bf eb c4 42 be e9 b6 e9 3f
       0.35682186 -1.6836963 -0.1902043 1.8258945
0003e0 91 5c 15 3f 69 56 0c 3f 9d c2 ec bf 0f 90 56 3f
       0.5834437 0.5481935 -1.8496891 0.83813566
0003f0 3d 4f 34 3f b6 47 1c 3f 13 ea a2 3f 7e ea 31 c0
       0.7043341 0.6104692 1.2727684 -2.7799373

pool_layer_after.clusters2 f4 [1, 512, 4]
000000 ea 93 16 bf 02 af 11 3f f3 f6 f4 3e 40 85 45 3e
       -0.5881945 0.56907666 0.47844657 0.19289112
000010 8b fd 7c 3c 71 73 02 be 64 0a e4 bd da 71 83 3e
       0.015441309 -0.1273935 -0.11134794 0.256728
000020 c2 01 28 bd 92 cc f6 bc 36 ac 0e 3c 61 69 1d 3e
       -0.0410173 -0.030126844 0.0087080505 0.1537223
000030 dd b8 a7 3c 34 2e 97 bd a8 62 cc bd f8 cd 31 3e
       0.020473892 -0.073818594 -0.09979755 0.17363727
000040 d5 07 c3 bc 63 4d 82 3d ba f4 c2 bc f0 84 b6 bd
       -0.023807446 0.063624166 -0.023798335 -0.089120746
000050 ed 33 ca 3b 29 9b 0f bd a7 ab 0d 3e 32 d9 1d 3c
       0.006170741 -0.03506008 0.13835011 0.009634303
000060 8d e9 b3 bb a3 fb 97 ba de f2 3a 3c ba c8 f8 bc
       -0.005490488 -0.0011595379 0.011410443 -0.030369151
000070 8b c4 bb 3b 0e 2b 19 bd 4e 80 06 bc 4b 11 87 bc
       0.005730217 -0.037394576 -0.008209301 -0.016487738
000080 c3 68 cd 3b 4f f0 b0 3b 15 9b 01 3d 5e e4 9a 3d
       0.006268592 0.0053997408 0.03164204 0.07563089
000090 84 7a 5f bc 88 35 99 bb 89 13 c5 3c b6 24 41 3d
       -0.01364005 -0.004675571 0.024057167 0.04715415
0000a0 d4 a0 b7 bc 58 ad 91 3c 86 13 5e bd a4 5f 2a bd
       -0.022415556 0.017782852 -0.054217838 -0.041595116
0000b0 a6 a5 49 ba a9 db f6 bb a5 86 0a bd 9c 4d 9e bc
       -0.0007692225 -0.0075335097 -0.033819813 -0.019324116
0000c0 78 e3 b2 3b 81 9e c6 bc 8e 3d 97 3c 55 2a c4 bc
       0.0054592453 -0.024245502 0.018461969 -0.023945967
0000d0 8a 15 e1 bc 99 44 87 3c 22 18 a7 3c 2d 86 77 bc
       -0.027476091 0.016512202 0.02039725 -0.015107674
0000e0 96 e0 e5 ba 10 a9 b6 bc 41 55 8b 3b 40 01 ae bc
       -0.0017538245 -0.022297412 0.0042521064 -0.02124083
0000f0 dd d0 86 bc 43 3b 25 bc 51 ef 5f bc 12 0f e1 bb
       -0.016457016 -0.01008493 -0.013667897 -0.0068682516
000100 76 48 b5 bc 95 7f d3 3b 2e 28 b7 bc f9 ee b4 bc
       -0.022129279 0.006454418 -0.022358026 -0.022086607
000110 35 1d 99 3b ee 7f e9 ba ec 1b 08 bc b3 10 83 3b
       0.004672671 -0.0017814615 -0.008307438 0.0039997934
000120 69 27 da 3b db 98 5b b9 f1 d5 68 3c b4 0c 32 bb
       0.00665753 -0.0002094241 0.014211164 -0.0027168216
000130 e8 18 10 bc ad f7 b1 bb 2b 3b dc bc c8 45 e0 bb
       -0.008795001 -0.0054311366 -0.026883682 -0.006844256
000140 f6 6a 07 bc c6 25 1b 3c a0 e0 a1 3b 77 f6 87 3b
       -0.008265248 0.009469455 0.0049401075 0.004149254
000150 9b 14 6a bb 88 d2 19 3c 16 ba be bc 57 4d 83 bc
       -0.0035717848 0.0093885735 -0.023282092 -0.01602809
000160 5c ba 32 3b 0a 90 87 ba 25 ca 64 bc 6c 69 52 bc
       0.0027271723 -0.001034261 -0.013964211 -0.012842517
000170 e8 28 ca 3b bf fd d0 3c ca cf 86 3a d5 51 74 bb
       0.006169427 0.02551162 0.0010285315 -0.003728022
000180 e3 d2 68 3c 21 87 88 bb fe d9 ab bb 8f 40 c8 ba
       0.014210436 -0.0041664992 -0.0052444926 -0.0015278029
000190 fe 3c 0c 3b 22 ea ff 3b 06 2c 92 bc f2 a6 17 bc
       0.002139866 0.007809893 -0.017843258 -0.009256111
0001a0 04 4c fa bb bb ad ee 3b bc ba 22 3c 25 0a b3 3b
       -0.0076384563 0.007283894 0.009932216 0.005463856
0001b0 2b 4f 2d bb a6 5d 90 3b 5e cf 0a 3d cb a1 d0 3b
       -0.0026444893 0.004405695 0.033889167 0.0063669435
0001c0 dd 55 e4 bb 16 c3 18 3c 34 f9 dd 3b c4 d8 7c 3b
       -0.0069682435 0.009323856 0.006774092 0.003858135
0001d0 66 ae 7b bb 03 ee 49 bc 20 a3 e0 3b d1 e2 0a bc
       -0.003840351 -0.012324813 0.0068553835 -0.008476929
0001e0 a0 5f d3 3a 45 ac 56 3c 75 af 47 3b 52 94 29 3c
       0.0016126521 0.013102596 0.003046957 0.010350304
0001f0 a7 8d 9d 3b 96 c0 bc 3c b7 34 e4 bb 51 27 89 bb
       0.004808146 0.02304105 -0.006964292 -0.004185595
000200 23 d6 25 bc f4 09 92 bb 18 f8 3e 3c 6d 31 d5 3b
       -0.010121855 -0.004456753 0.01165583 0.006506136
000210 d6 82 bf 3b 16 b6 5e 3c fc 4d 3f bc 81 16 f5 b9
       0.0058444543 0.013593217 -0.011676308 -0.00046746808
000220 93 01 02 3b 41 07 66 3c 46 75 e8 bb 07 b8 a1 3a
       0.0019837364 0.014039815 -0.007094058 0.001233817
000230 df 92 28 bc fa 0f a2 bc 71 62 36 3b c5 5f c1 3b
       -0.010288923 -0.019783009 0.0027829672 0.005901309
000240 e5 27 c9 bb 37 ba 9f bc 45 ba 0d bc b7 27 fb bb
       -0.006138789 -0.019497974 -0.008650367 -0.0076646465
000250 1a e0 25 bc 96 bf 9b bc 4c 5e ba 3c 28 f2 c9 bb
       -0.010124231 -0.019012254 0.022750042 -0.0061629005
000260 65 4c 84 3a bb 62 40 3c 2b 40 82 3c f9 fc 2d 3c
       0.0010093568 0.011742289 0.015899738 0.010619395
000270 7e 26 06 3c 97 28 ca 3c c4 69 2a 3c 3d d5 36 bb
       0.008187888 0.024677558 0.010401193 -0.0027898096
000280 35 da 5b 3b f8 4e 87 3c 97 4d 44 3c 7a 55 33 3c
       0.003354681 0.016517147 0.0119813895 0.010945672
000290 cb 55 d7 3b f1 0c 90 bc 0f cd 79 ba f3 33 48 bb
       0.0065715066 -0.017584296 -0.00095291523 -0.0030548542
0002a0 06 f7 06 bc 73 b1 1c bc 11 21 29 bd b8 3b 2d bc
       -0.008237606 -0.009563792 -0.0412913 -0.01057332
0002b0 5d e8 aa ba d7 9a 86 3c 90 51 ad 3b 9c 08 df 3b
       -0.001303922 0.016431255 0.005289264 0.0068064462
0002c0 6e 90 1a 3c 38 ae d2 3c fd cb b4 bc d0 c9 92 36
       0.009433849 0.02571784 -0.022069925 4.374633e-06
0002d0 4c 1d 18 3c 1e 1e 69 bc e9 e1 93 bc 1b da 61 bb
       0.009284329 -0.014228372 -0.018052058 -0.0034462276
0002e0 1b 88 8c 3b 0b be 88 3b df 2e 05 3c 8c 4d 73 ba
       0.004288686 0.0041730455 0.008128851 -0.000928127
0002f0 37 3b 1c bc c8 3e 1f 3c 94 15 a5 3c eb 95 96 bb
       -0.009535602 0.009719558 0.02015189 -0.0045955083
000300 15 d8 bf 3a d1 19 e7 bb 52 ae bb 3c 93 ff 59 3c
       0.0014636541 -0.007052638 0.02291027 0.013305563
000310 6d cd 03 ba 0f c0 35 bb a9 71 d7 3b 8c 53 0e 3b
       -0.0005027864 -0.0027732884 0.0065748286 0.0021717278
000320 01 d3 20 ba bb 15 0c 3b 48 71 83 bc e8 f9 a5 bb
       -0.00061349577 0.0021375257 -0.016045228 -0.0050651915
000330 63 37 09 bb 0e cc f9 3b 83 8a af 3a b2 ae fb ba
       -0.0020937554 0.007623202 0.001339272 -0.0019201844
000340 5b 92 8f b9 90 eb 51 bc c9 bf 5f bc 84 04 ef ba
       -0.0002738413 -0.01281251 -0.013656565 -0.0018235599
000350 89 3b 89 bb 29 b8 2f 3c 71 37 2e 3c cf 92 ae 3a
       -0.0041880053 0.01072506 0.010633335 0.0013318899
000360 85 6f d8 39 a7 92 20 bc 58 8b d9 bc e7 ee e3 bb
       0.0004128182 -0.00980059 -0.026555702 -0.0069559696
000370 3c 1e 09 3c 17 ed c5 39 8b 2f 54 bc 23 ba 6d 3a
       0.008369025 0.00037751414 -0.012950788 0.0009068569
000380 ce 94 2d bc 69 ef 5c 3c ee 5a 09 bc 60 ca fb bb
       -0.01059456 0.013484814 -0.008383496 -0.007684037
000390 6e a6 46 3b 3c c2 29 bc b3 84 50 3c e7 f4 3a 3b
       0.0030311602 -0.0103612505 0.01272695 0.002852732
0003a0 e6 79 b1 bb 2d 81 55 3c e0 2f a0 bb ad 85 01 ba
       -0.0054161428 0.013031286 -0.0048885196 -0.0004940879
0003b0 1b 29 96 3b 6e 03 3b bc 39 ae dc bb 4f 04 14 bb
       0.004582537 -0.011414392 -0.006734636 -0.0022585576
0003c0 70 eb 18 bb b9 b8 88 3c 86 eb 26 bb e3 48 16 bc
       -0.002333369 0.016689645 -0.0025469973 -0.009172651
0003d0 71 a1 c3 3a a4 d4 93 3c 3f 9e 53 bc 67 6e bc bb
       0.0014925433 0.01804573 -0.012916147 -0.0057504657
0003e0 ef bc df 3b 37 d8 80 bc 22 93 4d 3c 71 06 d3 3b
       0.0068279426 -0.0157281 0.012547286 0.006439977
0003f0 b1 03 27 3c cd 68 10 bc a8 a7 f8 ba 4c b6 3b bb
       0.010193751 -0.008814049 -0.0018970864 -0.0028642593

fc.weight f4 [18, 4096]
000000 7f f4 7c 3d 7b 50 53 3d 12 30 57 be 6b 6d 35 bd
       0.061756607 0.051590424 -0.21014431 -0.044293802
000010 aa 6e 8a bc 6b cc 9d be 3c fa bb bd 93 5a 97 bd
       -0.016898472 -0.3082002 -0.09178588 -0.073903225
000020 65 5c 09 be c7 51 cc be 87 dd 9d be 1a 32 bd be
       -0.13414152 -0.3990614 -0.30833074 -0.36952287
000030 8c 54 73 3e 3c c4 77 be bd bd b9 bd 8e 0b 24 3c
       0.23762721 -0.24195951 -0.09069393 0.0100125205
000040 e3 ae 45 3f 62 79 81 3d aa 32 71 bc 78 87 03 3d
       0.7721998 0.0632198 -0.014721552 0.032111615
000050 a2 87 74 3c a3 39 09 3d f9 ef fe 3d 4c eb 5f 3d
       0.0149249155 0.033502232 0.12448115 0.054667756
000060 54 8a b0 3e 9e 9d b1 bd 03 8b 6d 3b 56 67 54 3e
       0.34480536 -0.08672641 0.0036246188 0.20742545
000070 59 f3 b6 bc f1 ab 01 3e 0c c3 86 bc 5e 10 13 bd
       -0.022332834 0.12663247 -0.016450427 -0.03590428
000080 8e c3 40 be d6 e7 c8 be 44 12 e4 bd fc 52 f8 be
       -0.18824598 -0.39239377 -0.111362964 -0.48500812
000090 b9 c0 b9 be c3 42 da bd 1f 35 04 bb b9 3b 9d bd
       -0.36279848 -0.10657265 -0.0020173264 -0.07677407
0000a0 67 8b 0b 3c f8 a3 0b 3f 2d f9 c9 3e 7a 12 d1 bd
       0.008517123 0.5454707 0.3944792 -0.10208602
0000b0 4f 2f f5 3e d4 35 76 3e 48 24 dc 3e e2 05 b0 3e
       0.47887656 0.24043971 0.4299643 0.34379488
0000c0 b5 ac b4 bd cf 5c 40 3e 31 90 99 3e 78 46 ce 3e
       -0.08822004 0.18785404 0.29992822 0.40288138
0000d0 67 7c 59 be 5f a8 57 3d 7b 30 46 bd 46 54 70 bc
       -0.21238862 0.052650806 -0.04838608 -0.01466853
0000e0 2c 94 d7 be 55 0c ed bd a4 ab 92 3e 51 b0 d6 3e
       -0.42105234 -0.11574618 0.28646576 0.41931394
0000f0 66 f2 fb 3e 3b d7 23 3e 6d e6 5e be d4 27 87 be
       0.49208373 0.16000073 -0.21767588 -0.26397574
000100 19 ca a5 3d 96 53 16 3f b8 6c db 3e 73 0f 3a 3e
       0.08095188 0.5872129 0.42856383 0.18169956
000110 fe 3a 19 be 84 1c c4 be c3 ac 00 bf 9a 76 c4 be
       -0.1496391 -0.38303006 -0.50263613 -0.38371736
000120 6b a6 6b bf 11 b5 5f bf c3 bc 03 bf 41 c1 25 be
       -0.9205081 -0.8738566 -0.514599 -0.16187002
000130 bc a0 e6 3d 01 d1 c9 3d 65 c0 21 bd 9f 4e b2 be
       0.112611264 0.098543175 -0.039490122 -0.34825608
000140 6b 7d 13 3f 53 cf d9 3d 27 84 94 bd e0 1c e3 bd
       0.5761325 0.10635247 -0.072517686 -0.11089492
000150 5a 5b 4c 3f 27 58 3c 3f c6 78 25 3f 23 f3 7a 3e
       0.7982689 0.7357201 0.6463741 0.24506812
000160 c9 5f 12 3f 27 0a 62 3f 52 5d 21 3f e8 2d 51 3f
       0.57177407 0.8829674 0.6303302 0.8171067
000170 11 90 f1 3d 7b 1b f8 3e 1c 3b 82 3d f0 b4 1c be
       0.117950566 0.48458466 0.063589305 -0.15303397
000180 8f b9 56 3f 06 f7 06 3f 56 3b 77 3e f5 a4 b9 3e
       0.8387689 0.5272068 0.24143729 0.36258665
000190 f4 a9 0b 3e e9 54 f5 be ca b2 c3 bd 03 cf c8 be
       0.1363905 -0.47916344 -0.09555586 -0.39220437
0001a0 ee 6b 62 bf 22 2f 04 bf cf 84 69 bd 60 9a 4c 3e
       -0.8844594 -0.5163442 -0.05701142 0.19980764
0001b0 e4 02 d2 be e8 7b 55 bf fc 1a c4 bd cf ba f3 be
       -0.4101783 -0.8339219 -0.09575459 -0.4760346
0001c0 2d aa 65 bf 77 ad 05 bf 67 5f f8 3c 4e 04 b6 3e
       -0.8971279 -0.5221781 0.030318929 0.3555016
0001d0 06 42 3e bf 85 de 1f 3f 93 e2 f5 3e cf 26 1b bf
       -0.74319494 0.6244891 0.48024425 -0.6060609
0001e0 2f ed 1b 3f 70 12 e3 be 2f d6 05 be 75 2a ae be
       0.6090879 -0.44350004 -0.13069986 -0.34016767
0001f0 c2 c8 ca bd 23 2d bc 3e c7 1b 10 3e 83 69 a6 be
       -0.09901573 0.36753187 0.14073096 -0.32502374
000200 b9 52 20 be ab 53 5e be d8 2f 72 be 84 78 75 3d
       -0.15656556 -0.21711604 -0.23651063 0.059929386
000210 6c 21 31 bf f1 35 b7 bd dd e6 ec be 64 0a e0 3e
       -0.6919162 -0.089458354 -0.46269885 0.43757927
000220 53 e8 0b bd 46 95 2c bf cd 87 b7 be f7 17 24 bf
       -0.03415711 -0.67415273 -0.35845795 -0.6409907
000230 58 56 bb be 37 b3 26 bf 64 db e5 bd 00 4b 69 be
       -0.36589313 -0.6511721 -0.11223486 -0.22782516
000240 17 1a 45 3f cd c7 a5 3f d3 3e 15 be eb b7 63 3e
       0.76992935 1.2951599 -0.14574747 0.22238128
000250 30 de 95 be 13 90 bb 3e 5c 32 48 3e 80 74 3e 3f
       -0.29271078 0.36633357 0.1955046 0.74396515
000260 ac 4d 4a bf 6b fa 99 be cf c9 64 be 85 83 e6 3d
       -0.7902477 -0.30073866 -0.22342609 0.11255554
000270 3e e2 e5 be c1 85 a9 3e a2 78 ab 3e 61 94 47 3f
       -0.44899172 0.3310986 0.33490473 0.77960783
000280 92 a7 ca bf b0 d9 97 bf 0a 7a 6e be 67 51 8d 3d
       -1.5832388 -1.1863308 -0.23288742 0.06900292
000290 4c 23 36 3f ab 5a 79 3c 1b 14 d6 3e 59 15 4b 3f
       0.7114761 0.015219371 0.41812214 0.7932945
0002a0 3e 3d 3f 3f 36 aa 57 3f e3 37 46 3f 2a dc 04 3f
       0.74702823 0.84244096 0.77429026 0.51898444
0002b0 81 4e 81 be 9c 2f 42 3f 3b 82 27 3f d3 7d 0e 3f
       -0.25255206 0.75853896 0.6543309 0.5566074
0002c0 99 d0 0c 3e 1c 9e f9 be ab 8d 3c 3f 5c 61 00 3e
       0.13751449 -0.4875344 0.7365367 0.1253714
0002d0 c6 73 0c 3e 0b 6e d4 3e 28 2c 2e 3e 4f a6 e9 be
       0.13716039 0.41490206 0.17009032 -0.45634696
0002e0 e3 58 52 bf ff 11 30 be 18 5a 23 3e 6f 2f 5f 3e
       -0.8216688 -0.17194365 0.15952337 0.21795438
0002f0 26 41 95 3e ad 80 44 3c ac 74 20 be 41 0e 0c 3f
       0.29151267 0.011993569 -0.15669507 0.5470925
000300 03 7e 4d 3d 12 0b 8b 3e 53 60 50 3e f0 5c be 3e
       0.050169002 0.27156883 0.20349245 0.3718028
000310 da cc 08 bf a6 da dd 3e 5e af f7 3e dd 04 4e 3f
       -0.5343758 0.43330878 0.48375982 0.8047617
000320 87 b6 9d 3f 73 c0 15 3f 1e 15 8a be c3 5a b5 bd
       1.2321328 0.5849678 -0.26969236 -0.08855202
000330 28 fa 08 be e8 60 57 bf c0 5c 88 bf a7 59 bb be
       -0.13376677 -0.8413224 -1.0653305 -0.36591837
000340 58 05 c7 3f 41 39 92 3f 42 97 f3 3d 5d 85 a3 bd
       1.5548506 1.1423723 0.118940845 -0.079844214
000350 6d f4 93 bf 89 84 5a be 89 c1 03 3f 7a 4b 32 3f
       -1.1558968 -0.2133962 0.51467186 0.6964642
000360 18 5c 6b 3f 17 52 44 be 7c 38 91 3d 94 9b bb be
       0.919374 -0.1917194 0.07090852 -0.36642134
000370 e4 da 52 3f b3 d2 d0 be 5f 07 79 bd a0 39 30 bf
       0.8236525 -0.4078575 -0.060798045 -0.6883793
000380 4a 51 b5 3b d9 9f 3e bc bf 30 26 3d 4b 7d 41 bd
       0.005533372 -0.01163479 0.04057383 -0.04723863
000390 36 eb 8a 3e 2d 58 16 3f 00 0c cb 3e 75 78 e4 3e
       0.27132577 0.58728296 0.39657593 0.4462315
0003a0 fa f8 33 3f ea f6 b9 bd 49 c3 81 bf 4c 49 8f 3e
       0.70301783 -0.09080298 -1.0137721 0.2798561
0003b0 d4 65 32 3f 58 17 cb be 3f 11 c1 bd e6 a8 6f bd
       0.6968663 -0.39666247 -0.094271176 -0.058510683
0003c0 fe ff 72 bf 91 9a 83 3e 89 d6 f1 bd 1a 79 2c be
       -0.94921863 0.25703862 -0.118084975 -0.16843072
0003d0 94 de d9 3f c2 51 93 be 33 c1 0a bf 36 ec 39 bf
       1.702105 -0.28773314 -0.5420105 -0.72626054
0003e0 e2 db 96 3e e3 dd 1d bf 37 02 48 3c 58 5e d8 be
       0.29464632 -0.616667 0.012207559 -0.4225948
0003f0 91 6e c1 3d c1 75 25 3f 53 7e d6 3e d2 95 0f 3f
       0.09444917 0.64632803 0.41893253 0.5608798

fc.bias f4 [18]
000000 3c 9c 5c be b0 bd 19 bf 30 ef 97 bf 56 11 3c bf
       -0.21543974 -0.60055065 -1.1869869 -0.7346395
000010 24 10 4b bf a5 20 4a bf 9d 1a 5f bf 51 17 45 bf
       -0.79321504 -0.7895606 -0.87149984 -0.76988703
000020 54 85 8c bf 35 44 42 bb 11 a0 6a be 6a cd d6 be
       -1.0978189 -0.0029642705 -0.22912623 -0.41953593
000030 5c 2c 59 bf 29 ca 47 bf f0 be c3 bf 7c 31 24 bf
       -0.8483331 -0.78042847 -1.5292645 -0.6413801
000040 0c 35 35 bf 8f 56 26 bf
       -0.7078407 -0.6497583

exp_avg f4 [512, 4]
000000 f3 4e d2 b7 f1 cc 29 38 22 1e 1d 38 91 c3 5d b8
       -2.5070714e-05 4.0483606e-05 3.745978e-05 -5.287264e-05
000010 49 f3 3e 37 4a 48 ea 37 7a 48 2e 38 b8 94 a9 b8
       1.1381527e-05 2.7928636e-05 4.1552332e-05 -8.086249e-05
000020 62 c9 f1 b6 8a ea 67 37 7f e3 c5 37 6d 66 fd b7
       -7.2058037e-06 1.3823281e-05 2.3590166e-05 -3.0207646e-05
000030 02 f6 9d 37 03 3f 2f 38 5f 97 88 b6 1c 27 6d b8
       1.8830415e-05 4.1781936e-05 -4.0707378e-06 -5.6541627e-05
000040 cd df ba 35 e7 8c b3 37 0a 5c 9a b7 69 7b 93 b6
       1.3923215e-06 2.1404076e-05 -1.840109e-05 -4.395308e-06
000050 18 d1 7e b7 61 b7 19 36 0b 58 15 b7 a2 dd b6 37
       -1.5188263e-05 2.2905517e-06 -8.901591e-06 2.1799297e-05
000060 86 6b 10 36 69 01 72 37 e6 7c 5a b6 10 7d 5f b7
       2.152026e-06 1.4424652e-05 -3.2557232e-06 -1.3320954e-05
000070 89 b1 19 37 91 a1 1c b6 2f c2 0c 36 ae b9 15 b7
       9.160846e-06 -2.3339855e-06 2.0974655e-06 -8.924324e-06
000080 28 ec c2 37 8e 83 f5 b7 ac df 7a 37 eb b0 15 b7
       2.3236571e-05 -2.9267536e-05 1.4953239e-05 -8.922284e-06
000090 28 d6 15 b6 4a d4 01 37 30 ba 36 36 50 0d 0a b7
       -2.2327386e-06 7.738427e-06 2.7228489e-06 -8.2285405e-06
0000a0 99 01 1a b7 a1 0b 1f b6 54 fb 8c 37 42 64 b0 b6
       -9.179487e-06 -2.3699615e-06 1.6806334e-05 -5.2568803e-06
0000b0 d7 75 99 37 d3 bd b2 b7 0d 7a 2d 37 2f d4 f5 b6
       1.8293895e-05 -2.1307647e-05 1.0340021e-05 -7.3262704e-06
0000c0 8e cb 3c b7 f2 be 90 37 e4 28 e8 34 30 e7 d7 b6
       -1.1253067e-05 1.7255054e-05 4.324312e-07 -6.434413e-06
0000d0 f3 90 38 37 88 4f 8f b6 48 2c 51 37 bb 0a a1 b7
       1.1001003e-05 -4.2709908e-06 1.2467681e-05 -1.9197692e-05
0000e0 be b8 c5 b7 46 46 f5 35 b5 01 02 37 01 c7 6a 37
       -2.3570257e-05 1.8274375e-06 7.749001e-06 1.3993821e-05
0000f0 96 58 e6 b6 5b 08 9f 36 f4 36 d4 35 21 14 12 35
       -6.864847e-06 4.739542e-06 1.5811224e-06 5.441853e-07
000100 65 44 01 37 b2 2b 8d b7 ad 5c ac 37 5f a6 3f b7
       7.7049235e-06 -1.6828857e-05 2.0547153e-05 -1.1423223e-05
000110 73 33 30 b4 f5 dd ea 36 51 ce 01 b7 25 02 72 35
       -1.6409994e-07 6.9995826e-06 -7.737036e-06 9.0155146e-07
000120 c6 15 1c 37 d1 75 2b b6 75 ff aa 36 16 b8 46 b7
       9.303394e-06 -2.5549564e-06 5.096134e-06 -1.18445805e-05
000130 b2 43 10 b6 92 97 a6 36 29 24 a9 36 f6 cc 03 b7
       -2.1497076e-06 4.9648306e-06 5.040802e-06 -7.85593e-06
000140 de ed 8b 37 18 00 83 36 9e 50 c7 b5 da 38 a0 b7
       1.6680857e-05 3.904115e-06 -1.4850118e-06 -1.909996e-05
000150 32 5e 5b 37 8d 43 b4 b6 7f 98 e5 b6 e1 02 67 b5
       1.3075349e-05 -5.372282e-06 -6.8424847e-06 -8.6058395e-07
000160 9b d9 07 b7 0a fd ad 36 55 0f 1c 36 fb 73 1d 35
       -8.097292e-06 5.1852594e-06 2.3254736e-06 5.865583e-07
000170 7c cc e6 35 c3 b7 22 36 3d e7 83 34 72 4d 93 b6
       1.7195848e-06 2.4246845e-06 2.45689e-07 -4.389957e-06
000180 0c 30 a5 36 51 23 b9 b6 ac 58 bc b6 f0 4b d0 36
       4.9229766e-06 -5.517541e-06 -5.6131594e-06 6.2077233e-06
000190 ed db 7b b4 2a 18 5e b7 09 9e 14 37 12 d3 9a 36
       -2.3456205e-07 -1.3237857e-05 8.858283e-06 4.6141295e-06
0001a0 67 4c 3b 37 c3 cb 27 36 c6 32 f6 b6 dc 4b d4 b6
       1.1163857e-05 2.5003544e-06 -7.337282e-06 -6.3269235e-06
0001b0 28 52 92 37 95 63 cb b5 70 ee b1 b5 13 fa 74 b7
       1.7442813e-05 -1.5153661e-06 -1.3256922e-06 -1.4601758e-05
0001c0 54 e2 cb 35 46 36 81 b6 5f f7 88 b6 10 35 d7 36
       1.5190549e-06 -3.850818e-06 -4.0819136e-06 6.4136766e-06
0001d0 2e e1 c2 36 3f fb 3b 37 96 a4 b4 b6 8f 19 43 b7
       5.807865e-06 1.1204566e-05 -5.3835784e-06 -1.1628857e-05
0001e0 2d 5e a0 36 83 64 16 b5 62 48 f6 b6 88 6d 51 36
       4.779335e-06 -5.602562e-07 -7.339798e-06 3.1207182e-06
0001f0 b0 34 d1 36 26 c3 33 b3 03 00 47 34 29 05 d6 b6
       6.234819e-06 -4.185417e-08 1.8533323e-07 -6.3782977e-06
000200 00 d9 40 b6 91 4b 2a 37 d0 f7 55 b6 c4 2e 89 b6
       -2.873654e-06 1.0150384e-05 -3.188372e-06 -4.0883624e-06
000210 9e 97 8f b6 b0 4a 67 b6 7d 56 ea b5 51 e9 1e 37
       -4.2793827e-06 -3.4465156e-06 -1.745953e-06 9.471857e-06
000220 ff 21 c1 36 2d ee a6 b6 2e 2d 38 37 18 47 45 b7
       5.755806e-06 -4.974913e-06 1.0977774e-05 -1.1758668e-05
000230 f5 d4 e9 36 a1 f3 35 35 82 08 0e b7 c4 ec 5b 35
       6.9687326e-06 6.778228e-07 -8.46584e-06 8.1928397e-07
000240 b0 aa 45 36 cb 11 3f b6 d7 99 4c 36 ba 32 53 b6
       2.945464e-06 -2.8471575e-06 3.0487915e-06 -3.1470977e-06
000250 e8 73 06 37 fb 90 fa b6 7e 13 15 b6 c3 cb e0 35
       8.014009e-06 -7.4674585e-06 -2.2214076e-06 1.6748603e-06
000260 33 0c 64 b6 08 b3 a4 36 da 35 18 b7 c8 be fd 36
       -3.3981748e-06 4.908423e-06 -9.072444e-06 7.5621974e-06
000270 f8 a8 91 36 28 f3 39 b6 3b 8b 33 37 f6 e2 4d b7
       4.3410073e-06 -2.7708684e-06 1.07016485e-05 -1.2271796e-05
000280 49 24 a3 35 4f a3 5e 37 63 11 59 36 18 a6 94 b7
       1.2155007e-06 1.3270254e-05 3.234564e-06 -1.7720318e-05
000290 da 9a f0 36 b1 da 96 b6 6c 28 20 36 62 d4 a9 b6
       7.1705845e-06 -4.4958074e-06 2.3865387e-06 -5.061317e-06
0002a0 04 b2 6d b7 5e 21 34 36 b1 9b 25 b6 9e 10 6a 37
       -1.4167748e-05 2.6841512e-06 -2.467754e-06 1.3951356e-05
0002b0 a7 94 50 b6 15 6f 8c b6 af ea 07 37 c0 df 58 b5
       -3.1080942e-06 -4.185257e-06 8.101269e-06 -8.079187e-07
0002c0 e6 56 d4 b5 5e 91 86 b6 0b c3 a4 b5 e5 d7 e4 36
       -1.5820522e-06 -4.010434e-06 -1.2275717e-06 6.820063e-06
0002d0 27 f9 27 b7 c3 2a 06 37 2b 63 f2 b6 f5 ff 1a 37
       -1.0011986e-05 7.996979e-06 -7.2237067e-06 9.23871e-06
0002e0 b7 03 51 b7 0f f4 f5 b5 de 5a 6c b6 79 6c 95 37
       -1.2458236e-05 -1.8324953e-06 -3.5219632e-06 1.7812696e-05
0002f0 d6 42 ff b6 c8 77 a8 35 d0 94 fd b5 06 45 0a 37
       -7.607373e-06 1.2551836e-06 -1.8893279e-06 8.241512e-06
000300 ca ad fd b5 2d d7 01 b6 02 36 c1 35 10 13 20 36
       -1.8900548e-06 -1.9347747e-06 1.4395339e-06 2.3852954e-06
000310 d5 a0 70 37 4f 29 63 34 b1 ef 01 b7 9a 7b e4 b6
       1.4342561e-05 2.115605e-07 -7.744807e-06 -6.8093186e-06
000320 11 19 ee 36 6c 4f a5 b6 4b 74 92 b5 2d b2 90 b5
       7.095871e-06 -4.926629e-06 -1.0911693e-06 -1.0780692e-06
000330 13 d8 df 36 68 61 88 35 1c 74 ca b6 57 f1 dd b5
       6.6710722e-06 1.0161139e-06 -6.033586e-06 -1.6536022e-06
000340 16 3f 9c 36 5b d3 b6 b6 ce 6f 0f 36 7f 8e b4 b5
       4.6565065e-06 -5.4486277e-06 2.137374e-06 -1.3452517e-06
000350 38 21 62 36 99 1d 30 b6 af a5 94 b6 d0 47 77 36
       3.369596e-06 -2.6243272e-06 -4.430032e-06 3.6847669e-06
000360 70 ea 92 b6 e0 bc ab 36 a8 39 4a 36 8d de 7b b6
       -4.378431e-06 5.118185e-06 3.0133906e-06 -3.7531456e-06
000370 36 7a 19 35 6b 84 1c 37 f3 f5 76 b6 1f bd d0 b6
       5.717478e-07 9.329156e-06 -3.6800018e-06 -6.2208996e-06
000380 55 82 2f b6 09 06 00 36 c9 90 85 b6 f3 4e 9d 36
       -2.6152895e-06 1.9077e-06 -3.980564e-06 4.6881555e-06
000390 58 82 a8 b6 6e 64 8e b6 38 e1 9b 36 97 05 9b 36
       -5.021964e-06 -4.2436213e-06 4.645579e-06 4.6200107e-06
0003a0 46 68 aa 36 bb 6e d1 b6 1a be 5f 35 50 eb b0 34
       5.078534e-06 -6.241576e-06 8.335061e-07 3.2953767e-07
0003b0 66 5b 1a 37 20 01 cb b6 3f de 93 b6 56 a2 a8 35
       9.200396e-06 -6.0500024e-06 -4.4068142e-06 1.2564221e-06
0003c0 96 86 d9 b5 dc 5d d0 34 6e 3e 38 b6 ff 7a 85 36
       -1.620693e-06 3.881131e-07 -2.7454475e-06 3.9780275e-06
0003d0 b3 ee d5 36 f2 24 55 33 b5 ec 33 36 ac c7 18 b7
       6.375683e-06 4.962653e-08 2.681086e-06 -9.106396e-06
0003e0 01 21 e3 b6 29 6c 0f b6 e6 5a 10 37 15 15 a2 34
       -6.7689693e-06 -2.1371618e-06 8.604233e-06 3.019019e-07
0003f0 7e 46 e8 b6 01 29 02 37 37 b9 c9 36 c2 c4 e5 b6
       -6.922345e-06 7.758151e-06 6.0118286e-06 -6.8476375e-06
