TemporalContextAggregation/models/TCA_T30_K8/model.pth.tar (torch, 989367 bytes, 18 tensors)

pool_layer_before.clusters f4 [512, 4]
0	0xc06d9a1d	-3.7125313
1	0x3fdd4b1d	1.7288548
2	0xbfd6600e	-1.6748064
3	0x406f46c0	3.7386932
4	0x3ea3ebce	0.32015842
5	0x400630f2	2.0967374
6	0xbe68d73a	-0.22738352
7	0xbff7f6fb	-1.9372247
8	0xbfe338c3	-1.7751697
9	0x3ffbf31b	1.9683565
10	0x3f1bdf8b	0.60887975
11	0xbf761026	-0.9611839
12	0xbeb29295	-0.34877458
13	0x3ff130ed	1.8843056
14	0xbe9d1795	-0.30682054
15	0xbf573922	-0.8407155
16	0xbe0cb3b5	-0.13740428
17	0x3ec6de5b	0.3884152
18	0xc0079749	-2.1186087
19	0x4005f1f5	2.092893
20	0x3ed7309f	0.42029282
21	0xbeae94be	-0.34097856
22	0xbd711a2f	-0.05886286
23	0x3e58bfad	0.21166869
24	0x4009945a	2.1496797
25	0xbfa468ca	-1.2844479
26	0xbf5ffb91	-0.87493235
27	0xbd8bff1b	-0.06835767
28	0x3edd9c00	0.4328308
29	0x3eaae26b	0.33375868
30	0x3e696e5a	0.22796002
31	0xbf602266	-0.8755249
32	0xbfff66f5	-1.9953295
33	0x3ffacf1b	1.9594454
34	0x3d518805	0.05115511
35	0xbe233370	-0.1593759
36	0xbf68693d	-0.9078558
37	0xbeb044ae	-0.34427398
38	0x3fd22b7b	1.6419519
39	0xbf0867da	-0.53283465
40	0xbe2d353d	-0.1691484
41	0xbfb3952e	-1.4029901
42	0x3b3a9385	0.0028469276
43	0x3fc7c3b8	1.5606604
44	0x4011e6ff	2.279724
45	0xc02d29da	-2.7056794
46	0xbfe0d133	-1.7563843
47	0x401341a6	2.3008819
48	0x3fcc152a	1.5943959
49	0xbfcf0dfb	-1.6176142
50	0x3ecc7dd9	0.39939764
51	0xbe366c1d	-0.1781468
52	0xbf02baf9	-0.5106655
53	0xbe3ee8aa	-0.18643442
54	0xbdf2a5fa	-0.11848064
55	0x3f3f2969	0.7467256
56	0xbfdca9ff	-1.7239379
57	0x3e529db8	0.20567977
58	0x4004d18b	2.0752895
59	0xbf06be8e	-0.52634513
60	0x3fe90bb4	1.8206697
61	0xbf1a63c1	-0.6030846
62	0xbfc29dee	-1.5204446
63	0x3e9ee8a6	0.31036872
64	0xc00d9ee5	-2.2128232
65	0x3f391fee	0.72314346
66	0xbf7bd9b8	-0.9837909
67	0x40114688	2.26993
68	0x3edeb84d	0.43499985
69	0x3f32b9cd	0.6981476
70	0x3f9e1cf2	1.2352583
71	0xc011e346	-2.2794967
72	0x3fc306db	1.5236467
73	0x3f08aaff	0.5338592
74	0x3f544e2e	0.8293179
75	0xc02d6fbc	-2.7099447
76	0xbf311ac5	-0.6918147
77	0xbf19b1ed	-0.6003712
78	0x3e18d125	0.14923532
79	0x3f8b935e	1.0904348
80	0x3e7bb65c	0.24581283
81	0xbff66369	-1.9249088
82	0xbe80fdbe	-0.2519359
83	0x3fcd62d8	1.604579
84	0x3f8bb88c	1.0915694
85	0xbe6930ff	-0.22772597
86	0xbfcc2b72	-1.5950758
87	0x3f61ca9b	0.88199776
88	0x3f583d0e	0.8446816
89	0xc03c739c	-2.9445562
90	0x3e94e772	0.2908283
91	0x3fc1869d	1.5119206
92	0xbfc72e08	-1.5560923
93	0xbfbb408b	-1.4629072
94	0xbe25f9b4	-0.16208535
95	0x402a0f59	2.6571867
96	0x3d8fff53	0.07031121
97	0x3f485aa7	0.78263324
98	0xbfb5989d	-1.4187199
99	0x3f409b1d	0.75236684
100	0x3f44f2d2	0.76933014
101	0xbecb3a9a	-0.39693147
102	0x3d9ca339	0.0764832
103	0xbf1e1bc4	-0.61761117
104	0x3fab0083	1.3359531
105	0x3db67750	0.08909476
106	0x3edd3148	0.4320166
107	0xbfbd8417	-1.4805936
108	0x3f27b8ff	0.65516657
109	0x3e9907de	0.29888815
110	0xbf20e680	-0.62851715
111	0xbe0273f8	-0.12739551
112	0xbf21eabc	-0.632488
113	0x3f8461af	1.0342311
114	0x3f57dd94	0.84322476
115	0xbfa8c1ba	-1.3184121
116	0x3fbad923	1.4597515
117	0xc00f7bbe	-2.2419276
118	0xbf5a0918	-0.85170126
119	0x3fd97535	1.6988894
120	0x3edd35bd	0.43205062
121	0xbf2cf390	-0.67559147
122	0x3fa08276	1.2539814
123	0xbf90312a	-1.1265004
124	0x3e8f86d8	0.28032565
125	0xbf6c72a0	-0.92362404
126	0x3f920177	1.1406697
127	0xbf11df6e	-0.5698155
128	0x3f867cc1	1.0506822
129	0xbddd8718	-0.10816783
130	0xbf797bf3	-0.97454756
131	0x3dfbe4bf	0.12299489
132	0xc0102939	-2.252516
133	0x3f50209f	0.81299776
134	0xbe1a16de	-0.15047786
135	0x3fe04989	1.7522441
136	0x3f27db7c	0.6556928
137	0xbec6ff12	-0.38866478
138	0x3f21ee0c	0.63253856
139	0xbf888e8a	-1.06685
140	0x3fa9788a	1.3239911
141	0x3eb849e9	0.3599389
142	0x3d54d52f	0.05196112
143	0xbfcdc85c	-1.607677
144	0xc00bff4f	-2.1874578
145	0x3f774ced	0.96601754
146	0xbc845bc6	-0.016157042
147	0x3f80da5b	1.0066637
148	0x4009a908	2.1509418
149	0xbfe62b45	-1.7981955
150	0x3ac21ac4	0.0014809002
151	0xbe98a927	-0.29816553
152	0xc01cedda	-2.4520173
153	0x3fc8dfde	1.5693319
154	0xbd3cb517	-0.04607114
155	0x3f48ae55	0.7839101
156	0x3ed13cd0	0.4086671
157	0xbf3ea698	-0.7447295
158	0x3c249519	0.010045313
159	0x3ec08011	0.37597707
160	0xbe8d8a6d	-0.27644673
161	0x401bc380	2.4338074
162	0x3f7a2384	0.9771044
163	0xc036f321	-2.8585894
164	0x3f1f9cdf	0.6234874
165	0xbfc6e152	-1.5537512
166	0xbf86ced3	-1.0531868
167	0x400693e5	2.1027768
168	0x3e1595ea	0.14607969
169	0xbf973853	-1.1814064
170	0xbfc1b031	-1.5131894
171	0x4022a723	2.5414512
172	0xbcd61bb9	-0.026136266
173	0xbfc9f6ab	-1.5778402
174	0xbedaad6b	-0.42710432
175	0x3ff86185	1.9404761
176	0x3fde832c	1.738378
177	0xc0771f02	-3.8612676
178	0x3fac3110	1.3452473
179	0x3e0ee219	0.13953437
180	0xbe0ccb26	-0.1374937
181	0xbf987241	-1.1909868
182	0x3f876fce	1.0580995
183	0x3e86211d	0.26197138
184	0x3fafe692	1.374224
185	0xc000a0e2	-2.0098195
186	0x3ff1b8c3	1.888451
187	0xbfc5c2b8	-1.5450048
188	0x3e8458cd	0.25849
189	0xbe520601	-0.20510103
190	0xbe7c19bc	-0.24619192
191	0x3e0319e5	0.12802847
192	0xbe1d2baf	-0.15348695
193	0xbedec4f1	-0.4350963
194	0x3db76dca	0.089564875
195	0x3ed37d63	0.413066
196	0x3f83e919	1.0305511
197	0xbfca018c	-1.5781722
198	0xbe49daf1	-0.19712426
199	0x3f6381ae	0.8886975
200	0x3fb08be4	1.3792691
201	0xbf3c1cf7	-0.73481697
202	0xbfea5699	-1.8307678
203	0x3f999435	1.1998354
204	0x3f8aab36	1.08335
205	0x3f8cc103	1.0996403
206	0xbfd56142	-1.6670306
207	0xbe8346c5	-0.2563993
208	0x3ec309c3	0.38093385
209	0xbf8209be	-1.0159223
210	0xbf83a00d	-1.0283219
211	0x3fd715b3	1.6803497
212	0x3f481d79	0.7816997
213	0xbe1e257e	-0.1544399
214	0xbf718c31	-0.9435454
215	0x3efe2826	0.49640006
216	0xbefbfd9c	-0.49216926
217	0xc00c2246	-2.189592
218	0x3f349eb7	0.7055468
219	0x3fcbc9ff	1.5921019
220	0x3f6b794a	0.9198195
221	0xbf1a3cec	-0.6024921
222	0xbe55078a	-0.20803657
223	0xbee48b11	-0.4463735
224	0xbfe15e32	-1.7606871
225	0x3db455a6	0.08805399
226	0x3e1ae5d7	0.1512674
227	0x3fb3f05a	1.4057724
228	0x3e51a0cb	0.20471494
229	0x3f3c74e5	0.73615867
230	0xbed3d6fd	-0.4137496
231	0xbebfc49e	-0.37454695
232	0x3f45366a	0.77036154
233	0x3fe5ba1a	1.7947419
234	0xbe97aabf	-0.29622456
235	0xc00fcf1c	-2.247016
236	0x400e1eae	2.2206225
237	0xbfbffd55	-1.4999186
238	0x3f97f1bb	1.1870645
239	0xc005b4d0	-2.089161
240	0xbfaa493c	-1.3303599
241	0xbd186af1	-0.037211362
242	0x3fbce4c9	1.475732
243	0xbeded8b0	-0.43524694
244	0x3fb1a7b0	1.3879299
245	0xbea83ec9	-0.328604
246	0x3f43331f	0.7624988
247	0xc00a55e5	-2.1614926
248	0x4022f39a	2.5461183
249	0x3ccc2b3c	0.02492296
250	0x3ebdaf10	0.37047625
251	0xc02b8214	-2.6798143
252	0x3cb086fd	0.021548742
253	0xbfa63bae	-1.2986963
254	0x3f713f43	0.94237155
255	0x3e9d6804	0.3074342

pool_layer_before.clusters2 f4 [1, 512, 4]
0	0x3f03ca20	0.51480293
1	0x3e516320	0.2044797
2	0xbe9ee552	-0.31034333
3	0xbf12d3ce	-0.5735444
4	0x3d83ec59	0.06441564
5	0x3e31270e	0.17300054
6	0x3c87f576	0.016596537
7	0xbb93492e	-0.0044948077
8	0xbde77ef2	-0.1130351
9	0x3e197abd	0.14988227
10	0x3d1642b1	0.036684696
11	0xbdd24fd2	-0.10269131
12	0x3c8fc038	0.017547712
13	0x3df2e4e2	0.11860062
14	0x3c7cf4fc	0.015439268
15	0xbd1db233	-0.038500022
16	0x3d8a8e03	0.06765368
17	0xbd36c189	-0.044618163
18	0x3cb301bf	0.021851419
19	0xbc0c0a7a	-0.00854742
20	0xbd191d5c	-0.037381515
21	0xbbf23e15	-0.0073926547
22	0xbbfc7b88	-0.0077051558
23	0x3cd72591	0.02626303
24	0x3d5199eb	0.05117218
25	0xbc581448	-0.013188429
26	0xbc9416b9	-0.018077241
27	0x3b05cc25	0.002041587
28	0xbc811e84	-0.015761621
29	0x3c251cfb	0.01007771
30	0xbc8d94d3	-0.017282879
31	0x3d169ee6	0.03677263
32	0xbce0a7dd	-0.027423793
33	0x3d35c85b	0.044380527
34	0x3b4b39b8	0.0031009745
35	0x3c9711f8	0.018441185
36	0xbcec7cb5	-0.028868059
37	0x3caf7d18	0.021421954
38	0xbbe9e5a0	-0.007137969
39	0x3cfd0a27	0.03088863
40	0xbcb13245	-0.021630416
41	0xbd03bfca	-0.032165326
42	0xbcac2a28	-0.021016195
43	0xbc7d2565	-0.01545081
44	0x3bd1bf6b	0.0064009926
45	0xbcc1ae12	-0.023642574
46	0xbc8390f1	-0.016060324
47	0xbc16b23a	-0.009197766
48	0xbda3270b	-0.07966431
49	0xbc4c712b	-0.012478153
50	0xbbdb974c	-0.0067013856
51	0x3cdf83ce	0.027284529
52	0xbb6fbdf0	-0.0036581717
53	0xbacffb49	-0.0015867735
54	0xbc241bf6	-0.010016432
55	0xbc5c3bdb	-0.013442005
56	0xbcad3313	-0.021142518
57	0xbac5f9bb	-0.0015104333
58	0x3c2a97b4	0.010412145
59	0x3c8de422	0.017320696
60	0x3b809ed5	0.0039251843
61	0xbc1e7563	-0.009671542
62	0xbc734c7d	-0.014849779
63	0xbc18c361	-0.009323926
64	0xbd10930f	-0.035296496
65	0xba4db300	-0.00078468025
66	0xbc92f13a	-0.017937291
67	0x3cf94702	0.030429367
68	0xbbbe22c9	-0.0058024866
69	0x3c60935b	0.013707007
70	0x3c0a2ea1	0.008433969
71	0xbbf7b8af	-0.007559858
72	0x3bdc9c9d	0.006732537
73	0x3be2d68d	0.006922549
74	0xb99e4759	-0.00030189267
75	0xbc787f4b	-0.015167068
76	0x3bbd6000	0.0057792664
77	0xbb97594c	-0.0046187993
78	0xbbf30192	-0.0074159587
79	0xbb7b165a	-0.0038312883
80	0x3ae93ccc	0.0017794608
81	0x3b25c6ea	0.0025295564
82	0x3a604fc9	0.0008556811
83	0x3c5ebea6	0.013595259
84	0x3b82c74b	0.0039910427
85	0xbba0b7bb	-0.004904715
86	0xb91f573d	-0.0001519592
87	0x3ae82998	0.0017712591
88	0xbc4fbc5f	-0.0126791885
89	0xbc97cce6	-0.01853032
90	0x3bbf8bc0	0.005845517
91	0x3b03d83b	0.0020117897
92	0xbbb27588	-0.0054461397
93	0xbbda9795	-0.006670902
94	0x3ab5e1e3	0.0013876524
95	0x3cdfb690	0.027308732
96	0x3b0af27e	0.0021201666
97	0xbc40179a	-0.011724377
98	0x3b1d10e9	0.0023966378
99	0x3b96de40	0.004604131
100	0xbbde2911	-0.006779798
101	0x3bc5d24b	0.0060370318
102	0x39768e99	0.0002351351
103	0xbc13e514	-0.009026784
104	0x3c4646ed	0.012101871
105	0x3bd5044d	0.006500757
106	0xbaa98b79	-0.0012935243
107	0x3b869a81	0.004107774
108	0x3c6154dc	0.013753142
109	0x3c0207a4	0.007936392
110	0xb985a87a	-0.00025493262
111	0x3ba50965	0.0050365203
112	0x3bdc524c	0.0067236777
113	0x3c441b8b	0.011969457
114	0xbc010864	-0.007875536
115	0xbad0c519	-0.001592788
116	0x3b534fda	0.003224364
117	0xbb222ce6	-0.0024746
118	0xba0d7ef2	-0.00053976395
119	0x3be8cd04	0.007104518
120	0x3c0bb749	0.008527585
121	0xba4cd0dc	-0.0007813105
122	0x3b863c12	0.0040965164
123	0x3bca3687	0.006171051
124	0x3b7e0ebf	0.0038766114
125	0xbaf477b1	-0.0018651393
126	0x3bce1b07	0.006289843
127	0x3c1fba6a	0.009749034
128	0x3c88411e	0.016632613
129	0xbadf2f1d	-0.0017027591
130	0x3b0cbce2	0.0021474888
131	0x3a88085d	0.0010378469
132	0xba1ca869	-0.0005976023
133	0x3b88aecc	0.004171228
134	0xbbbe6696	-0.005810569
135	0x3bbaaa0a	0.0056965398
136	0x3c5b3c09	0.013381013
137	0xba9d51bd	-0.0012002509
138	0x3a675ca8	0.00088257575
139	0xbca99970	-0.020703048
140	0x3c464f99	0.0121039385
141	0x3bc948d9	0.0061427173
142	0xbbd75038	-0.006570842
143	0xbc487c77	-0.012236706
144	0xbd6287c8	-0.055305272
145	0xbb61410c	-0.0034371046
146	0x3b564694	0.0032695876
147	0x3c57379c	0.013135817
148	0xbcbef0a1	-0.0233081
149	0xbbb025b0	-0.0053755865
150	0xbb84b1fe	-0.0040495386
151	0x3a69cf4c	0.0008919134
152	0x3b216b7d	0.0024630718
153	0x3c479ffc	0.012184139
154	0xbbdee157	-0.006801765
155	0x3af04747	0.0018331789
156	0xbb410937	-0.0029454955
157	0xbb6d7c31	-0.0036237354
158	0x3b0975fd	0.0020974868
159	0x3a6830a0	0.00088573433
160	0x3c1a09b1	0.009401725
161	0x3c8194ea	0.015818078
162	0xb954b8bd	-0.00020286716
163	0xbbd4195b	-0.006472749
164	0xbc3ee99e	-0.011652378
165	0xbbdc1c6e	-0.0067172563
166	0xbb00a9a9	-0.0019632375
167	0xbc03d71d	-0.0080468925
168	0xbd047e9a	-0.0323473
169	0xbb851bf5	-0.0040621706
170	0x3b977c40	0.004622966
171	0xbbc508be	-0.006013005
172	0xbb7418cd	-0.0037246228
173	0x38b4d8e5	8.6234686e-05
174	0x3b3e7202	0.0029059653
175	0xbba404be	-0.005005448
176	0x3c1204c3	0.008912268
177	0xbb97f89e	-0.004637792
178	0x3b2a46fd	0.0025982254
179	0x3aae05a1	0.0013276824
180	0x3b3f7c2c	0.00292183
181	0xbbb11bee	-0.005404941
182	0x3bc1948b	0.0059076003
183	0x3c444b2f	0.011980816
184	0x3bc536f8	0.0060185157
185	0xbc17c21d	-0.009262589
186	0xbba78f5f	-0.0051135267
187	0xbafc90cd	-0.0019269228
188	0xbc695e8d	-0.014243734
189	0x3a824633	0.0009939134
190	0xbc03db7e	-0.0080479365
191	0xbc30f15d	-0.010799733
192	0xbc97bfa3	-0.018523997
193	0x3b9eb5f1	0.0048434664
194	0x3bc77b28	0.0060876794
195	0xbb09ee2b	-0.00210465
196	0x3c36dd06	0.0111610945
197	0xba5eed67	-0.00085040036
198	0x3aea7f39	0.0017890699
199	0xb9e6446b	-0.00043919994
200	0x3c87158f	0.016489772
201	0xbb931278	-0.0044882856
202	0x3b45610a	0.0030117654
203	0xbc8f9624	-0.017527647
204	0x3c1fff12	0.009765403
205	0x3b313fb3	0.0027046024
206	0xbc3f7adf	-0.01168701
207	0xbb52a4d8	-0.0032141712
208	0xbbc16f6d	-0.0059031756
209	0xbbc3dc7a	-0.0059772106
210	0x3ac722ec	0.0015192903
211	0x3bfcf287	0.007719341
212	0x3bb92e25	0.005651253
213	0x3b85a9ee	0.004079095
214	0xbb9f3ea0	-0.0048597604
215	0xbb6da791	-0.0036263207
216	0xbc224b16	-0.009905597
217	0xbbea206d	-0.0071449787
218	0xb832f9cb	-4.2671145e-05
219	0x3c4f2807	0.012643821
220	0x3a9d3532	0.0011994003
221	0xbb9ddafd	-0.004817365
222	0x3c4329cf	0.011911823
223	0x3b959702	0.0045651207
224	0xbce41f65	-0.027847001
225	0xbbb734c3	-0.0055910065
226	0xbbcd4163	-0.006263898
227	0x3c594b18	0.013262533
228	0xbca23a3c	-0.019803159
229	0x3aa0cbaf	0.0012267734
230	0x3be0a24e	0.0068552857
231	0xbbfcd9a8	-0.0077163763
232	0xbd085a95	-0.03328951
233	0x3b92ec4e	0.004483736
234	0x3abcd0ec	0.0014405525
235	0x3997ed9f	0.00028978006
236	0xba888af6	-0.001041739
237	0xbb4e6a8c	-0.0031496612
238	0x3b5a4c84	0.0033309767
239	0xbaa2137f	-0.001236543
240	0xbc9aaf41	-0.018882396
241	0xbb4de27c	-0.0031415513
242	0xbaf0d53d	-0.0018374097
243	0x3c0d9587	0.008641607
244	0xbbb26232	-0.0054438347
245	0xbadfcf0b	-0.0017075253
246	0xba953256	-0.0011382799
247	0x3c19c331	0.009384916
248	0xbbf26614	-0.0073974226
249	0x3b82ac8f	0.0039878557
250	0xba33198a	-0.0006832114
251	0xbab4c607	-0.0013791927
252	0xbc3177ef	-0.010831817
253	0xbc02f75e	-0.007993547
254	0x3c05388a	0.008131156
255	0xbc168240	-0.009186327

pool_layer_after.clusters f4 [512, 4]
0	0xbfe8cbad	-1.8187157
1	0xc0aa37d3	-5.3193145
2	0x40df9e11	6.988045
3	0xbeb6bd7b	-0.35691437
4	0xbf8038fb	-1.0017389
5	0x3fcce3ac	1.600698
6	0xbef98bff	-0.4873962
7	0x3f844419	1.0333282
8	0x3d5817dd	0.052757133
9	0xbfdbb06c	-1.7163215
10	0x3f86bf8f	1.0527209
11	0x3e124fc3	0.14288239
12	0xbf966eb7	-1.1752537
13	0x3e4b1a5b	0.19834273
14	0x3ea5f633	0.32414398
15	0x3fbce71f	1.4758033
16	0xc033063b	-2.7972553
17	0x3fab655f	1.3390311
18	0x403c4b56	2.9420981
19	0xbf8010e1	-1.0005151
20	0x3ea08d5a	0.31357843
21	0xbf428aef	-0.75993246
22	0xbe5c0ad1	-0.21488501
23	0x3f214806	0.63000524
24	0xbf5f5aaa	-0.8724772
25	0x3fc176e8	1.5114412
26	0xbf60ba50	-0.8778429
27	0x3f26569f	0.64975923
28	0x3e020aec	0.12699479
29	0xbe8a4734	-0.2700745
30	0xbed39774	-0.41326487
31	0x3f2078d0	0.62684345
32	0xbf54abe6	-0.83074796
33	0xbfaf1f09	-1.3681346
34	0x3f9053bb	1.1275553
35	0x3f769cbb	0.963329
36	0xbbdc972c	-0.0067318883
37	0xbfba5995	-1.4558588
38	0x3f25d696	0.6478056
39	0x3f3fbd16	0.748979
40	0x3f11e751	0.56993586
41	0xbf401e29	-0.7504602
42	0x3fa2fc1e	1.273319
43	0xbff04d46	-1.8773582
44	0xbf7653c0	-0.9622154
45	0x3fec5c9f	1.8465766
46	0x3f06bc57	0.52631134
47	0xbfb370d9	-1.4018813
48	0x3ef63882	0.48089987
49	0x3f91c33a	1.1387703
50	0xbf8d3669	-1.103223
51	0xbee99ca6	-0.45627326
52	0xbdc8ad04	-0.09798625
53	0x3f5571e5	0.83376914
54	0xbeb0d129	-0.34534577
55	0xbed7c89b	-0.42145237
56	0x3fe478c0	1.784935
57	0xbfb1554c	-1.3854156
58	0x3d18421b	0.037172418
59	0xbfa9689d	-1.323505
60	0xbfe1bd23	-1.7635845
61	0x4005eaa9	2.0924475
62	0x3f8261e4	1.0186124
63	0xbf166a80	-0.58756256
64	0x3eea49dd	0.45759478
65	0xbfd4c761	-1.6623346
66	0x3e201eb3	0.15636711
67	0x3f1b08f9	0.60560566
68	0x3f9aafc9	1.2084895
69	0xbe03b61a	-0.12862435
70	0xc01a1be5	-2.4079525
71	0x3fbcfc01	1.4764405
72	0x3e96b226	0.2943279
73	0x3f8c684a	1.0969326
74	0xc01c128e	-2.4386325
75	0x3fc4619b	1.5342287
76	0x3f060fa3	0.5236761
77	0x3c706517	0.014672539
78	0xbf20178c	-0.6253593
79	0xbe73e282	-0.23816875
80	0xbf91f5b4	-1.1403108
81	0x3fa4f915	1.2888514
82	0xbda10d9c	-0.07863924
83	0x3ed8859f	0.42289445
84	0xbf89b6fa	-1.0758965
85	0x3f42c729	0.76085144
86	0x3dda9dc8	0.10674626
87	0x3ed43928	0.41449857
88	0x3fffe591	1.9991933
89	0x3d2f9321	0.042864922
90	0xbdc76d70	-0.097376704
91	0xc030a152	-2.7598462
92	0xbe9f8d3d	-0.31162444
93	0xbf3005f8	-0.6875911
94	0x3f49dc70	0.78851986
95	0xbe333bae	-0.17503235
96	0xbfc7bf53	-1.5605263
97	0xbd719c64	-0.058987036
98	0x3f5cdc1c	0.8627336
99	0x3f741a0a	0.9535223
100	0x3c8797e6	0.016551923
101	0x3f104e23	0.5636923
102	0xbf729f26	-0.9477409
103	0x3f2a3a7d	0.66495496
104	0xbe8327a9	-0.25616196
105	0x3f81c5cd	1.0138489
106	0x3caa66ef	0.020801036
107	0xbefbd64d	-0.49186936
108	0xbf107941	-0.5643502
109	0x3ed943b6	0.42434472
110	0x3f6f0869	0.9337221
111	0xbf48145d	-0.7815607
112	0x3fb8af55	1.4428507
113	0xbf7f3fb1	-0.9970656
114	0xbf15270e	-0.5826272
115	0xbe9ac3b9	-0.3022745
116	0xbeeff42a	-0.4686597
117	0x3f9dd3d0	1.2330265
118	0x3ff05dcc	1.8778625
119	0xc03afb8d	-2.9216034
120	0x3e2090cd	0.15680237
121	0x3f1d31b5	0.6140397
122	0xbeeba685	-0.46025482
123	0xbeac0b26	-0.33602256
124	0x3f7077f5	0.9393304
125	0xbedc5fb5	-0.4304177
126	0xbf3e4aca	-0.7433287
127	0x3e5023ef	0.20326208
128	0xbfeaddf0	-1.834898
129	0x3f5831a6	0.8445076
130	0x40000830	2.0004997
131	0xbee3252c	-0.44364297
132	0xbe47207e	-0.19445989
133	0xbff66d0c	-1.9252028
134	0x3f8f0281	1.1172639
135	0x3f60c698	0.8780303
136	0x3f36805e	0.7128962
137	0x3f16838b	0.5879447
138	0xbf4f108b	-0.8088462
139	0xbf0f9485	-0.56086
140	0x3eb3ed9f	0.35142228
141	0x3fa175bb	1.2614053
142	0x3eace6fd	0.3376998
143	0xc0003c1b	-2.0036685
144	0xbd2ad50f	-0.041707095
145	0xbfc55e5c	-1.5419421
146	0x3e263271	0.1623018
147	0x3fa456c9	1.2838985
148	0xbfcc89cb	-1.5979551
149	0x3f8b8747	1.0900658
150	0x40349a92	2.8219342
151	0xc01afeb6	-2.4217963
152	0xbe8a0fa9	-0.26965073
153	0xbfa6bbfa	-1.3026116
154	0xbe57f2ce	-0.21088716
155	0x3fed9ffd	1.856445
156	0x3eda9709	0.42693356
157	0xbf29a3f6	-0.6626581
158	0x3e5d6021	0.21618702
159	0xbe5bb3dd	-0.21455331
160	0xbf20902c	-0.6271999
161	0xbeedb986	-0.46430606
162	0x3f499f6b	0.7875888
163	0x3f5539f4	0.83291554
164	0xbe32aa6a	-0.1744782
165	0xbe964eef	-0.29357097
166	0x4013e125	2.3106167
167	0xc0252720	-2.580513
168	0xbf81a3b7	-1.0128087
169	0x3d737000	0.059432983
170	0x3f7851d4	0.9699986
171	0x3c8aa0f2	0.016922448
172	0x3f611da9	0.8793588
173	0xbf6297bd	-0.88512784
174	0xbe49a74e	-0.19692728
175	0xbe23509c	-0.15948719
176	0x3fdf1de6	1.7430999
177	0x3f877592	1.0582755
178	0xc0001673	-2.0013702
179	0xbfa03cc4	-1.2518544
180	0x3f43a3de	0.76421916
181	0x3e347cc9	0.17625727
182	0xbed32aaf	-0.41243502
183	0xbf83da5d	-1.0301014
184	0x3fc11519	1.5084563
185	0x3f2fd4ae	0.686839
186	0xbfb2df36	-1.3974369
187	0xbfa526ac	-1.2902427
188	0xbfae10b4	-1.3598847
189	0xbef47d5c	-0.47751892
190	0x3f46ce3d	0.77658445
191	0x3fb844b4	1.4395967
192	0x3ed89c3a	0.4230669
193	0xbe712483	-0.23549084
194	0xbf92da56	-1.1472881
195	0x3f87d005	1.0610358
196	0x3e719570	0.23592162
197	0xbfc5af43	-1.5444111
198	0x3fc90baa	1.5706685
199	0xbf465d70	-0.77486324
200	0x3c6d86d7	0.01449748
201	0xbe9cbd90	-0.30613375
202	0xbd871687	-0.065960936
203	0x3d6a0b36	0.057139598
204	0xc0254ab2	-2.582684
205	0x3ffda480	1.9815826
206	0x3e9f0b0a	0.3106311
207	0x3f9c0f96	1.2192256
208	0xbfcdf8e0	-1.6091576
209	0x3ffd76ed	1.9801918
210	0xbe7eade4	-0.24871022
211	0x3e357acb	0.17722623
212	0xbe971b12	-0.2951284
213	0x3f0f9575	0.5608743
214	0x3e97ebe3	0.29672155
215	0xbe8e73c2	-0.2782269
216	0x3f0712e9	0.5276323
217	0x3ed1580c	0.40887487
218	0x3e207dab	0.15672939
219	0xbfc4f82a	-1.5388234
220	0xbe1f963f	-0.15584658
221	0x3f4675ed	0.7752369
222	0xbf473502	-0.7781526
223	0x3e6c3a61	0.23069145
224	0x3fbe77de	1.488033
225	0xbff62b03	-1.9231876
226	0x3dbe232b	0.092840515
227	0xbe781cff	-0.24229811
228	0xbf2a64be	-0.6655997
229	0xbf258c46	-0.64667165
230	0x3e9114aa	0.28336078
231	0x3f983cf8	1.1893606
232	0xbfbf2e2e	-1.4935968
233	0x3edf543a	0.43618947
234	0xbf80f95c	-1.0076098
235	0x402a9556	2.6653647
236	0x3ebed56b	0.372722
237	0x3f46cf98	0.7766051
238	0xbdfef010	-0.12448132
239	0xbfa2f29f	-1.2730292
240	0x3f6148fc	0.8800199
241	0xc0132841	-2.299332
242	0x3ea4dc32	0.32199246
243	0x3f6ae5f5	0.91757137
244	0x3d2ec9d9	0.042672966
245	0x3f36c258	0.71390295
246	0xbf3d11fb	-0.7385556
247	0xbea54774	-0.32281077
248	0xbf8f97b0	-1.1218166
249	0x40281e01	2.6268313
250	0xbd25c9a0	-0.040475488
251	0xbf8d84f6	-1.1056201
252	0x3fa26cc0	1.2689438
253	0xbf59a59d	-0.8501833
254	0x3f7d7b7c	0.9901655
255	0xc007c6b0	-2.121502

pool_layer_after.clusters2 f4 [1, 512, 4]
0	0xbea48e8d	-0.32140008
1	0xbf01b9b6	-0.50674
2	0x3eba60bf	0.36401936
3	0xbec604f6	-0.3867566
4	0x3cc7557b	0.024332752
5	0x3d46d250	0.048540413
6	0x3c9e75de	0.019343313
7	0x3cc42954	0.023945488
8	0x3b824809	0.0039758724
9	0xbd9267bd	-0.07148693
10	0x3da3ed9a	0.08004303
11	0xbcfdba42	-0.030972604
12	0xbb88607d	-0.004161893
13	0x3c9bd116	0.019020598
14	0x3ceefd63	0.029173559
15	0x3cd89e85	0.026442776
16	0xbc993b0d	-0.018704915
17	0x3c17abbe	0.009257255
18	0xbd006d12	-0.031354018
19	0xbd15c218	-0.036562055
20	0x3c285317	0.010273716
21	0xbc660877	-0.014040104
22	0x3d800277	0.0625047
23	0x3c0aedae	0.008479519
24	0xbcd55e66	-0.02604599
25	0x3bf63762	0.0075139264
26	0x3cc6efc5	0.024284253
27	0xbca29290	-0.019845277
28	0xbd0842fd	-0.03326701
29	0x3c04dddd	0.008109537
30	0xbbce9f3f	-0.0063056047
31	0x3c3afbc8	0.011412568
32	0x3cca4b8f	0.024694232
33	0xbc1abebb	-0.009444888
34	0x3cec7be8	0.028867677
35	0x3d0c2dd0	0.034223378
36	0xbcb8eade	-0.02257293
37	0xbceb6719	-0.028735684
38	0x3cc89edd	0.024489814
39	0x3ce3e119	0.027817296
40	0xbcf6f8f2	-0.030148003
41	0xbc907658	-0.017634556
42	0xbce6f0e2	-0.028191034
43	0xbcfdd637	-0.030985935
44	0xbc4c7fc6	-0.012481635
45	0x3c5f310a	0.013622532
46	0xbc99b919	-0.01876502
47	0xbc18cefd	-0.009326694
48	0xbc01ed50	-0.007930115
49	0x39d76cef	0.00041089157
50	0x3c2066f7	0.009790174
51	0xbbd0d6be	-0.0063732555
52	0xbbbbb12c	-0.0057279076
53	0xbc652618	-0.013986133
54	0x3c22dd76	0.009940496
55	0xbc3c9360	-0.011509746
56	0x3c259a9b	0.010107662
57	0xbc9a5ca0	-0.018842995
58	0xb93b5309	-0.00017864643
59	0x3a878511	0.001033934
60	0xbcbb64df	-0.022875248
61	0x3c3b948a	0.011448989
62	0xbc84d79c	-0.016216092
63	0xbc299402	-0.010350229
64	0xbc52eba0	-0.01287356
65	0xbbf7a80b	-0.007557874
66	0xbc4d6f28	-0.012538709
67	0x3bac955f	0.00526683
68	0x3bcb700e	0.0062084263
69	0x3b126217	0.0022336298
70	0xbc52697d	-0.012842533
71	0x3bb67d36	0.0055691255
72	0x3b4b7e43	0.00310506
73	0x3ba69170	0.0050832555
74	0x3bbb9c6b	0.0057254336
75	0x3b34b68a	0.0027574622
76	0xbc1cb5b4	-0.009564806
77	0xbbb0b8bf	-0.005393117
78	0xbcc4e7bd	-0.024036283
79	0xbc824d42	-0.01590598
80	0x3b53a499	0.0032294153
81	0x3bb77224	0.0055983234
82	0x3c10c89a	0.00883689
83	0xbad03e5e	-0.0015887727
84	0x3bd18fdd	0.0063953237
85	0x3c361463	0.011113259
86	0xbaf9f183	-0.0019069168
87	0xbbcf0355	-0.006317536
88	0x3c34d7a5	0.011037742
89	0x3a6e839b	0.000909859
90	0xbc72e3b3	-0.014824796
91	0xbc93ae47	-0.018027438
92	0x3bffa5a2	0.0078017274
93	0x3aad12a8	0.0013204413
94	0x3a7c040e	0.00096136413
95	0x3bbd89d0	0.005784251
96	0x3af6ca99	0.0018828689
97	0x3c31d458	0.010853849
98	0xbb90ec8e	-0.0044227308
99	0x3b114bee	0.0022170502
100	0xb63ef88a	-2.8456875e-06
101	0x3b31d4b3	0.0027134835
102	0xbc2fe98a	-0.010736832
103	0xbc174785	-0.00923336
104	0x3b946130	0.004528187
105	0xba725827	-0.0009244703
106	0x3c2a7736	0.010404399
107	0x3be3e32f	0.0069545726
108	0x3bcbef75	0.006223614
109	0x3bc4f2e7	0.0060104015
110	0x3c6d69f3	0.014490592
111	0xbc0d6692	-0.008630412
112	0x3b8bec66	0.0042701242
113	0xbc06c582	-0.0082258005
114	0x3be36382	0.0069393525
115	0x3bc99ed2	0.006152966
116	0x3b822ee9	0.0039728773
117	0x3a175dbe	0.00057741615
118	0xba243928	-0.00062646205
119	0xbc7af96f	-0.015318259
120	0x3bdcccf8	0.0067383014
121	0x3bd65487	0.006540838
122	0xbbf9a501	-0.007618547
123	0x3b2241c1	0.002475843
124	0x3bbf771e	0.0058430573
125	0x3a446199	0.000749135
126	0xbbd18d7d	-0.0063950405
127	0x3c5231a5	0.012829219
128	0xbc05f982	-0.008177163
129	0xba9629bc	-0.001145653
130	0x3b0288e9	0.001991803
131	0xbc6cff68	-0.0144651905
132	0xbc2aab5d	-0.010416833
133	0x3abf2e04	0.0014585857
134	0x3aa854ea	0.0012842689
135	0x3c4b2e25	0.012401138
136	0xba8195b5	-0.0009886535
137	0x3c25170e	0.010076297
138	0xbbbca8de	-0.005757435
139	0x3b51cb70	0.0032012127
140	0xbc1b9617	-0.009496233
141	0xbbc2d31d	-0.005945577
142	0xbb717e2c	-0.0036848886
143	0xbc21468c	-0.00984348
144	0x3bdc8aae	0.006730399
145	0xbc85e62f	-0.016345112
146	0xbc0d1aac	-0.008612316
147	0x3b3d5790	0.0028891303
148	0xbb6b0f01	-0.0035867097
149	0xbbdf77ed	-0.006819716
150	0x3c19b510	0.009381548
151	0xbc44c534	-0.0120099075
152	0xbc0a1b82	-0.00842941
153	0x3b53417f	0.0032235084
154	0x3c871fbc	0.016494624
155	0x3bec7f6b	0.007217338
156	0xbb829ea4	-0.0039861966
157	0x3bb1087c	0.0054026227
158	0x3af8ab93	0.0018972032
159	0x3bb47323	0.0055068894
160	0xbb91fc85	-0.0044551515
161	0x3b9b4ae7	0.0047391537
162	0x3be1eb21	0.0068944846
163	0xb9439aab	-0.00018654267
164	0x3b876367	0.0041317227
165	0xb9330f81	-0.00017076546
166	0x3b11a20c	0.0022221832
167	0xbc58e056	-0.01323708
168	0x3b646107	0.0034847872
169	0xbbb19758	-0.005419653
170	0xbc817731	-0.015803905
171	0x3b1e00e4	0.0024109418
172	0x3bca50e0	0.006174192
173	0x3aa3f1d2	0.0012507981
174	0x3b400a94	0.002930318
175	0xbb4019b6	-0.00293122
176	0x3b0de1ce	0.0021649483
177	0x3c25e063	0.010124299
178	0xbbbaf411	-0.0057053645
179	0xbc1349fd	-0.008989808
180	0x3bc83c14	0.0061106775
181	0x3a9fc022	0.0012187997
182	0xbc7dfd7c	-0.01550233
183	0xbc10c31b	-0.008835579
184	0x3b1756f8	0.002309261
185	0x3b11c6c2	0.0022243713
186	0xbb8d6273	-0.0043147146
187	0xbbbb6021	-0.0057182466
188	0xbc85506f	-0.016273705
189	0xbba6e0d1	-0.005092718
190	0x3ca0ea40	0.01964295
191	0x3c0b68a1	0.008508832
192	0x3c04053a	0.008057887
193	0x39461842	0.00018891788
194	0x3c34a95b	0.011026706
195	0xbb7fd2f4	-0.003903565
196	0x39bab9e1	0.00035615175
197	0xbb694272	-0.0035592583
198	0x3be3e9ad	0.0069553466
199	0xbafd720a	-0.0019336354
200	0x3bfd79b9	0.0077354577
201	0x392756b5	0.00015958662
202	0xbbd19119	-0.006395471
203	0x3b2c35ad	0.002627711
204	0xbc749eb0	-0.014930412
205	0x3ba8c188	0.005150024
206	0x3c3f0e1a	0.011661077
207	0xba4af373	-0.0007741965
208	0x3b84b0e7	0.0040494087
209	0x3b55f49d	0.0032647022
210	0xbbbb906d	-0.005724004
211	0xbab5cbb4	-0.0013869912
212	0xbbb3a845	-0.005482706
213	0xbaf60223	-0.0018768947
214	0x3bfa0dd6	0.007631044
215	0xbc0ea41b	-0.008706118
216	0x3bc132dd	0.005895956
217	0xbb4829a8	-0.0030542407
218	0xbc220743	-0.009889427
219	0x3b5a6b6e	0.0033328193
220	0xbaa5cf0a	-0.0012650203
221	0x3b926619	0.0044677374
222	0xbc098fdf	-0.008396118
223	0x3b9e5314	0.004831681
224	0xbc101833	-0.008794832
225	0xbad342a7	-0.0016117886
226	0xbc186e49	-0.009303638
227	0x3bd20dc0	0.0064103305
228	0x3bc6dbea	0.0060686963
229	0xbaa072d3	-0.0012241252
230	0x3adabce9	0.001668838
231	0xbb5ab0e1	-0.0033369588
232	0x3c04d11d	0.008106497
233	0x390ba597	0.0001331776
234	0xbb131c06	-0.0022447123
235	0x3c429d0b	0.011878262
236	0xba9e58ac	-0.001208087
237	0x3b96a169	0.0045968783
238	0xbb1edf77	-0.0024242082
239	0xbb16e54b	-0.0023024853
240	0x3c099dca	0.008399436
241	0xbbbe57c1	-0.005808801
242	0xbc18b9c6	-0.009321636
243	0xbb88b588	-0.004172031
244	0xbc2a62c3	-0.010399523
245	0x3bdec28a	0.006798093
246	0xbaf4b6eb	-0.0018670236
247	0x3b29f3d8	0.0025932696
248	0x3b9e5413	0.0048318
249	0x3bdf8be3	0.0068220957
250	0x3bf0c01c	0.00734712
251	0xbc4f208b	-0.012642036
252	0x3c3071bd	0.010769305
253	0xbb228c4e	-0.0024802866
254	0xba64dbe3	-0.00087302754
255	0xbad7faad	-0.0016477905

fc.weight f4 [18, 4096]
0	0x3d607ea4	0.054808274
1	0xbd432fa6	-0.047652863
2	0x3e30f6e9	0.17281689
3	0xbd0fe581	-0.03513098
4	0x3e2f208c	0.1710226
5	0xbe384c20	-0.1799779
6	0xbeae129d	-0.33998576
7	0xbe0115b3	-0.12605934
8	0xbf18e65d	-0.59726506
9	0xbeedfc33	-0.46481475
10	0xbeca81cd	-0.39552155
11	0xbec293ed	-0.38003483
12	0x3e87be98	0.265126
13	0xbe39f13e	-0.18158433
14	0xbe817ca9	-0.2529042
15	0xbc5b610e	-0.013389839
16	0x3fcb7391	1.5894643
17	0x3d0dabd6	0.034587704
18	0x3eace452	0.33767945
19	0x3e0c76f4	0.13717252
20	0x3cc10dce	0.023566153
21	0x3e199a80	0.15000343
22	0xbdc8a9e5	-0.0979803
23	0x3eb04856	0.34430188
24	0x3f9a12fd	1.2037045
25	0x3d836097	0.064149074
26	0x3e816dac	0.25278986
27	0x3d41b731	0.047293846
28	0xbe58b043	-0.21160989
29	0x3e3c204e	0.18371698
30	0xbd9dfbca	-0.077140406
31	0x3e2f8cd8	0.17143571
32	0xbe7163ca	-0.23573223
33	0xbd73fb28	-0.059565693
34	0xbe6e7215	-0.23285706
35	0xbe910182	-0.28321463
36	0xbef6fed0	-0.48241282
37	0x3e208be1	0.1567836
38	0xbe03bcf4	-0.12865049
39	0x3f15b534	0.5847962
40	0xbc5da0d9	-0.013527119
41	0x3f3110d4	0.691663
42	0x3ef27a47	0.47358915
43	0xbc973770	-0.018459052
44	0x3f8082fb	1.0039972
45	0x3ec7a050	0.38989496
46	0x3ea26ce8	0.31723714
47	0x3e4a8504	0.19777304
48	0xbe7ea80b	-0.24868791
49	0x3ee7e68e	0.45293087
50	0x3e846a96	0.2586257
51	0x3f587a3e	0.84561527
52	0x3de0cf3c	0.10977027
53	0xbe83ea92	-0.257649
54	0x3dc6023e	0.096683964
55	0xbe1c526e	-0.1526582
56	0xbe8c4728	-0.27398038
57	0x3e553011	0.20819117
58	0xbe19239f	-0.14954995
59	0x3f64d0b0	0.8938093
60	0x3f86f463	1.0543331
61	0xbda3da46	-0.08000617
62	0x3f0976f8	0.53697157
63	0xbeacee8a	-0.3377574
64	0x3e0da491	0.13832308
65	0x3ed46218	0.4148109
66	0x3ecc2277	0.39870045
67	0x3f131461	0.5745297
68	0x3e024768	0.12722552
69	0xbeeacffd	-0.45861807
70	0xbeee87e8	-0.46588063
71	0xbf0f3cd2	-0.5595218
72	0xbfd1f13c	-1.6401744
73	0xbf805b7f	-1.0027922
74	0xbfa636ad	-1.2985436
75	0xbf49aa02	-0.78775036
76	0x3ea3d0c1	0.31995204
77	0xbdee5c78	-0.11638731
78	0x3e4f7eef	0.20263265
79	0xbfa28bd4	-1.2698922
80	0x3fbfd83c	1.4987864
81	0xbded41e7	-0.115848355
82	0x3ec1fbd3	0.3788744
83	0xbe30b0ed	-0.17254992
84	0x3f807248	1.0034876
85	0x3e96a9f2	0.29426533
86	0x3f72462e	0.94638336
87	0x3df5db0c	0.120046705
88	0x3f153b46	0.5829357
89	0x3f613915	0.87977725
90	0x3f9272ab	1.1441244
91	0x3f01e73d	0.50743467
92	0xbb2a21f0	-0.002596017
93	0x3e538897	0.20657574
94	0x3ea7c214	0.32765257
95	0xbebac865	-0.36481014
96	0x3f975333	1.1822265
97	0x3d2d3ee1	0.042296294
98	0x3f5961b5	0.84914714
99	0xbe18bb18	-0.1491512
100	0x3eb5d5d0	0.35514688
101	0xbdbca708	-0.09211546
102	0xbf117365	-0.56816703
103	0xbf1d45e5	-0.61434776
104	0xbfc9bc2b	-1.5760549
105	0xbedc3450	-0.4300866
106	0xbfae2e26	-1.3607833
107	0x3df7312c	0.12069926
108	0xbefe2578	-0.4963796
109	0x3d231cc2	0.039822347
110	0xbf807cf3	-1.0038131
111	0xbf7427fa	-0.953735
112	0xbf570c9d	-0.8400362
113	0xbe81a497	-0.25320885
114	0xbef82cfa	-0.48471814
115	0x3f104da8	0.56368494
116	0xbf9af029	-1.2104541
117	0x3f8d1300	1.1021423
118	0x3ecaa869	0.39581612
119	0xbefbb74b	-0.4916328
120	0x3f9bcaac	1.2171226
121	0x3dbceca4	0.09224823
122	0xbf182d63	-0.59444255
123	0xbf20fb5a	-0.6288353
124	0xbf01019d	-0.50393087
125	0x3dec909e	0.11551021
126	0x3eeb655d	0.45975772
127	0xbf6a97d2	-0.9163791
128	0xbe0920f2	-0.13391474
129	0x3d80fbd5	0.06298033
130	0xbe9fea32	-0.31233364
131	0x3e1e581e	0.15463302
132	0xbf4d44f9	-0.8018337
133	0xbed43038	-0.41443038
134	0xbe2bf789	-0.16793646
135	0x3e9f8b92	0.3116117
136	0xbe1eeb6b	-0.15519492
137	0xbf0f629e	-0.5600985
138	0xbfc873cb	-1.5660337
139	0xbfa328da	-1.2746842
140	0xbf95e13b	-1.170936
141	0xbea1a87c	-0.31573856
142	0xbf94a0c2	-1.1611559
143	0xbf5cf602	-0.8631288
144	0x3ef3e6fe	0.4763717
145	0x3e1dfad2	0.15427712
146	0x4000e42e	2.013927
147	0x3f151549	0.58235604
148	0xbd42f795	-0.047599394
149	0x3f01d71d	0.5071886
150	0x3efed069	0.4976838
151	0x3fc81c5e	1.5633657
152	0xbf57dfdf	-0.84325975
153	0xbeca2b70	-0.39486265
154	0xbf32571a	-0.69664156
155	0x3e4352d8	0.19074571
156	0xbd83804f	-0.06420957
157	0x3e14ad3b	0.14519207
158	0xbe1231bf	-0.14276789
159	0x3eecdf96	0.46264333
160	0xbfc86a80	-1.5657501
161	0xbeff9f0f	-0.4992604
162	0xbfde9a9b	-1.7390932
163	0x3f344ff8	0.7043452
164	0x3fb4dcdd	1.4129902
165	0x3f898979	1.0745078
166	0x3e379b9c	0.17930454
167	0x3f94195d	1.157024
168	0x3ef52a08	0.4788363
169	0x3f9f3a45	1.2439657
170	0x3fb23a8f	1.3924121
171	0x3f9bbc8f	1.2166919
172	0xbec55b10	-0.38546038
173	0x3f6f2231	0.93411547
174	0x3eebbf33	0.4604431
175	0x3f98a98f	1.1926745
176	0xbe7029d5	-0.23453458
177	0x3ec5d242	0.38636976
178	0xbf9d9e74	-1.2313981
179	0xbf203015	-0.6257337
180	0x3ef11613	0.47087154
181	0x3f0e5580	0.5559921
182	0x3f10e28b	0.5659568
183	0xbf45981b	-0.7718522
184	0xbf7843c5	-0.9697841
185	0x3d9c75ad	0.076396324
186	0xbf290f1c	-0.6603868
187	0xbe9d9fa0	-0.30785847
188	0x3ee73cdd	0.45163622
189	0xbe8c1a78	-0.27363944
190	0xbe294429	-0.16529907
191	0x3faefafd	1.3670346
192	0x3eee534c	0.46547925
193	0x3e4372ee	0.19086811
194	0x3ea9f554	0.33194983
195	0x3f685285	0.90750915
196	0xbf820b01	-1.0159608
197	0x3f0ff23b	0.5622899
198	0x3e2fd92c	0.17172688
199	0x3fbd6978	1.4797812
200	0x3ed18649	0.40922764
201	0x3f036796	0.51329935
202	0x3f8a65fd	1.0812374
203	0x3f0c2fb0	0.54760265
204	0x3e157227	0.14594327
205	0xbf97b6de	-1.1852682
206	0xbec73c8b	-0.38913378
207	0xbec325aa	-0.38114673
208	0x400543d7	2.0822656
209	0x3cac345f	0.021021066
210	0x3f7d5f83	0.98973864
211	0xbf680c9d	-0.90644246
212	0xbf9273a2	-1.1441538
213	0x3c37ea86	0.011225348
214	0xbf17e5bf	-0.5933494
215	0x3f05967b	0.5218274
216	0x3f3abf6c	0.72948337
217	0xbb0c4b4d	-0.0021407187
218	0x3e0f2e75	0.13982566
219	0xbf1ee3f3	-0.6206657
220	0x3f762801	0.9615479
221	0xbefe868f	-0.49712035
222	0x3ead3efd	0.3383712
223	0xbfc5b604	-1.5446172
224	0xbe8c9a46	-0.2746145
225	0xbe021926	-0.12704906
226	0xbf0b97e4	-0.5452864
227	0xbea05554	-0.313151
228	0x3e86c144	0.26319325
229	0x3f4d7be4	0.8026717
230	0x3f8a2bd6	1.0794628
231	0x3f7cf6bf	0.98814005
232	0x3e900708	0.28130364
233	0xbf0437e9	-0.5164781
234	0x3e4baf9c	0.19891208
235	0xbf33b8cd	-0.7020386
236	0x3f0c11f4	0.54714894
237	0xbd7d9d58	-0.061917633
238	0x3bfe6076	0.007762964
239	0xbf6ed0ee	-0.9328755
240	0xbf5c5a6e	-0.86075485
241	0x3e7cbd83	0.24681668
242	0xbf0bb1aa	-0.5456797
243	0xbf142369	-0.5786653
244	0x3f5ec46a	0.87018454
245	0xbf43a830	-0.7642851
246	0x3f345e07	0.70455974
247	0xbf8d1b6f	-1.1023997
248	0x3ee70841	0.45123485
249	0xbea82d96	-0.3284728
250	0x3e1ccdba	0.15312853
251	0xbf2f3734	-0.6844361
252	0xbe5d0035	-0.2158211
253	0x3f872dc0	1.0560837
254	0x3f06153c	0.5237615
255	0x3f9feddb	1.2494463

fc.bias f4 [18]
0	0x3ea76c7c	0.32699955
1	0xbf34440d	-0.7041634
2	0xbf710075	-0.9414132
3	0xbf5171d9	-0.8181434
4	0xbf1c99e5	-0.61172324
5	0xbf6d7e4c	-0.9277084
6	0xbf65c52a	-0.89753973
7	0xbf817f2e	-1.0116937
8	0xbf7fdf5e	-0.99950206
9	0xbf16e57d	-0.5894392
10	0xbe36f84d	-0.17868157
11	0xbf3a5445	-0.72784835
12	0xbf338d9d	-0.7013796
13	0xbf30152f	-0.68782324
14	0xbf93fb31	-1.1561033
15	0xbf5fe46c	-0.8745792
16	0xbf35db68	-0.7103791
17	0xbf2d167d	-0.6761244

exp_avg f4 [512, 4]
0	0xb776afd0	-1.4703677e-05
1	0xb81adde1	-3.6923102e-05
2	0xb959524b	-0.00020725389
3	0x3987ba60	0.00025888067
4	0xb7170d9e	-9.003472e-06
5	0xb7a21bd1	-1.9324858e-05
6	0x3734011e	1.0729096e-05
7	0x3793a21b	1.7599252e-05
8	0x38000cf9	3.052966e-05
9	0xb6e6cf41	-6.8786617e-06
10	0x3802ec62	3.1214564e-05
11	0xb8661f74	-5.4865566e-05
12	0xb7f39e0c	-2.9041454e-05
13	0xb82a1c65	-4.0557603e-05
14	0x37de23f3	2.6481202e-05
15	0x3834d972	4.3117856e-05
16	0xb5d34182	-1.573979e-06
17	0x37eb938d	2.8082892e-05
18	0xb7775005	-1.4740978e-05
19	0xb7456eed	-1.1767942e-05
20	0x37465427	1.1821313e-05
21	0x36c7d465	5.955388e-06
22	0xb79b6ff9	-1.8529581e-05
23	0x354a19cc	7.5288403e-07
24	0x37b02ee4	2.100267e-05
25	0x383ba0af	4.4733923e-05
26	0xb7db1a45	-2.6119067e-05
27	0xb8262aff	-3.9617527e-05
28	0x36ba2824	5.547905e-06
29	0x36523f9f	3.132947e-06
30	0xb7208d2b	-9.569611e-06
31	0x356e9217	8.88745e-07
32	0x377621f2	1.4670646e-05
33	0xb7e9b365	-2.7859302e-05
34	0xb7a04dc8	-1.9109706e-05
35	0x3807781a	3.229836e-05
36	0x37a34efa	1.946789e-05
37	0xb4e1fa94	-4.2091835e-07
38	0xb80ffe4f	-3.43307e-05
39	0x37803593	1.5283737e-05
40	0x3687564b	4.0333593e-06
41	0x37a60e4d	1.9795401e-05
42	0xb58613d3	-9.989548e-07
43	0xb7bf82ab	-2.2829821e-05
44	0xb7bae9b4	-2.2281754e-05
45	0xb6da9d81	-6.515242e-06
46	0x37c2c68e	2.3219061e-05
47	0x36bb2a22	5.577939e-06
48	0x37bf0750	2.277238e-05
49	0x36d109a7	6.229809e-06
50	0xb5818e46	-9.652656e-07
51	0xb7eb30d5	-2.8036922e-05
52	0xb7a47dee	-1.9608964e-05
53	0x37a9cd77	2.0242047e-05
54	0x37784b79	1.4799524e-05
55	0xb7817541	-1.5432599e-05
56	0x373c4526	1.1221773e-05
57	0x36d7daa7	6.432954e-06
58	0xb7383365	-1.0979221e-05
59	0xb6dffe34	-6.675511e-06
60	0x36dde10d	6.6125126e-06
61	0xb6663592	-3.4303853e-06
62	0x37d8bcd3	2.5837135e-05
63	0xb7f36e60	-2.9019255e-05
64	0x358c4636	1.0451247e-06
65	0x3731cf20	1.0598247e-05
66	0x363ba36e	2.79603e-06
67	0xb77240c1	-1.4439401e-05
68	0xb786842a	-1.6035588e-05
69	0xb78a5acd	-1.6493164e-05
70	0x37d1f3fc	2.5028356e-05
71	0x36fbabf8	7.5004027e-06
72	0x36a75d2f	4.987836e-06
73	0x366f8b32	3.5694798e-06
74	0xb6e50a1b	-6.8259083e-06
75	0xb5e862ca	-1.7314098e-06
76	0x37240d46	9.778252e-06
77	0x371bf784	9.296349e-06
78	0x36a5033e	4.9177606e-06
79	0xb7c94337	-2.3992367e-05
80	0xb7c7feff	-2.384139e-05
81	0x37a7d15d	2.0005444e-05
82	0xb7e0fc3c	-2.6820337e-05
83	0x380094ef	3.0656283e-05
84	0xb6f08d5d	-7.169014e-06
85	0x36889c1a	4.0712885e-06
86	0x3766c39e	1.3754614e-05
87	0xb732cb03	-1.0656894e-05
88	0x373c417c	1.122092e-05
89	0x3691052b	4.3219384e-06
90	0xb73f734e	-1.1411334e-05
91	0xb68aa185	-4.131524e-06
92	0xb71b21ac	-9.24656e-06
93	0x3482a0cc	2.4331382e-07
94	0xb6d46bbd	-6.3306347e-06
95	0x3780a143	1.5333882e-05
96	0x37226c56	9.681176e-06
97	0x37ae0ba7	2.0747842e-05
98	0xb6d91c5f	-6.470407e-06
99	0xb7c8fab7	-2.3958606e-05
100	0x365adb88	3.2612315e-06
101	0x3727a66e	9.992726e-06
102	0xb781e7eb	-1.5485994e-05
103	0x3615c9fd	2.2320303e-06
104	0xb59a5fdd	-1.1501794e-06
105	0xb793d7a9	-1.762419e-05
106	0x3809fba8	3.289772e-05
107	0xb76cf34f	-1.4123346e-05
108	0xb618052a	-2.265277e-06
109	0xb5bd9984	-1.4126276e-06
110	0x37087e3b	8.135622e-06
111	0xb695938c	-4.4577228e-06
112	0xb6268f38	-2.4819292e-06
113	0xb5cbc896	-1.5183057e-06
114	0xb6aedb9f	-5.2111714e-06
115	0x371a8aae	9.211404e-06
116	0xb742f1ba	-1.1619582e-05
117	0x37706d14	1.43305115e-05
118	0xb77aace2	-1.4941414e-05
119	0x374d3186	1.2230483e-05
120	0x37b39804	2.140925e-05
121	0x363068e2	2.6287094e-06
122	0x3667a0e0	3.4515324e-06
123	0xb7e69938	-2.7489485e-05
124	0xb74ca158	-1.2196913e-05
125	0x361f6c63	2.3755936e-06
126	0xb77182d9	-1.4395185e-05
127	0x37cb2490	2.4216512e-05
128	0xb710db1c	-8.634084e-06
129	0x3502c36d	4.8713156e-07
130	0x376fefe4	1.4301364e-05
131	0xb6ce81f2	-6.154406e-06
132	0x368e71d9	4.2451834e-06
133	0x372ed111	1.0419885e-05
134	0xb75ba0c6	-1.309085e-05
135	0xb5d34999	-1.5742145e-06
136	0xb70d3e9a	-8.4188305e-06
137	0xb66a7106	-3.4934505e-06
138	0x3795f12d	1.787449e-05
139	0xb6c80efc	-5.962209e-06
140	0xb6b3d7dc	-5.359745e-06
141	0xb6d4885c	-6.3339667e-06
142	0x36dfce0e	6.669906e-06
143	0x36a8923c	5.023814e-06
144	0x376ecd13	1.4233653e-05
145	0xb6ca265c	-6.0245347e-06
146	0xb6d46b8b	-6.330612e-06
147	0xb5fc210f	-1.8785084e-06
148	0xb6bd1e06	-5.636134e-06
149	0x3794ff03	1.7761724e-05
150	0xb6a78c7d	-4.993343e-06
151	0xb6ef5195	-7.1322524e-06
152	0x36e00f71	6.677518e-06
153	0xb70f04af	-8.524555e-06
154	0xb55b2de2	-8.1650626e-07
155	0x3632bf52	2.663543e-06
156	0x370c0405	8.345586e-06
157	0xb6ed0f6f	-7.064947e-06
158	0x36da3c39	6.503917e-06
159	0xb7029a66	-7.7845525e-06
160	0xb6000152	-1.9074255e-06
161	0xb7390054	-1.1026936e-05
162	0x3785d70c	1.5954975e-05
163	0xb64ab5cc	-3.0206165e-06
164	0xb69a291f	-4.594345e-06
165	0xb640da2b	-2.873722e-06
166	0x37264933	9.911414e-06
167	0xb623f878	-2.443352e-06
168	0x371e50b8	9.436328e-06
169	0xb60a0bff	-2.0570585e-06
170	0xb7afcf30	-2.0958105e-05
171	0x3763d0a6	1.3578834e-05
172	0xb6e54dfc	-6.8338104e-06
173	0x36b094ae	5.2625173e-06
174	0x373d3fd0	1.1280135e-05
175	0xb722e320	-9.708834e-06
176	0xb61f02aa	-2.3694397e-06
177	0x3689e046	4.109027e-06
178	0x358e1633	1.0586285e-06
179	0xb63bc919	-2.7982226e-06
180	0xb6719fe8	-3.6004876e-06
181	0x3717ab5a	9.040197e-06
182	0xb769d8aa	-1.3938328e-05
183	0x370e9546	8.498615e-06
184	0x367658e8	3.6708607e-06
185	0x34974af1	2.818047e-07
186	0xb74e777b	-1.23063755e-05
187	0x370c26ee	8.353714e-06
188	0xb70726d0	-8.055664e-06
189	0xb73c2770	-1.12148555e-05
190	0x37003c4d	7.643434e-06
191	0x374311fa	1.1627091e-05
192	0xb5dd696b	-1.6496464e-06
193	0xb4a52c4a	-3.076587e-07
194	0xb71dfeef	-9.417286e-06
195	0x373ed580	1.1374592e-05
196	0xb712dd69	-8.753829e-06
197	0x36dc2546	6.56085e-06
198	0xb7302550	-1.0499105e-05
199	0x3754f018	1.2692086e-05
200	0x35ccc148	1.5255437e-06
201	0xb71a24a1	-9.187644e-06
202	0x3723244f	9.724011e-06
203	0xb60a5f64	-2.0619127e-06
204	0x3696a403	4.489442e-06
205	0xb6a915eb	-5.039144e-06
206	0xb6e4225e	-6.7989304e-06
207	0x36f69444	7.3486317e-06
208	0xb5f285b8	-1.8069322e-06
209	0xb327c97f	-3.9065977e-08
210	0xb6fce911	-7.5373177e-06
211	0x371d6d05	9.383312e-06
212	0xb5c98286	-1.5013654e-06
213	0x36ba5aaf	5.553789e-06
214	0xb780b60e	-1.5343565e-05
215	0x373d6f1a	1.1291146e-05
216	0x3675ec8a	3.6645529e-06
217	0x37709039	1.4338694e-05
218	0xb684a24c	-3.9528004e-06
219	0xb76bba31	-1.4050443e-05
220	0x373cc7c1	1.1252182e-05
221	0x368635e1	3.9997835e-06
222	0xb645f977	-2.9500495e-06
223	0xb74e6456	-1.2301918e-05
224	0x34e10b04	4.191753e-07
225	0xb4873dd9	-2.519071e-07
226	0xb74efd45	-1.2337526e-05
227	0x374c2ed8	1.2170254e-05
228	0x371545e1	8.897362e-06
229	0xb6f81d6f	-7.3944025e-06
230	0x3685928e	3.98077e-06
231	0xb6b800e1	-5.4837296e-06
232	0xb6eb0201	-7.003779e-06
233	0xb71e1259	-9.421806e-06
234	0x370a8c4e	8.258108e-06
235	0x3709070a	8.167475e-06
236	0xb78606d1	-1.5977219e-05
237	0x369fbf0f	4.7608114e-06
238	0xb69e394d	-4.7154376e-06
239	0x3785a55d	1.5931839e-05
240	0xb6a50021	-4.917398e-06
241	0x36ec2a99	7.038307e-06
242	0x35600bcb	8.3463664e-07
243	0xb64657e0	-2.955545e-06
244	0x3742f2e9	1.1619858e-05
245	0x3690f282	4.319766e-06
246	0xb79760b5	-1.8045635e-05
247	0x360d54ee	2.1060073e-06
248	0xb6855dc7	-3.974626e-06
249	0xb68b178e	-4.145265e-06
250	0x35c37e15	1.4565327e-06
251	0x36df95c7	6.6633543e-06
252	0x373bff86	1.1205562e-05
253	0xb679ee56	-3.7242621e-06
254	0xb6d487cf	-6.3339025e-06
255	0xb59a0020	-1.147393e-06

exp_avg_sq f4 [512, 4]
0	0x34229aa2	1.5143681e-07
1	0x33652ca3	5.3358814e-08
2	0x3494b4e3	2.769876e-07
3	0x343f2428	1.7801415e-07
4	0x329e54f5	1.8432255e-08
5	0x32ee3118	2.7729172e-08
6	0x3311e513	3.3968785e-08
7	0x33254455	3.8479204e-08
8	0x329cff82	1.8276982e-08
9	0x32b44bb8	2.098919e-08
10	0x32f47df2	2.8462612e-08
11	0x330cd8d5	3.2793498e-08
12	0x32920549	1.699904e-08
13	0x329f67ed	1.8557296e-08
14	0x32f3ad0f	2.8367621e-08
15	0x32d5cf98	2.4890866e-08
16	0x32474029	1.1597913e-08
17	0x324e8869	1.2021794e-08
18	0x329390bc	1.717887e-08
19	0x32580f9c	1.2576404e-08
20	0x322ca9a2	1.0050288e-08
21	0x32022588	7.5755295e-09
22	0x325e6a08	1.2946209e-08
23	0x326113a1	1.3101187e-08
24	0x31e4e83b	6.662075e-09
25	0x319ff1ee	4.6550133e-09
26	0x320c998d	8.183986e-09
27	0x320713da	7.862548e-09
28	0x319b229a	4.5150275e-09
29	0x31cb1a9c	5.9111027e-09
30	0x320ab4ff	8.073811e-09
31	0x32177e9d	8.818145e-09
32	0x31d74b87	6.26591e-09
33	0x3207c608	7.903061e-09
34	0x324208d4	1.12942935e-08
35	0x32315880	1.03228786e-08
36	0x319fbab9	4.648737e-09
37	0x318fdb27	4.1867625e-09
38	0x31ea4811	6.8184893e-09
39	0x31d2cc36	6.1350205e-09
40	0x31b0d485	5.146435e-09
41	0x318ba632	4.0643267e-09
42	0x31dfa573	6.5089636e-09
43	0x31bfc3de	5.581099e-09
44	0x3180fcd4	3.7540335e-09
45	0x3194e576	4.3334536e-09
46	0x31c7df1a	5.817026e-09
47	0x31c9e560	5.875947e-09
48	0x3177150d	3.5955197e-09
49	0x3182bf7a	3.8052663e-09
50	0x31be2d68	5.53489e-09
51	0x31bd74bc	5.513895e-09
52	0x31778e42	3.6024095e-09
53	0x31491e4d	2.9266574e-09
54	0x31a4d00b	4.79668e-09
55	0x31a3e1ca	4.7695936e-09
56	0x316d407f	3.45247e-09
57	0x313c0448	2.7360034e-09
58	0x31a3e5d6	4.7700537e-09
59	0x31a090be	4.673068e-09
60	0x314eb111	3.0077596e-09
61	0x315176d5	3.048105e-09
62	0x3199e1e9	4.478569e-09
63	0x3191a5e5	4.2389154e-09
64	0x314384a9	2.8451643e-09
65	0x313af0d3	2.7203455e-09
66	0x319c606f	4.551161e-09
67	0x31a9f3a5	4.9462465e-09
68	0x31320d56	2.590999e-09
69	0x3123728f	2.378474e-09
70	0x31834577	3.820499e-09
71	0x317002ca	3.4926182e-09
72	0x314a8978	2.947301e-09
73	0x31090b02	1.994238e-09
74	0x318478c3	3.8554346e-09
75	0x3176b398	3.5899799e-09
76	0x315246b4	3.0599212e-09
77	0x311a5215	2.2456608e-09
78	0x3184a39e	3.8603067e-09
79	0x316ab85e	3.4156282e-09
80	0x3132c95c	2.6016869e-09
81	0x31065340	1.9546889e-09
82	0x315c8065	3.2087197e-09
83	0x315fed35	3.2585608e-09
84	0x314cf819	2.9826934e-09
85	0x30d004b4	1.5135329e-09
86	0x3166b89d	3.3574346e-09
87	0x31460cf6	2.882016e-09
88	0x310e2042	2.0682056e-09
89	0x31082631	1.9812314e-09
90	0x3143543a	2.8424112e-09
91	0x314113f7	2.8096545e-09
92	0x30e6af50	1.6784529e-09
93	0x30f8d27e	1.81042e-09
94	0x3131b76f	2.586116e-09
95	0x31407719	2.8007376e-09
96	0x30fbac75	1.8311669e-09
97	0x30cca49c	1.4889738e-09
98	0x3135b447	2.6441442e-09
99	0x31205ff6	2.3337612e-09
100	0x30f29e08	1.7652733e-09
101	0x30ea6430	1.7054216e-09
102	0x312f5825	2.5515956e-09
103	0x312b40dc	2.4920643e-09
104	0x30fd6f34	1.8439779e-09
105	0x30cfc291	1.5116531e-09
106	0x3138a2d1	2.6868074e-09
107	0x31287f72	2.4519662e-09
108	0x30e8725d	1.6912726e-09
109	0x30f336f8	1.76962e-09
110	0x312ebdd6	2.5428242e-09
111	0x312c676c	2.5088083e-09
112	0x30d22fa4	1.5293051e-09
113	0x30d02866	1.5145474e-09
114	0x3139f701	2.7061449e-09
115	0x311aeb8c	2.2543842e-09
116	0x30ca3c9b	1.471466e-09
117	0x30afe80c	1.2798878e-09
118	0x3116c69e	2.1940774e-09
119	0x311ac9ad	2.2524589e-09
120	0x30ded8b0	1.6214212e-09
121	0x30ae4b31	1.2681537e-09
122	0x310f5d96	2.0862436e-09
123	0x31037d90	1.9134383e-09
124	0x30f6284e	1.7910311e-09
125	0x3099d5e7	1.119301e-09
126	0x310af250	2.0219382e-09
127	0x310152d5	1.8819055e-09
128	0x30bdac66	1.3800558e-09
129	0x30b5d104	1.3228889e-09
130	0x31157043	2.1746167e-09
131	0x30f31872	1.7687525e-09
132	0x30c92820	1.4636079e-09
133	0x308796f2	9.865444e-10
134	0x3101b3b7	1.8874127e-09
135	0x30f2b275	1.7658538e-09
136	0x30c4b466	1.4312149e-09
137	0x308700bc	9.822752e-10
138	0x310bd555	2.0348427e-09
139	0x30e06aed	1.6328535e-09
140	0x30a5ceb4	1.2064079e-09
141	0x30b12994	1.2890262e-09
142	0x3100150c	1.8638415e-09
143	0x30f7f06c	1.8039947e-09
144	0x30b478a7	1.3131015e-09
145	0x309479f3	1.0803077e-09
146	0x30e6652e	1.676346e-09
147	0x30e31136	1.6521315e-09
148	0x30be6549	1.3853106e-09
149	0x308bdd65	1.0176505e-09
150	0x30eaaa77	1.707419e-09
151	0x30e1fb94	1.6442407e-09
152	0x3092c9a7	1.0680211e-09
153	0x309c1467	1.1356293e-09
154	0x30f675e0	1.7932358e-09
155	0x30e61d73	1.6743072e-09
156	0x309fb337	1.1619709e-09
157	0x309546e0	1.0861321e-09
158	0x30f5cd40	1.7884432e-09
159	0x30d98b54	1.5828427e-09
160	0x30a776c4	1.2184604e-09
161	0x307b1e62	9.1356445e-10
162	0x30e40b09	1.659232e-09
163	0x30c993d6	1.4666692e-09
164	0x308eb15a	1.0382266e-09
165	0x30805bf7	9.339364e-10
166	0x30c876ba	1.4585659e-09
167	0x30bbe726	1.3671737e-09
168	0x308dd0c7	1.0318438e-09
169	0x308a1fce	1.0049861e-09
170	0x30bf3e01	1.3914702e-09
171	0x30b4ab88	1.3145476e-09
172	0x309196b0	1.0592967e-09
173	0x304e8769	7.5134793e-10
174	0x30b32f5f	1.3037428e-09
175	0x30b677bb	1.3276272e-09
176	0x309f1892	1.1575756e-09
177	0x3040a7ea	7.0087813e-10
178	0x30cde213	1.4979967e-09
179	0x30a6b87e	1.2130525e-09
180	0x30939e9d	1.0740738e-09
181	0x30298eaa	6.168458e-10
182	0x30b4a0cc	1.3142425e-09
183	0x30983684	1.107495e-09
184	0x308c60bd	1.0213835e-09
185	0x303888eb	6.713338e-10
186	0x30bad8ff	1.3594955e-09
187	0x30a04c2c	1.1663182e-09
188	0x30806c50	9.34401e-10
189	0x304006d1	6.985888e-10
190	0x30adc028	1.2642021e-09
191	0x30995e33	1.1158988e-09
192	0x307a58ad	9.1075486e-10
193	0x30441b61	7.134329e-10
194	0x30a5b24a	1.2056003e-09
195	0x3098f53b	1.1129154e-09
196	0x30607283	8.1653456e-10
197	0x3034757d	6.565058e-10
198	0x30a30ed7	1.1864029e-09
199	0x3094ac51	1.0817393e-09
200	0x3077d8c0	9.0166097e-10
201	0x301d4ced	5.7225585e-10
202	0x30a02d12	1.1654342e-09
203	0x30801c87	9.321334e-10
204	0x3080a9ac	9.361449e-10
205	0x30246673	5.980844e-10
206	0x30ae6ea4	1.2691612e-09
207	0x308d19c9	1.0266429e-09
208	0x30864ccc	9.77161e-10
209	0x300a028c	5.0207727e-10
210	0x30aad5af	1.242986e-09
211	0x30737c07	8.857914e-10
212	0x3047c824	7.2680195e-10
213	0x3028618d	6.125667e-10
214	0x30903905	1.0493585e-09
215	0x3081ceb7	9.444737e-10
216	0x304d016e	7.45806e-10
217	0x3034737c	6.564773e-10
218	0x309d3f77	1.1441291e-09
219	0x3087b6b5	9.874471e-10
220	0x305c4769	8.0137014e-10
221	0x30138c2d	5.367749e-10
222	0x3085a85f	9.724878e-10
223	0x3077e1ba	9.0178853e-10
224	0x304019c7	6.9885825e-10
225	0x3028e19c	6.1438654e-10
226	0x30964955	1.0934779e-09
227	0x308cc356	1.0241858e-09
228	0x3058fb73	7.8937673e-10
229	0x30079b50	4.9333426e-10
230	0x3083efb9	9.599638e-10
231	0x3077a203	9.008831e-10
232	0x30516b13	7.618592e-10
233	0x3000f4d8	4.691407e-10
234	0x308882cf	9.93248e-10
235	0x3075175c	8.9163676e-10
236	0x30458351	7.1854794e-10
237	0x301d4ca4	5.722518e-10
238	0x308ccf11	1.0245192e-09
239	0x3071f44d	8.802246e-10
240	0x30445ed9	7.143917e-10
241	0x30229abd	5.9155153e-10
242	0x30887fca	9.931622e-10
243	0x306e2b70	8.6645624e-10
244	0x305f306d	8.1195745e-10
245	0x2fe00faf	4.0756507e-10
246	0x3089512d	9.991133e-10
247	0x3055a4f1	7.7723344e-10
248	0x3031dd68	6.470686e-10
249	0x3000a5db	4.6801824e-10
250	0x306e510f	8.6699087e-10
251	0x305ccb91	8.032482e-10
252	0x302aff73	6.2208655e-10
253	0x3010e791	5.271597e-10
254	0x307e3605	9.248143e-10
255	0x306b89da	8.56884e-10
