TemporalContextAggregation/models/TCA_T10_K8/model.pth.tar (torch, 989377 bytes, 18 tensors)

pool_layer_before.clusters f4 [512, 4]
3.417027 -2.995165 -0.4823903 2.879099 2.0004058 1.7579069 -1.5246804 -1.8292143
0.24921253 -1.2052884 1.5823494 -0.53509456 1.1973003 0.6735161 -1.205665 -0.2071969
1.0528305 -1.9239385 -0.99913746 2.7170968 -1.7007452 0.5926659 -0.55462813 1.286176
-0.67828214 0.46757576 -0.81726843 0.7195353 1.2311733 0.16799504 0.88239956 -1.9025633
0.6226633 0.81025743 -0.54826707 -0.994462 1.4094136 0.5359155 0.51243496 -2.271293
-0.14085308 -1.6367066 2.1210132 -0.27069494 -1.63336 0.6004718 -0.9521057 1.6069604
-0.45255294 0.7729882 0.506374 -0.9840823 -0.61049485 -0.44082126 0.97932875 -0.02708017
0.7901876 -0.7840566 1.7498491 -1.434436 0.01917857 0.3625584 -0.8172808 0.43526584
0.6203284 -1.1434028 0.2962244 0.5803468 0.30346516 0.11834813 0.34115484 -0.73462385
1.4772252 0.8310947 -0.9909797 -1.0768408 -0.29256332 -1.0493263 0.6312138 0.97908247
-1.3023965 0.82854396 -1.0173503 1.069393 -0.58635265 0.79012305 -1.7172793 1.7232933
0.14540492 -2.029059 1.1290808 0.9502386 -1.3704572 -0.71152514 -0.59568834 2.4266233
0.64353365 -0.5137886 -0.5285816 0.8942881 -0.07627572 0.3148338 0.33449385 -0.8950325
0.1451747 0.4901732 0.21567596 -0.6737732 -0.3498304 -0.31742752 -0.7841905 1.5211993
-0.6286742 -0.22090007 1.0959121 -0.5704692 -0.1435044 -0.33576608 -0.11938612 0.76702297
-0.6129182 1.1511084 -0.09097486 -0.89297616 -1.543337 -0.3981939 2.124613 -0.56969035
1.1911341 0.2305178 -1.1577168 -0.0036178513 0.29089862 -0.41893452 -0.8348633 1.3460438
0.05375285 0.76521075 -0.58031017 -0.41882533 0.13505688 1.3450171 -1.3039173 -0.16060708
1.1522424 -0.8258058 1.2688699 -1.3654493 0.5342169 1.7608933 -1.1685678 -1.3720932
0.38659507 -1.7984095 0.790548 1.039647 -0.41850322 -0.6677345 0.3555265 0.69700706
0.692436 1.0376748 0.5104583 -2.3347242 -0.53859913 -0.5287179 -0.5698735 1.7863091
0.2281947 -0.37385574 -0.3037269 0.37910193 -1.110846 -0.67532575 0.6673609 0.8772302
-1.5804616 0.438838 0.93975365 -0.7939667 0.38459373 -0.9447376 2.0305326 -1.475832
0.41673326 1.5314981 0.7710366 -3.2598433 -0.19829114 0.9986251 -1.8514862 0.90644336
-1.4964678 0.5791644 0.53947 -0.089520365 -0.32113904 0.74042326 -0.22166222 -0.38960844
-0.1836439 0.4226858 -0.7047826 0.4469767 -0.43128082 2.5961547 -2.382687 -0.06958958
-0.13820778 0.49342382 -1.2608844 1.1937945 1.3323658 -0.1515396 -1.3153808 0.6786974
-0.71619534 -0.49424967 1.4029561 -0.46812445 -1.7862401 0.939705 -1.0928826 1.3624263
0.02123248 -0.038271453 -0.28740028 0.49242213 0.43236387 1.2722672 0.002895658 -1.9788474
1.3799493 0.63605 -1.4607906 0.07323777 -1.9270226 0.73250514 0.77821237 -0.3336901
-0.6840419 -0.5320264 0.6975603 0.28276086 -1.6209292 1.1439708 -0.73777074 0.50859225
0.08634739 1.3935255 0.25252488 -2.0011463 -1.2145412 -0.5182325 0.98560196 0.3772449
00000000: 92b0 5a40 c9b0 3fc0 ddfb f6be 2843 3840
00000010: a606 0040 1803 e13f ba28 c3bf b223 eabf
00000020: 9231 7f3e e446 9abf 6d8a ca3f f5fb 08bf
00000030: 2341 993f 8d6b 2c3f 3b53 9abf 6d2b 54be
00000040: 26c3 863f 9e43 f6bf 79c7 7fbf eae4 2d40
00000050: 05b2 d9bf f4b8 173f 1cfc 0dbf 6aa1 a43f
00000060: e6a3 2dbf 1766 ef3e 8138 51bf 7733 383f
00000070: 1697 9d3f e406 2c3e f0e4 613f 3287 f3bf
00000080: dd66 1f3f 086d 4f3f 3b5b 0cbf 1095 7ebf
00000090: aa67 b43f c231 093f f02e 033f dd5c 11c0
000000a0: ca3b 10be 9a7f d1bf aebe 0740 8798 8abe
000000b0: f111 d1bf 85b8 193f 33bd 73bf e1b0 cd3f
000000c0: 05b5 e7be 8ee2 453f baa1 013f d1ec 7bbf
000000d0: 6449 1cbf 53b3 e1be 4ab5 7a3f 3cd7 ddbc
000000e0: bc49 4a3f efb7 48bf 0efb df3f 999b b7bf
000000f0: 601c 9d3c 41a1 b93e 5139 51bf 2adb de3e
00000100: d8cd 1e3f 065b 92bf b9aa 973e 9c91 143f
00000110: c95f 9b3e 8160 f23d d9ab ae3e 4f10 3cbf
00000120: b715 bd3f 9fc2 543f d8b0 7dbf ebd5 89bf
00000130: dcca 95be 5350 86bf 3a97 213f 26a5 7a3f
00000140: eeb4 a6bf 751b 543f 8938 82bf dfe1 883f
00000150: 351b 16bf 8145 4a3f cfcf dbbf e094 dc3f
00000160: 07e5 143e 1adc 01c0 b885 903f d642 733f
00000170: 246b afbf 8326 36bf 087f 18bf cc4d 1b40
00000180: 9fbe 243f a687 03bf 2051 07bf 11f0 643f
00000190: 7236 9cbd e531 a13e c742 ab3e da20 65bf
000001a0: ada8 143e fbf7 fa3e 29da 5c3e 677c 2cbf
000001b0: f81c b3be dc85 a2be b5c0 48bf a9b6 c23f
000001c0: cbf0 20bf a133 62be d946 8c3f 450a 12bf
000001d0: d1f2 12be 88e9 abbe b680 f4bd 9e5b 443f
000001e0: 35e8 1cbf 8557 933f 0751 babd 169a 64bf
000001f0: 118c c5bf 12e0 cbbe a9f9 0740 3ad7 11bf
00000200: 1577 983f dc0c 6c3e 1030 94bf 7919 6dbb
00000210: aaf0 943e 967e d6be 9ab9 55bf 2a4b ac3f
00000220: f32b 5c3d dae4 433f 358f 14bf 4670 d6be
00000230: 5a4c 0a3e 8529 ac3f c3e6 a6bf 2f76 24be
00000240: ae7c 933f 0268 53bf 546a a23f 0bc7 aebf
00000250: 70c2 083f f464 e13f a193 95bf c0a0 afbf
00000260: caef c53e 4832 e6bf 5b61 4a3f 2713 853f
00000270: 0e46 d6be a6f0 2abf 9207 b63e 0e6f 323f
00000280: 7c43 313f 87d2 843f 65ad 023f 1f6c 15c0
00000290: a2e1 09bf 0e5a 07bf 3be3 11bf c7a5 e43f
000002a0: dfab 693e 056a bfbe 1882 9bbe a619 c23e
000002b0: 3430 8ebf 26e2 2cbf 2ad8 2a3f 2992 603f
000002c0: 914c cabf 60af e03e b293 703f 6741 4bbf
000002d0: 78e9 c43e 53da 71bf 3ff4 0140 10e8 bcbf
000002e0: 105e d53e 2108 c43f a862 453f 46a1 50c0
000002f0: d50c 4bbe e5a5 7f3f 80fd ecbf ac0c 683f
00000300: 428c bfbf 1e44 143f b51a 0a3f 7456 b7bd
00000310: 566c a4be 618c 3d3f 6cfb 62be c27a c7be
00000320: 260d 3cbe 466a d83e a26c 34bf 21da e43e
00000330: d7d0 dcbe 6627 2640 f27d 18c0 fb84 8ebd
00000340: 5786 0dbe 0ca2 fc3e a964 a1bf 42ce 983f
00000350: f68a aa3f 322d 1bbe 665e a8bf 1dbf 2d3f
00000360: 9458 37bf 4b0e fdbe 1194 b33f 02ae efbe
00000370: 84a3 e4bf 8290 703f 94e3 8bbf fc63 ae3f
00000380: bdef ad3c 87c2 1cbd 2126 93be c11e fc3e
00000390: cc5e dd3e a7d9 a23f 14c5 3d3b df4a fdbf
000003a0: 2ea2 b03f 2cd4 223f 30fb babf affd 953d
000003b0: ada8 f6bf 7585 3b3f ed38 473f 6ed9 aabe
000003c0: 5f1d 2fbf e232 08bf 5093 323f 08c6 903e
000003d0: 9c7a cfbf a36d 923f 8bde 3cbf 1a33 023f
000003e0: e7d6 b03d 0b5f b23f f14a 813e c812 00c0
000003f0: 1676 9bbf e3aa 04bf 6950 7c3f 3e26 c13e

pool_layer_before.clusters2 f4 [1, 512, 4]
0.38420427 0.622446 -0.21597943 -0.67146796 0.15175767 -0.08679819 0.058350712 -0.0519057
0.13748471 -0.10200338 0.09112261 -0.0854302 0.073931925 -0.07294266 0.0725991 0.0018077312
-0.047107384 0.0682078 0.0005730046 -0.035045594 -0.0048622023 -0.050074194 -0.01849068 -0.0044453684
-0.026016569 -0.01964465 -0.018786386 -0.016264662 0.02750081 -0.084365904 0.016553663 0.0051322468
0.027251653 -0.015441477 0.024468262 0.007488236 0.026301727 -0.0062219687 -0.002296269 0.024529848
-0.025394494 0.0061028176 -0.018503224 -0.032307904 -0.038912505 0.0008747353 -0.009177477 -0.0026076075
-0.013237546 -0.0012948151 -0.012104046 0.0024372467 -0.012706446 0.012330095 -0.01183093 0.004655349
0.0031200948 0.007083119 -0.0004376672 0.0004612048 -0.0028641552 0.013241796 -0.007249601 -0.006141438
-0.010102445 0.006994426 -0.01795891 0.023272527 0.009393582 -0.007900386 0.0037614272 0.007581279
0.017680332 0.0059264954 -0.004270238 -0.0052437903 -0.018877013 -0.001180898 -0.0052124183 0.01594617
0.0033009853 0.005696895 8.407362e-05 0.017796932 -0.020103024 -0.0028575636 0.0016758838 -0.005528856
-0.019352492 -0.014209321 0.0065082754 -0.00061490916 -0.014778159 -0.009560614 0.0053595044 0.021423312
-0.015657257 -0.010073071 -0.0012494429 0.011991745 -0.0051289126 0.021033559 0.006529249 -0.023336144
0.016527181 0.011971806 0.001074644 0.00055276946 0.0048303884 0.00041264226 -0.00078531064 0.010588937
0.009763015 0.0015570141 -0.0075218203 -0.004603466 -0.006417855 -0.0021516806 0.0003824311 0.00044198547
-0.00041603783 -0.0054147565 0.005488723 0.0095300125 -0.00019716822 0.006478105 0.010400777 0.010560287
-0.0002467766 0.002499544 0.0028835745 0.00969641 0.007191576 -0.014034994 -0.009060382 0.0037990885
0.0036272737 0.012115636 -0.0016466363 0.0020737452 0.0038604815 0.023157213 -0.008351282 -0.008344678
-0.009089461 -0.030100085 0.004712418 0.0075671705 -0.0009297869 0.002422898 -0.008781274 -0.0029594044
0.00880531 0.011146008 -0.00056111417 0.00031084448 0.004204946 -0.0004850376 0.006403738 -0.004048528
0.02678565 0.006217664 -0.0029646857 -0.0062417197 -0.0059714434 -0.011185896 0.0036025443 -0.013986988
-0.013593987 -0.009488779 0.007885478 -0.0032761723 0.004255065 0.015398022 0.0063797813 0.0013375796
-0.012885834 -0.017596614 0.0015621051 0.008779742 -0.013668373 -0.016563682 0.008376507 0.00222171
-0.001311392 0.018857999 0.0040058135 -0.024457665 0.008855125 0.0037480758 -0.008226706 0.012190875
0.013963897 0.017519895 0.009315327 -0.007117072 0.009655266 0.015765084 -0.005576285 -0.00179642
-0.017779697 -0.012917336 0.008003062 -0.02178947 0.011756804 0.004446396 -0.015339135 -0.0042915307
-0.021580033 -0.0044799605 0.0036078582 0.018775176 0.017636698 0.018729612 -0.002255993 -0.016370308
-0.018003501 -0.010767562 -0.0015459569 0.014013738 -0.01532103 -0.012715751 0.006008574 0.018365378
-0.01364143 -0.021970054 -0.0048407386 0.016303765 -0.0006489553 -0.0059316047 0.006320277 -0.017606845
0.0071521867 0.00040394047 -0.0008375533 -0.0070386934 -0.009293824 -0.0033351828 0.0024232592 0.0055431835
-0.007889677 -0.0032957874 -0.004797592 0.012266796 -0.010217922 -0.008805951 0.0048690373 0.013977462
0.0047899857 0.032951966 -0.016451811 -0.0065214983 -0.00551426 -0.012703733 0.009997956 -0.008491195
00000000: 6cb6 c43e 9f58 1f3f b629 5dbe 53e5 2bbf
00000010: 5d66 1b3e 40c3 b1bd 2801 6f3d 129b 54bd
00000020: cbc8 0c3e 26e7 d0bd 7e9e ba3d 07f6 aebd
00000030: 9f69 973d f662 95bd d6ae 943d 65f1 ec3a
00000040: acf3 40bd 88b0 8b3d b035 163a f88b 0fbd
00000050: 1c53 9fbb 991a 4dbd c479 97bc 74aa 91bb
00000060: b320 d5bc d1ed a0bc e8e5 99bc 783d 85bc
00000070: 6149 e13c 08c8 acbd 8c9b 873c 682c a83b
00000080: dc3e df3c 40fe 7cbc aa71 c83c e05f f53b
00000090: b876 d73c a8e1 cbbb 007d 16bb d2f2 c83c
000000a0: 1d08 d0bc 25fa c73b 1394 97bc 4b55 04bd
000000b0: b862 1fbd 7e4e 653a 215d 16bc 65e4 2abb
000000c0: 4be2 58bc c9b6 a9ba 0c50 46bc 37ba 1f3b
000000d0: b32e 50bc 2b04 4a3c 84d6 41bc e68b 983b
000000e0: 817a 4c3b 8219 e83b b276 e5b9 dccd f139
000000f0: 8db4 3bbb 1ef4 583c 108e edbb 1e3e c9bb
00000100: ba84 25bc 7f31 e53b 901e 93bc 07a6 be3c
00000110: 8ae7 193c 9f70 01bc 4782 763b 616c f83b
00000120: 58d6 903c 0c33 c23b 5aed 8bbb 1ad4 abbb
00000130: f7a3 9abc 5dc8 9aba efcc aabb 8ba1 823c
00000140: 5855 583b 05ad ba3b ae50 b038 dfca 913c
00000150: 19af a4bc f645 3bbb 54a9 db3a 682b b5bb
00000160: 1e89 9ebc 36ce 68bc 5f43 d53b db31 21ba
00000170: 1720 72bc 1fa4 1cbc c89e af3b f17f af3c
00000180: a643 80bc 8609 25bc 59c4 a3ba 0679 443c
00000190: 7010 a8bb 924e ac3c 4ff3 d53b 712b bfbc
000001a0: 0364 873c 6525 443c 12db 8c3a bbe7 103a
000001b0: 3c48 9e3b e857 d839 4edd 4dba 397d 2d3c
000001c0: 0ef5 1f3c b914 cc3a 9a79 f6bb acd8 96bb
000001d0: df4c d2bb 3603 0dbb 0981 c839 49ba e739
000001e0: a71f dab9 456e b1bb bfda b33b c523 1c3c
000001f0: f1be 4eb9 4946 d43b 0568 2a3c 0e05 2d3c
00000200: cb61 81b9 64cf 233b 5afa 3c3b b1dd 1e3c
00000210: 50a7 eb3b 08f3 65bc ff71 14bc 21fa 783b
00000220: 8eb7 6d3b a980 463c f2d3 d7ba ace7 073b
00000230: 2200 7d3b 32b4 bd3c d1d3 08bc 1eb8 08bc
00000240: f6eb 14bc 7494 f6bc a16a 9a3b 07f6 f73b
00000250: f1bc 73ba 7cc9 1e3b 55df 0fbc 91f2 41bb
00000260: 2644 103c bf9d 363c bc17 13ba d7f8 a239
00000270: a5c9 893b a54c feb9 73d6 d13b 84a9 84bb
00000280: 946d db3c 8cbd cb3b 2c4b 42bb 5787 ccbb
00000290: 19ac c3bb 0c45 37bc aa18 6c3b ae29 65bc
000002a0: 50b9 5ebc d376 1bbc 1832 013c 0db5 56bb
000002b0: 136e 8b3b fc47 7c3c 7c0d d13b b951 af3a
000002c0: 1b1f 53bc c626 90bc 8dbf cc3a e8d8 0f3c
000002d0: 50f1 5fbc 8fb0 87bc 9e3d 093c 1c9a 113b
000002e0: 04e3 abba 177c 9a3c 3343 833b 715b c8bc
000002f0: 1615 113c 47a2 753b 4ec9 06bc 3cbc 473c
00000300: d4c8 643c e285 8f3c 509f 183c 5436 e9bb
00000310: 1f31 1e3c c725 813c 45b9 b6bb da75 ebba
00000320: baa6 91bc 3ca3 53bc 461f 033c d57f b2bc
00000330: 9c9f 403c 13b3 913b ff50 7bbc f89f 8cbb
00000340: 9cc8 b0bc a2cc 92bb d171 6c3b 66ce 993c
00000350: d67a 903c d86e 993c 48d9 13bb 061b 86bc
00000360: 147c 93bc 6e6a 30bc b5a1 caba e199 653c
00000370: 0f05 7bbc ba55 50bc 92e3 c43b fd72 963c
00000380: 4e80 5fbc 8bfa b3bc 0f9f 9ebb 798f 853c
00000390: a71e 2aba e85d c2bb 541a cf3b 3b3c 90bc
000003a0: e45c ea3b f9c7 d339 408f 5bba d7a4 e6bb
000003b0: 2045 18bc 1593 5abb 8bcf 1e3b 98a3 b53b
000003c0: b443 01bc 23fe 57bb 1e35 9dbb acfa 483c
000003d0: 1269 27bc d646 10bc 728c 9f3b ba01 653c
000003e0: 50f5 9c3b a4f8 063d f3c5 86bc 4bb2 d5bb
000003f0: f7b0 b4bb 5123 50bc 78ce 233c a71e 0bbc

pool_layer_after.clusters f4 [512, 4]
-4.1438885 -4.817938 8.26727 2.0567055 -1.212868 1.5395967 0.05291197 0.23013946
0.6334793 -1.8711808 0.80287755 0.1644735 -3.1337428 1.6584567 0.3297433 2.483207
-5.1656795 0.7335076 2.8614128 2.6822352 -0.009016654 1.4830145 -1.7331449 0.598868
-1.755056 2.8578382 -1.326637 0.8658624 1.0030776 0.9164422 -0.3300038 -1.9527144
-1.0137701 -0.74338305 2.2177637 -0.58754075 0.9300646 -0.9413644 1.5226421 -2.1625004
1.4496747 -2.4908795 1.6216297 -1.1965367 -1.8147647 0.9189072 1.2992647 -0.2950966
1.4913329 1.073911 -1.4679003 -1.3322984 2.0660505 -1.0302893 0.1760231 -1.878582
2.7775776 -0.7499298 -0.20929655 -2.780123 -2.001882 -0.42091605 0.93861717 2.137081
0.29332858 -0.9044254 2.009876 -2.1786618 1.9174157 0.4461928 -2.7385514 0.08227067
0.94909644 2.7776604 -2.5826335 -0.9651573 -0.63468593 -0.8734585 1.0532838 0.47113213
-2.3974683 1.1735595 0.16157226 1.8311466 -2.8149939 2.0429933 0.7766216 0.6735498
1.2150054 -0.7966522 -0.55525184 0.06823903 -3.3229392 -0.37873092 0.92189413 3.6067698
-3.6398292 0.68354625 1.4320974 2.4065962 0.82276535 1.9051299 -1.5572381 -1.2180544
-0.02771952 0.52049285 0.11912884 -0.7164287 -1.4806659 0.08271537 1.1701452 0.51371604
1.9929504 0.35162577 -0.7580025 -2.1036289 -0.5539168 -1.8502121 2.745683 -0.5119037
-2.1334286 1.518044 0.6656336 0.2009302 0.9124323 -1.2949888 -0.31993154 0.64166135
-1.8761625 -0.40738568 2.4494092 0.3959236 0.5900224 -0.8167213 0.29822156 -0.18784003
-0.6513515 0.62971205 0.6151125 -0.55828184 0.2979382 -0.12496299 0.56885004 -1.0623789
1.7421777 -1.9294807 0.62762463 -1.2690653 -0.6174613 0.64459264 1.8389184 -2.1242886
1.2060516 0.03748239 -0.94237506 -0.65522355 1.6520346 -1.0771443 0.14076012 -1.1591339
2.1702955 -0.32859713 0.46454754 -2.9119182 -0.17556728 -0.6340396 0.88282233 -0.46206993
0.4192214 -1.1571339 -0.24794301 1.1255156 0.7151201 1.9637336 -1.3724202 -1.521797
0.14633842 1.350145 -0.7590374 -0.6439082 1.2071421 -1.1064894 0.1442969 -0.44116235
2.7389863 -0.7238516 -1.0551807 -1.7927319 -0.14217702 0.91209054 -0.83290666 -0.045271765
2.1188803 0.5171802 -1.0700127 -1.9616796 1.3995124 -0.49281523 0.052883044 -1.4355018
-1.7400949 2.7306118 -0.46720478 -0.3521163 -0.99138725 1.3975828 0.37088338 -0.7505351
-2.037014 -0.69171137 0.8078168 2.3015122 1.9143076 0.1530507 0.5434048 -3.322192
-1.4612466 0.109575115 0.94358593 0.6481201 -3.0635943 0.89011014 -0.7059607 3.7222636
-0.94706696 -0.80775064 0.31521478 1.5959556 -0.15964751 0.5305608 0.30822 -0.61630845
-2.2191606 0.33328786 1.0387 0.90195525 -0.35742164 0.2054022 0.58501977 -0.39173654
0.54235196 -2.0790544 1.8710297 -0.4915316 -1.6635739 0.44375345 -0.9017402 2.3048868
1.2359521 1.3713949 -2.1035774 -0.5444992 0.8016989 0.30085012 1.3252188 -2.8219116
00000000: bc9a 84c0 8c2c 9ac0 bd46 0441 10a1 0340
00000010: 423f 9bbf 8111 c53f 39ba 583d aea9 6b3e
00000020: b32b 223f da82 efbf 6289 4d3f be6b 283e
00000030: 3e8f 48c0 4f48 d43f 1dd4 a83e ddec 1e40
00000040: 3f4d a5c0 27c7 3b3f 6321 3740 bea9 2b40
00000050: 97ba 13bc 6bd3 bd3f b1d7 ddbf 6a4f 193f
00000060: ada5 e0bf d2e6 3640 3ecf a9bf 29a9 5d3f
00000070: d964 803f f59b 6a3f 42f6 a8be 8cf2 f9bf
00000080: 38c3 81bf 5a4e 3ebf d7ef 0d40 1269 16bf
00000090: b718 6e3f 42fd 70bf f0e5 c23f 6866 0ac0
000000a0: f18e b93f 926a 1fc0 9091 cf3f 1d28 99bf
000000b0: 364a e8bf 813d 6b3f 4e4e a63f e716 97be
000000c0: ffe3 be3f ea75 893f 28e4 bbbf c188 aabf
000000d0: 2c3a 0440 85e0 83bf 663f 343e 6075 f0bf
000000e0: d5c3 3140 66fb 3fbf d651 56be 89ed 31c0
000000f0: d61e 00c0 4f82 d7be 3749 703f efc5 0840
00000100: 2a2f 963e 6c88 67bf cfa1 0040 326f 0bc0
00000110: e16d f53f 6273 e43e 6d44 2fc0 867d a83d
00000120: fcf7 723f 30c5 3140 de49 25c0 8c14 77bf
00000130: c77a 22bf fa9a 5fbf 01d2 863f 3b38 f13e
00000140: 1f70 19c0 3337 963f 3373 253e 0363 ea3f
00000150: dc28 34c0 67c0 0240 acd0 463f c26d 2c3f
00000160: 4c85 9b3f 66f1 4bbf fc24 0ebf e8c0 8b3d
00000170: 09ab 54c0 05e9 c1be 4101 6c3f 51d5 6640
00000180: f6f2 68c0 e3fc 2e3f f84e b73f ac05 1a40
00000190: c0a0 523f 4cdb f33f 9453 c7bf 35e9 9bbf
000001a0: 0c14 e3bc 053f 053f d2f9 f33d df67 37bf
000001b0: 7686 bdbf ad66 a93d 51c7 953f e582 033f
000001c0: 0019 ff3f 4b08 b43e 740c 42bf dba1 06c0
000001d0: 7ecd 0dbf c0d3 ecbf 45b9 2f40 1f0c 03bf
000001e0: 188a 08c0 444f c23f f766 2a3f a5c0 4d3e
000001f0: 2a95 693f 31c2 a5bf 11ce a3be eb43 243f
00000200: 1826 f0bf db94 d0be 1fc3 1c40 80b6 ca3e
00000210: b50b 173f a614 51bf 7fb0 983e 2359 40be
00000220: f9be 26bf cf34 213f 0378 1d3f 8feb 0ebf
00000230: 5b8b 983e 99ec ffbd 28a0 113f 08fc 87bf
00000240: aeff de3f 39f9 f6bf 02ac 203f bb70 a2bf
00000250: f211 1ebf 0604 253f ae61 eb3f 58f4 07c0
00000260: e65f 9a3f 2287 193d 7e3f 71bf bbbc 27bf
00000270: df75 d33f dddf 89bf 6c23 103e 805e 94bf
00000280: 1fe6 0a40 e23d a8be 2dd9 ed3e de5c 3ac0
00000290: e9c7 33be 6b50 22bf a500 623f 6e94 ecbe
000002a0: 30a4 d63e f71c 94bf c6e4 7dbe e510 903f
000002b0: 1c12 373f 9f5b fb3f 77ab afbf 3eca c2bf
000002c0: bdd9 153e 8dd1 ac3f 4650 42bf 2bd7 24bf
000002d0: a283 9a3f 72a1 8dbf 91c2 133e 08e0 e1be
000002e0: 8d4b 2f40 574e 39bf 2910 87bf 3d78 e5bf
000002f0: da96 11be c47e 693f 5f39 55bf e36e 39bd
00000300: bc9b 0740 ec65 043f 2df6 88bf 5118 fbbf
00000310: 3923 b33f 4752 fcbe e49b 583d 86be b7bf
00000320: 6ebb debf 58c2 2e40 7735 efbe 9648 b4be
00000330: 8ecb 7dbf fee3 b23f 6de4 bd3e 1123 40bf
00000340: 705e 02c0 ff13 31bf 15cd 4e3f fa4b 1340
00000350: 0808 f53f 53b9 1c3e 941c 0b3f cb9e 54c0
00000360: 210a bbbf eb68 e03d d98e 713f 33eb 253f
00000370: ee11 44c0 42de 633f d7b9 34bf 9139 6e40
00000380: fb72 72bf bfc8 4ebf d563 a13e 4648 cc3f
00000390: a37a 23be d5d2 073f 03cf 9d3e 64c6 1dbf
000003a0: ba06 0ec0 b5a4 aa3e 1ff4 843f 8ae6 663f
000003b0: f8ff b6be f454 523e dbc3 153f b191 c8be
000003c0: 94d7 0a3f 3a0f 05c0 e77d ef3f 08aa fbbe
000003d0: fdef d4bf a733 e33e 72d8 66bf 4483 1340
000003e0: ae33 9e3f de89 af3f 03a1 06c0 4d64 0bbf
000003f0: 243c 4d3f 0709 9a3e c5a0 a93f 339a 34c0

pool_layer_after.clusters2 f4 [1, 512, 4]
0.5759446 -0.5800775 0.54272014 0.18828446 -0.18340792 0.016425546 -0.08923164 0.14375743
-0.041372824 -0.033281427 0.021411538 0.111140005 -0.07131416 0.04257447 -0.06574283 0.12423496
0.13698171 -0.026791515 -0.053664394 -0.06430556 -0.03368297 -0.008276901 0.11301227 0.044121314
0.019378634 -0.004257027 0.005495531 -0.010922945 -0.01951935 0.016053203 -0.0012353184 -0.018832115
-0.013837325 0.007869786 0.039149288 0.0700721 0.00025403418 -0.02373664 0.01564972 0.04502635
0.024305016 -0.018038096 -0.029488984 -0.034139454 0.017415842 0.0071321423 -0.03558242 -0.01718042
-0.017921135 -0.004477126 0.015029514 -0.013452017 0.0064110076 -0.028074479 0.016261252 -0.007836345
-0.015312483 -0.007793576 0.003584416 -0.015630448 -0.020436414 -0.0035411804 0.008422458 -0.03401998
-0.0010763482 -0.020471627 -0.005994028 -0.027497042 0.006039494 0.0038246869 0.007674624 -0.004987562
-0.007058785 0.003865762 0.017920949 0.001065634 0.00977823 -0.0033933958 -0.034390654 -0.005634349
0.012521436 0.0020883537 -0.0024013813 0.0074496227 0.012656053 0.009236296 -0.01392208 -0.019581761
-0.005670036 0.005097676 -0.021541068 -0.016411433 0.03766875 0.0068796463 -0.0066051604 0.004764492
-0.0047463174 0.013184108 -0.0026954694 -0.0034846491 -0.003747605 0.01273607 -0.010279256 -0.017835764
0.0053302892 -0.007880142 0.0061989343 0.0047776215 -0.0037503438 0.0062860865 0.04561743 0.0010830933
0.0076367436 -0.014222057 0.011679243 0.00799207 -0.010085275 -0.0035586958 0.00014370149 -0.0074232155
0.01658381 0.0022724767 0.0049228454 0.012303315 0.02627845 0.0007156108 -0.011186413 0.0058258055
-0.004940128 -0.0063578966 -0.0015454149 -0.0004309391 0.010751049 0.004918295 -0.00031925173 0.0028127367
0.017130708 0.0038098176 -0.0031816345 0.0053856075 -0.021627015 -0.007713095 0.006691249 0.0068272715
-0.019132148 -0.007547206 -0.0105075445 -0.009088623 -0.021993993 -0.0071134563 0.014262329 -0.008781036
0.010401493 -0.0032327448 0.021193815 0.010789541 0.022798521 -0.00045652007 -0.0069905235 -0.00270696
0.012656725 0.007311768 0.021924768 0.009836257 -0.013917847 -0.0006526944 -0.00018067169 -0.00462671
-0.0083560245 -0.0044648084 -0.033651043 -0.013591702 0.021539697 0.002199819 -0.0013564081 -0.0022404457
0.022918042 0.009334534 -0.0112997275 -0.006527952 -0.016388532 0.0048817024 -0.010939155 -0.006358363
-0.0051841033 -0.0004709851 0.014348707 -0.008184991 -0.0019965854 -0.0096992515 0.012448311 -0.0003943986
0.011623192 0.0042083785 0.024817074 -0.0012692966 0.0079792775 0.0029811044 0.011558998 0.0040879683
0.006362817 0.009992304 -0.015716843 -0.00826278 0.01282281 -2.275221e-05 0.0036686345 -0.004302168
-0.0143696405 -0.0018710546 -0.018150644 -0.003526578 0.013621891 -0.00788492 0.01321585 -6.594614e-05
-0.006051923 2.2889291e-05 -0.02012168 -0.005458734 0.013088018 0.016359814 -0.017607385 0.0046623503
0.013125755 -0.010959928 -0.010308699 0.0015250276 -0.010749296 0.0026888382 0.010443875 -0.005720734
-0.023146793 -0.010516454 -0.0021801537 0.0025708622 0.0030969782 0.010480954 -0.0066498052 -0.002291598
0.010584018 -0.007650825 -0.0043167565 -0.0031565798 0.020856874 0.0006856814 -0.0065962877 -0.0029270824
-0.01743957 0.0078072743 0.010723716 -0.0021204806 -0.011007519 -0.0054570627 -0.00045400928 -0.0059694103
00000000: 1b71 133f f67f 14bf b5ef 0a3f a4cd 403e
00000010: 49cf 3bbe de8e 863c 14bf b6bd 2635 133e
00000020: 8d76 29bd 1b52 08bd 4067 af3c 5f9d e33d
00000030: 290d 92bd 9162 2e3d 2da4 86bd e66e fe3d
00000040: ef44 0c3e e179 dbbc 32cf 5bbd a2b2 83bd
00000050: 27f7 09bd d79b 07bc fa72 e73d 8db8 343d
00000060: f1bf 9e3c 887e 8bbb db13 b43b 27f6 32bc
00000070: 0be7 9fbc 0282 833c 68ea a1ba cf45 9abc
00000080: f3b5 62bc 46f0 003c 015b 203d f681 8f3d
00000090: e42f 8539 5873 c2bc d733 803c 8d6d 383d
000000a0: 501b c73c a1c4 93bc e292 f1bc d0d5 0bbd
000000b0: abab 8e3c bfb4 e93b dfbe 11bd f4bd 8cbc
000000c0: 58cf 92bc dbb4 92bb 5a3e 763c d965 5cbc
000000d0: 6e13 d23b 73fc e5bc 5136 853c 0364 00bc
000000e0: 35e1 7abc 4161 ffbb 85e8 6a3b 6d0b 80bc
000000f0: 446a a7bc 2613 68bb 59fe 093c 8958 0bbd
00000100: 4114 8dba 1db4 a7bc 8d69 c4bb 7a41 e1bc
00000110: f3e6 c53b 99a7 7a3b 6a7b fb3b b46e a3bb
00000120: 614d e7bb b958 7d3b f4ce 923c beac 8b3a
00000130: df34 203c bc63 5ebb 37dd 0cbd 58a0 b8bb
00000140: b626 4d3c c3dc 083b 7e60 1dbb f71b f43b
00000150: 555b 4f3c d553 173c 7019 64bc ee69 a0bc
00000160: b6cb b9bb 680a a73b e576 b0bc 4571 86bc
00000170: 8c4a 1a3d a86e e13b 1a70 d8bb 751f 9c3b
00000180: ff86 9bbb 2802 583c 79a6 30bb b65e 64bb
00000190: 619a 75bb f3aa 503c 536a 28bc 4f1c 92bc
000001a0: b5a9 ae3b b61b 01bc 6e20 cb3b 988d 9c3b
000001b0: 54c8 75bb 84fb cd3b 58d9 3a3d 95f6 8d3a
000001c0: a63d fa3b a103 69bc 4c5a 3f3c 2cf1 023c
000001d0: b63c 25bc 0239 69bb 93ae 1639 723e f3bb
000001e0: c5da 873c d5ed 143b d24f a13b d893 493c
000001f0: e745 d73c d497 3b3a 3747 37bc 66e6 be3b
00000200: cce0 a1bb e755 d0bb 858f caba abef e1b9
00000210: 2b25 303c a629 a13b 3e61 a7b9 e455 383b
00000220: b355 8c3c 22ae 793b f882 50bb c079 b03b
00000230: 232b b1bc 21be fcbb 4442 db3b 4eb7 df3b
00000240: 06bb 9cbc 8d4e f7bb d627 2cbc 73e8 14bc
00000250: bf2c b4bc ff17 e9bb 8bac 693c 56de 0fbc
00000260: 066b 2a3c 75dc 53bb a79e ad3c 9dc6 303c
00000270: f7c3 ba3c 1659 efb9 c310 e5bb 4167 31bb
00000280: 275e 4f3c 8e97 ef3b 929b b33c 4128 213c
00000290: ae07 64bc 9419 2bba b072 3db9 a89b 97bb
000002a0: b5e7 08bc 874d 92bb add5 09bd bbaf 5ebc
000002b0: 0574 b03c d72a 103b 81c9 b1ba 71d4 12bb
000002c0: 9ebe bb3c e0ef 183c 7e22 39bc 6ee8 d5bb
000002d0: 3e41 86bc b0f6 9f3b 243a 33bc d159 d0bb
000002e0: 69df a9bb 8dee f6b9 d716 6b3c 571a 06bc
000002f0: 25d9 02bb 9ce9 1ebc 00f4 4b3c 49c7 ceb9
00000300: 336f 3e3c 70e6 893b 2d4d cb3c 875e a6ba
00000310: 84bb 023c a25e 433b f461 3d3c 5df4 853b
00000320: 2d7f d03b c3b6 233c 9cc0 80bc 9c60 07bc
00000330: c316 523c 00dc beb7 796d 703b 33f9 8cbb
00000340: a46e 6bbc 2d3e f5ba a9b0 94bc 291e 67bb
00000350: 5a2e 5f3c c02f 01bc 4b87 583c 904c 8ab8
00000360: 364f c6bb 6102 c037 39d6 a4bc 2edf b2bb
00000370: 206f 563c 0405 863c 5d3d 90bc a1c6 983b
00000380: 680d 573c 4591 33bc d1e5 28bc 6fe3 c73a
00000390: d11d 30bc 3837 303b c91c 2b3c ff74 bbbb
000003a0: 589e bdbc 344d 2cbc e9e0 0ebb e97b 283b
000003b0: acf6 4a3b 4fb8 2b3c 9ce6 d9bb a22e 16bb
000003c0: 9768 2d3c c6b3 fabb 9473 8dbb 9fde 4ebb
000003d0: 09dc aa3c 4dbf 333a ac25 d8bb 4bd4 3fbb
000003e0: 6edd 8ebc 2ad4 ff3b 86b2 2f3c c3f7 0abb
000003f0: e258 34bc 29d1 b2bb 1808 eeb9 0b9b c3bb

fc.weight f4 [18, 4096]
0.057475753 0.010565176 -0.018845903 -0.013796624 -0.06483834 -0.18599282 -0.24167188 -0.061275933
-0.16059053 -0.15423633 -0.18704648 -0.22894521 0.03114705 -0.02625995 -0.11079326 0.07892964
-0.018321099 0.6561784 0.24067314 -0.061108306 0.089100726 -0.034336 -0.034417517 0.0633387
-0.15093815 0.29518706 -0.09198246 -0.035661947 -0.16858771 -0.09218885 -0.20117004 -0.012079021
-0.110905446 -0.45902145 -0.41462913 -0.23434365 0.03266655 -0.4722077 -0.18911481 0.014245
0.14557791 0.3672809 0.25898114 0.07000069 0.24017802 0.53592914 0.25192633 0.37516648
0.12527703 0.024160154 0.14512818 0.35308495 0.011633487 -0.09162137 0.25280458 0.10943377
0.06415177 -0.4207131 0.034823686 0.29743353 -0.19957834 0.36071825 -0.007205547 -0.24827208
0.1457086 0.09397877 0.33758682 0.3195061 -0.21350722 -0.49953032 -0.0939292 -0.33747157
-0.3998685 -0.93772936 -0.48989674 0.069317095 -0.08555516 0.19364291 0.10975715 -0.18472926
-0.046845466 0.0040746187 -0.29191744 -0.2771613 0.36367893 1.1021495 0.84287834 0.24737018
0.25698015 0.704468 0.65974474 0.55961245 0.083969325 0.26966113 0.06917008 -0.18580589
0.20843162 0.78983885 0.67669934 0.047411263 -0.10832612 0.22731988 -0.1571805 -0.22569454
-0.3718128 -0.8038574 -0.31805032 -0.0015716965 -0.16239768 -0.28728545 -0.6204667 -0.45653924
-0.11869045 -0.69108003 -0.070072286 0.24474552 0.058723856 -0.11756035 -0.06003775 -0.49942446
-0.11049321 0.24688482 -0.68734914 -0.19138224 0.036891624 0.22125868 0.23033383 0.08076099
-0.004306864 -0.019840457 -0.22418953 -0.43738705 -0.11670043 -0.40531516 0.14127654 0.40492466
-0.14715903 -0.43494847 -0.5539121 -0.38024306 -0.012093105 -0.22755584 -0.21489884 -0.36124033
0.18477884 0.41546664 0.7463162 0.3540338 0.015249972 -0.31967312 0.11805179 0.5140057
-0.28170773 -0.13392927 -0.47993922 0.12419552 0.07835584 -0.020977655 0.3033739 0.6968594
0.042509362 -1.2218084 -0.82626194 0.27604008 0.29159084 0.8223453 0.33764738 0.2668934
0.6465786 0.5555844 0.4247394 0.09802117 0.39533213 0.13822488 0.56127673 0.54283756
0.22949344 0.23232637 -0.013262074 -0.13830763 0.06269867 0.26779354 -0.025440432 -0.38274688
0.06654091 -0.5201466 -0.11585265 0.48983544 -0.062478613 0.052281514 0.12405799 -0.031238439
-0.028595181 -0.00998356 0.36465374 0.4208392 0.4312206 -0.5974196 -0.53483087 0.78946805
0.10178355 0.51427287 0.6969783 0.3593543 -0.37671402 -0.31903556 -0.8238495 -0.30356947
0.017984295 0.9454279 0.64617205 -0.33426812 0.07100682 -0.3316221 -0.21738778 0.34706792
-0.14279369 0.4032542 -0.34130055 -0.68157554 -0.15212011 0.19261391 -0.12162714 -0.42385012
0.18240224 0.23446488 -0.23656824 -0.15551661 0.46936208 -0.07447488 0.53272974 0.53429115
-0.17060538 0.51981133 0.25411895 -0.283218 -0.06174873 0.004571126 0.049934883 -0.055449553
-0.051667742 -0.5478896 0.008781545 0.011055556 -0.17201269 0.8513095 0.2904169 -0.53444546
-0.2237716 0.031407543 -0.3929046 -0.2811123 0.45873848 0.75825113 0.3688846 0.64170843
00000000: b26b 6b3d 8f19 2d3c b962 9abc 3c0b 62bc
00000010: f7c9 84bd e774 3ebe d578 77be 79fc 7abd
00000020: d871 24be 21f0 1dbe 1d89 3fbe 9d70 6abe
00000030: 1928 ff3c 1b1f d7bc 94e7 e2bd dda5 a13d
00000040: 2116 96bc 4ffb 273f 0573 763e b44c 7abd
00000050: 717a b63d e8a3 0cbd 62f9 0cbd b8b7 813d
00000060: 888f 1abe c222 973e 4d61 bcbd 4312 12bd
00000070: 42a2 2cbe 82cd bcbd 85ff 4dbe 16e7 45bc
00000080: 6522 e3bd dc04 ebbe 454a d4be c8f7 6fbe
00000090: 5ccd 053d 35c5 f1be 50a7 41be dc63 693c
000000a0: 6012 153e 3e0c bc3e 2d99 843e 865c 8f3d
000000b0: 3af1 753e a732 093f 7dfc 803e d215 c03e
000000c0: 9f48 003e 84eb c53c 7b9c 143e 8dc7 b43e
000000d0: 629a 3e3c fca3 bbbd 9a6f 813e d01e e03d
000000e0: 0162 833d b567 d7be 48a3 0e3d 3549 983e
000000f0: 445e 4cbe 10b0 b83e 821c ecbb 093b 7ebe
00000100: a334 153e f177 c03d 2ed8 ac3e 4e96 a33e
00000110: a3a1 5abe 70c2 ffbe f45d c0bd 13c9 acbe
00000120: 90bb ccbe 080f 70bf bfd3 fabe 1ff6 8d3d
00000130: 8b37 afbd 544a 463e 5bc8 e03d ab29 3dbe
00000140: 08e1 3fbd 6184 853b 3476 95be 16e8 8dbe
00000150: 2034 ba3e 3c13 8d3f e0c6 573f 9c4e 7d3e
00000160: e792 833e 0458 343f 08e5 283f c342 0f3f
00000170: 1cf8 ab3d 0611 8a3e 0ba9 8d3d e643 3ebe
00000180: 196f 553e e132 4a3f 2b3c 2d3f 5032 423d
00000190: 16da ddbd 8bc6 683e edf3 20be 781c 67be
000001a0: 3f5e bebe 99c9 4dbf 7ed7 a2be 6201 ceba
000001b0: 944b 26be 1417 93be e8d6 1ebf 83bf e9be
000001c0: fb13 f3bd 9fea 30bf 0f82 8fbd 929e 7a3e
000001d0: 6d88 703d 7bc3 f0bd 25ea 75bd 90b4 ffbe
000001e0: 444a e2bd 60cf 7c3e 1df6 2fbf b5f9 43be
000001f0: ac1b 173d a391 623e a2dc 6b3e 0566 a53d
00000200: 9820 8dbb 7488 a2bc f191 65be 32f1 dfbe
00000210: a300 efbd 7885 cfbe ccaa 103e 4952 cf3e
00000220: dbb0 16be 91b1 debe 2fcd 0dbf 38af c2be
00000230: 2922 46bc 6604 69be 710e 5cbe 7ef4 b8be
00000240: aa36 3d3e 0bb8 d43e 940e 3f3f eb43 b53e
00000250: 05db 793c 32ac a3be 23c5 f13d e195 033f
00000260: ff3b 90be c124 09be 98ba f5be 395a fe3d
00000270: 0779 a03d 55d9 abbc d353 9b3e 6165 323f
00000280: 4c1e 2e3d 3864 9cbf e785 53bf 2055 8d3e
00000290: 654b 953e 3985 523f 1ee0 ac3e 40a6 883e
000002a0: 2d86 253f c73a 0e3f 7177 d93e 53bf c83d
000002b0: f968 ca3e d38a 0d3e d5af 0f3f 67f7 0a3f
000002c0: 5400 6b3e f7e6 6d3e 2c49 59bc 84a0 0dbe
000002d0: 2968 803d 3c1c 893e 7468 d0bc 66f7 c3be
000002e0: 9a46 883d 5428 05bf 2744 edbd b6cb fa3e
000002f0: 93e9 7fbd 2425 563d 1e12 fe3d c1e7 ffbc
00000300: 7140 eabc 1692 23bc e5b3 ba3e 3c78 d73e
00000310: f2c8 dc3e 7ef0 18bf adea 08bf 941a 4a3f
00000320: e573 d03d 63a7 033f 2b6d 323f 49fd b73e
00000330: a9e0 c0be a158 a3be cde7 52bf 756d 9bbe
00000340: cd53 933c 9007 723f 886b 253f 3125 abbe
00000350: 066c 913d 5fca a9be e79a 5ebe e3b2 b13e
00000360: 8238 12be 5677 ce3e f2be aebe bc7b 2ebf
00000370: 60c5 1bbe 953c 453e a617 f9bd e202 d9be
00000380: a7c7 3a3e 9017 703e f23e 72be bf3f 1fbe
00000390: 3a50 f03e 4986 98bd fa60 083f 4ec7 083f
000003a0: 2db3 2ebe 5b12 053f e11b 823e f301 91be
000003b0: 3cec 7cbd 62c9 953b 8588 4c3d 121f 63bd
000003c0: 8ea1 53bd 7e42 0cbf 78e0 0f3c 5d22 353c
000003d0: 1824 30be 6bef 593f 86b1 943e 6bd1 08bf
000003e0: 6224 65be 32a5 003d cb2a c9be f4ed 8fbe
000003f0: c5df ea3e bf1c 423f 71de bc3e 0147 243f

fc.bias f4 [18]
0.19370575 -0.68564326 -0.9370314 -0.83448863 -0.610535 -0.84680563 -1.0304004 -1.0084959
-0.9721047 -0.49922934 -0.3470419 -0.3896059 -0.68831795 -0.7470997 -1.4951568 -0.6102023
-0.6316181 -0.61079586
00000000: cd5a 463e 5186 2fbf 4ae1 6fbf 0ca1 55bf
00000010: 064c 1cbf 41c8 58bf 29e4 83bf 6516 81bf
00000020: dbdb 78bf fd9a ffbe 7aaf b1be 6d7a c7be
00000030: 9b35 30bf ed41 3fbf 4c61 bfbf 3836 1cbf
00000040: b9b1 21bf 1e5d 1cbf

exp_avg f4 [512, 4]
5.2964373e-05 4.5817353e-05 -5.575596e-05 -4.3025735e-05 3.2964774e-05 1.8610419e-05 -2.9572655e-05 -2.2002554e-05
3.1258576e-05 -4.0144598e-05 9.885579e-06 -9.995563e-07 3.6342478e-06 -1.1049e-05 -2.5877493e-05 3.3292232e-05
-1.1821699e-05 -4.9919895e-06 2.233026e-05 -5.516565e-06 7.0318138e-06 5.79852e-06 7.140698e-06 -1.9971025e-05
3.7659047e-06 1.7111684e-05 -3.092058e-06 -1.778553e-05 -4.2136376e-06 1.4544764e-05 -6.681098e-06 -3.6500205e-06
-1.1891481e-05 -1.5058894e-06 1.1777125e-05 1.6202416e-06 6.2441572e-06 -5.4974803e-06 3.322791e-06 -4.0694636e-06
-4.1362136e-06 -3.445515e-06 1.1106958e-06 6.471034e-06 -7.252697e-08 -1.6304295e-05 -5.2157707e-06 2.1592592e-05
1.8653009e-05 1.2945945e-05 -2.2109567e-05 -9.4893885e-06 6.8105514e-06 -2.116347e-05 -4.4093026e-06 1.876221e-05
1.0868715e-05 -3.135437e-06 -1.9087198e-05 1.1353907e-05 -1.3290017e-05 -4.029216e-07 5.7480747e-06 7.944863e-06
-1.34367165e-05 4.655566e-06 1.30588605e-05 -4.277709e-06 -8.370049e-06 -1.1155244e-05 1.5034942e-05 4.4903445e-06
-2.6318212e-06 4.915728e-06 -4.379178e-06 2.0952757e-06 -9.834002e-06 1.4444352e-05 -4.5022512e-07 -4.1601256e-06
-6.076252e-07 -1.4545487e-05 -1.34451075e-05 2.8598217e-05 -3.3458844e-06 2.4526338e-05 -9.104575e-06 -1.2075876e-05
-3.3333133e-06 2.653535e-06 -8.046851e-06 8.726637e-06 -4.986355e-06 2.169488e-06 6.463063e-06 -3.6461915e-06
4.8008155e-06 -4.237623e-06 -3.5149237e-06 2.9517334e-06 -7.892307e-06 5.335193e-06 4.692832e-06 -2.1357139e-06
-6.8543625e-07 -6.2378235e-06 1.0535229e-05 -3.6119743e-06 1.7690342e-06 -8.2746266e-07 8.395994e-06 -9.337558e-06
3.4913596e-06 -8.598856e-06 3.8177836e-06 1.2897115e-06 -4.908122e-06 7.584876e-06 -3.9605125e-06 1.2837573e-06
1.7654755e-06 -1.0440399e-05 -2.3041864e-06 1.0979105e-05 -2.2100241e-06 -3.9541582e-08 1.4293321e-06 8.2023206e-07
-7.58161e-06 -6.3976154e-07 -2.2001652e-06 1.0421535e-05 -5.864955e-06 4.1982594e-06 2.161619e-06 -4.9492536e-07
3.9363645e-06 -6.357294e-07 -1.079221e-05 7.4915724e-06 -6.4270516e-06 -4.194662e-06 -1.3389006e-06 1.1960615e-05
-6.1326664e-06 6.0362763e-06 3.4642633e-06 -3.3678687e-06 4.2440033e-06 -1.991191e-06 -4.062511e-06 1.8096977e-06
3.0350104e-06 -2.5592465e-06 -1.2540349e-05 1.2064586e-05 4.1142118e-07 1.4229935e-05 -4.6563264e-06 -9.98503e-06
-2.7568656e-06 4.6922087e-06 1.332245e-06 -3.2675887e-06 5.8353066e-06 3.1964535e-06 -8.3707555e-06 -6.6100216e-07
1.5524536e-06 -2.4522433e-06 3.0157628e-06 -2.1159728e-06 -6.681751e-06 4.231238e-06 6.035448e-06 -3.5849382e-06
2.3190262e-06 -1.790906e-06 -2.877665e-06 2.3495422e-06 2.551751e-06 -8.412686e-07 6.124461e-07 -2.3229288e-06
-8.236731e-06 -9.885147e-06 7.3894466e-06 1.0732432e-05 -1.1571992e-05 6.7179353e-06 -7.76491e-06 1.2618971e-05
-5.661517e-06 4.509596e-06 -2.255318e-06 3.407238e-06 -1.6513696e-06 4.5511733e-06 -8.030264e-07 -2.096779e-06
2.1200558e-06 1.8501361e-06 -3.9418587e-06 -2.833353e-08 -3.5457722e-06 -3.8095686e-07 3.030466e-06 8.962639e-07
4.997554e-06 3.8013509e-06 3.910871e-06 -1.2709773e-05 7.6292968e-06 4.5505598e-07 -1.2485628e-05 4.401269e-06
-9.5241614e-07 -4.341003e-06 5.911463e-06 -6.1804366e-07 -1.109793e-05 3.3749434e-06 8.506298e-06 -7.83312e-07
-6.2833187e-06 1.3013307e-07 2.7533601e-06 3.399824e-06 4.6506484e-06 -5.6283284e-06 1.1177042e-06 -1.4002835e-07
-1.1173131e-06 -1.6685546e-07 4.8721845e-06 -3.5880169e-06 6.7665046e-06 -5.988484e-06 4.441529e-06 -5.219545e-06
-1.7008314e-06 -3.5969654e-06 9.097614e-06 -3.799814e-06 -1.3787007e-07 -2.8993734e-06 4.7503654e-06 -1.7131207e-06
-4.135212e-06 5.094495e-06 7.1421704e-07 -1.6735023e-06 -9.0910186e-07 6.217242e-06 -2.8665113e-06 -2.4416267e-06
00000000: 1026 5e38 022c 4038 82db 69b8 8876 34b8
00000010: a843 0a38 921d 9c37 cb12 f8b7 2092 b8b7
00000020: a41b 0338 ef60 28b8 3dda 2537 7e28 86b5
00000030: e7e3 7336 185f 39b7 7e13 d9b7 43a3 0b38
00000040: d055 46b7 dd80 a7b6 de51 bb37 ef1a b9b6
00000050: d2f2 eb36 e890 c236 219a ef36 7387 a7b7
00000060: c0b9 7c36 108b 8f37 2781 4fb6 2332 95b7
00000070: df62 8db6 4905 7437 322e e0b6 e0f2 74b6
00000080: 8681 47b7 f71d cab5 5e96 4537 1477 d935
00000090: e784 d136 ff76 b8b6 1dfd 5e36 6d8c 88b6
000000a0: cec9 8ab6 7f39 67b6 3813 9535 c221 d936
000000b0: 20c0 9bb3 35c5 88b7 2103 afb6 bd21 b537
000000c0: 0879 9c37 6932 5937 ef77 b9b7 9d34 1fb7
000000d0: 3186 e436 3588 b1b7 9ff3 93b6 8a63 9d37
000000e0: c758 3637 666a 52b6 721d a0b7 a97c 3e37
000000f0: 30f8 5eb7 1f51 d8b4 96df c036 ed4a 0537
00000100: 426e 61b7 0237 9c36 6117 5b37 3e89 8fb6
00000110: 166d 0cb7 6827 3bb7 963e 7c37 c4ab 9636
00000120: 589e 30b6 c8f1 a436 daf0 92b6 909c 0c36
00000130: b8fc 24b7 0556 7237 78b6 f1b4 3597 8bb6
00000140: b01b 23b5 6408 74b7 4c92 61b7 34e6 ef37
00000150: db89 60b6 e9bd cd37 dabf 18b7 7e99 4ab7
00000160: e3b1 5fb6 6213 3236 f600 07b7 9f68 1237
00000170: 7750 a7b6 8597 1136 4add d836 18b1 74b6
00000180: b116 a136 e830 8eb6 eee1 6bb6 6516 4636
00000190: 3369 04b7 f504 b336 1f77 9d36 4953 0fb6
000001a0: d2fe 37b5 7f4e d1b6 77c0 3037 3f65 72b6
000001b0: 8d6f ed35 cd1e 5eb5 85dc 0c37 82a8 1cb7
000001c0: 1a4d 6a36 ce43 10b7 831a 8036 261a ad35
000001d0: 72b0 a4b6 9781 fe36 8be4 84b6 914d ac35
000001e0: 47f5 ec35 2c29 2fb7 9fa1 1ab6 e632 3837
000001f0: ed4f 14b6 6ed4 29b3 7ad7 bf35 eb2d 5c35
00000200: 8965 feb6 14bc 2bb5 8da6 13b6 27d8 2e37
00000210: 94cb c4b6 c6de 8c36 5510 1136 03db 04b5
00000220: 1d15 8436 fea6 2ab5 3010 35b7 1e60 fb36
00000230: f4a7 d7b6 dfbf 8cb6 46b4 b3b5 73aa 4837
00000240: 34c7 cdb6 388b ca36 977b 6836 8b03 62b6
00000250: b667 8e36 67a0 05b6 b450 88b6 bde4 f235
00000260: 15ad 4b36 85bf 2bb6 6464 52b7 0169 4a37
00000270: 4ce1 dc34 1bbd 6e37 8a3d 9cb6 6185 27b7
00000280: 9702 39b6 c471 9d36 97cf b235 bf48 5bb6
00000290: e7cc c336 a782 5636 1f70 0cb7 b96f 31b5
000002a0: e65d d035 3891 24b6 6962 4a36 2300 0eb6
000002b0: ce33 e0b6 0ffa 8d36 1b84 ca36 c594 70b6
000002c0: 91a0 1b36 105f f0b5 e91d 41b6 d4ac 1d36
000002d0: c03e 2b36 8ad3 61b5 fa66 2435 9de3 1bb6
000002e0: 7e30 0ab7 62d8 25b7 ddf2 f736 720f 3437
000002f0: 5425 42b7 a06a e136 0946 02b7 11b6 5337
00000300: 10f8 bdb6 2251 9736 115a 17b6 e7a7 6436
00000310: a1a4 ddb5 48b6 9836 8e8f 57b5 64b6 0cb6
00000320: 4846 0e36 3152 f835 4f44 84b6 1762 f3b2
00000330: e7f3 6db6 5086 ccb4 025f 4b36 c996 7035
00000340: a9b0 a736 b61a 7f36 203a 8336 0f3c 55b7
00000350: 29ff ff36 6b4e f434 5d79 51b7 9dae 9336
00000360: 8aa9 7fb5 efa8 91b6 155b c636 a3e7 25b5
00000370: 3f31 3ab7 167d 6236 46b6 0e37 ca44 52b5
00000380: 4cd5 d2b6 b5ba 0b34 5ec6 3836 8828 6436
00000390: c40c 9c36 f9da bcb6 0604 9635 b35a 16b4
000003a0: 96f6 95b5 e128 33b4 bf7b a336 a9c9 70b6
000003b0: d50b e336 b0f0 c8b6 7208 9536 8d23 afb6
000003c0: 1f48 e4b5 6563 71b6 f4a1 1837 4f00 7fb6
000003d0: 7009 14b4 db92 42b6 5465 9f36 61ee e5b5
000003e0: 33c1 8ab6 61f1 aa36 9fb8 3f35 1a9d e0b5
000003f0: 0109 74b5 b49d d036 4a5e 40b6 d4da 23b6

exp_avg_sq f4 [512, 4]
2.7124118e-08 8.4905956e-08 9.302015e-08 9.988283e-08 1.479259e-08 9.798758e-09 1.2078427e-08 1.8717975e-08
1.0938277e-08 8.92012e-09 1.1684601e-08 1.2851168e-08 9.190173e-09 1.0193599e-08 1.02169455e-08 1.4430419e-08
5.75272e-09 5.4645e-09 5.3423563e-09 6.0191536e-09 3.994612e-09 4.5185895e-09 4.430869e-09 5.3444666e-09
2.219891e-09 3.0083653e-09 2.6847249e-09 3.3728385e-09 3.284765e-09 2.1636448e-09 3.2037761e-09 3.4230625e-09
3.486824e-09 3.6731846e-09 3.7516843e-09 5.022799e-09 2.1007633e-09 2.3294795e-09 2.1669195e-09 2.9867133e-09
2.1559383e-09 2.8780913e-09 2.323347e-09 3.0488956e-09 2.53964e-09 1.9573543e-09 2.0417197e-09 2.833328e-09
2.0154445e-09 1.7387002e-09 1.994032e-09 2.3433775e-09 1.6091268e-09 1.9075332e-09 1.8207471e-09 2.362985e-09
1.447224e-09 1.7951487e-09 1.6975378e-09 2.1391826e-09 1.5703598e-09 1.4118727e-09 1.4914789e-09 1.8868271e-09
1.3904019e-09 1.3195159e-09 1.4891989e-09 1.9073005e-09 1.2953052e-09 1.3488801e-09 1.5026501e-09 1.7656688e-09
1.0109001e-09 1.3216015e-09 1.31804e-09 1.440025e-09 1.1924943e-09 1.4179315e-09 1.3648299e-09 1.6460838e-09
9.870109e-10 1.3149359e-09 1.2291296e-09 1.4088318e-09 8.1251034e-10 1.4235291e-09 1.1509845e-09 1.3724037e-09
1.0125081e-09 1.0912913e-09 1.0948241e-09 1.390043e-09 9.716685e-10 8.773246e-10 1.0588823e-09 1.2355973e-09
7.7762463e-10 8.964142e-10 9.624678e-10 1.0658819e-09 8.8406527e-10 8.731903e-10 9.423652e-10 1.092463e-09
6.695554e-10 9.2488023e-10 7.9113355e-10 1.005476e-09 8.9327024e-10 8.6459445e-10 9.014901e-10 1.1291809e-09
8.1811685e-10 8.6988833e-10 9.954768e-10 1.0576248e-09 7.4066914e-10 8.4998947e-10 8.737133e-10 1.0351987e-09
6.3339006e-10 7.4204715e-10 7.5737416e-10 9.093984e-10 5.759958e-10 9.071436e-10 7.495518e-10 9.498632e-10
6.881567e-10 7.915266e-10 8.110461e-10 9.2977576e-10 5.583286e-10 6.8282585e-10 6.7427447e-10 8.288804e-10
5.117581e-10 7.832758e-10 7.108021e-10 8.138536e-10 6.331182e-10 5.649143e-10 6.773079e-10 7.4482204e-10
5.872822e-10 6.721068e-10 7.092628e-10 8.4073615e-10 5.3814725e-10 6.7980754e-10 6.2301864e-10 7.4473916e-10
5.7655414e-10 6.49618e-10 6.308537e-10 8.354122e-10 4.8551846e-10 5.7326305e-10 6.009069e-10 7.2089945e-10
5.038733e-10 6.592634e-10 6.6245504e-10 8.303807e-10 4.8552645e-10 5.5252947e-10 5.430166e-10 6.427493e-10
5.25336e-10 5.336094e-10 5.825693e-10 6.538449e-10 4.7824406e-10 6.3260275e-10 5.416848e-10 7.1488304e-10
3.3167372e-10 6.536449e-10 5.3905386e-10 6.3614797e-10 3.6474632e-10 5.9693517e-10 5.194297e-10 5.981774e-10
3.5262235e-10 5.494703e-10 4.6863946e-10 6.000735e-10 3.575178e-10 5.3398697e-10 4.93224e-10 5.466856e-10
3.5675737e-10 5.1016685e-10 4.356668e-10 5.534488e-10 3.6419467e-10 4.5073298e-10 4.381311e-10 5.379821e-10
2.9583025e-10 5.105002e-10 4.4220042e-10 5.422468e-10 3.2365927e-10 5.2505383e-10 4.4563034e-10 5.48127e-10
2.6458766e-10 5.11528e-10 4.181772e-10 5.223324e-10 3.052638e-10 4.0161277e-10 4.1502374e-10 4.593163e-10
3.1072234e-10 3.9790918e-10 4.3453208e-10 4.6070778e-10 2.772783e-10 4.658952e-10 3.9795267e-10 4.4859536e-10
3.295451e-10 3.8094536e-10 3.8782366e-10 4.49656e-10 2.5470445e-10 3.9207296e-10 3.6792802e-10 4.0850073e-10
2.5232863e-10 4.1395906e-10 3.8198253e-10 4.68999e-10 2.658651e-10 3.655458e-10 3.7548384e-10 4.2126955e-10
3.045997e-10 3.5546266e-10 3.524532e-10 4.3791237e-10 1.9587905e-10 4.3674353e-10 3.7170902e-10 4.30505e-10
2.7001948e-10 3.6242828e-10 3.463467e-10 3.9448372e-10 2.863198e-10 3.5948053e-10 3.740175e-10 4.2302417e-10
00000000: 91fe e832 8b55 b633 5ec2 c733 2b7f d633
00000010: 8022 7e32 6557 2832 7c81 4f32 43c9 a032
00000020: 0deb 3b32 1a3f 1932 6bbd 4832 09c8 5c32
00000030: cfe2 1d32 ec1f 2f32 9a86 2f32 a7e9 7732
00000040: 76a9 c531 40c2 bb31 dd8f b731 09d1 ce31
00000050: fb40 8931 ef41 9b31 563e 9831 6da2 b731
00000060: bc8c 1831 b9bb 4e31 2e7e 3831 9ac7 6731
00000070: 32ba 6131 3eaf 1431 6d29 5c31 273b 6b31
00000080: db9c 6f31 596b 7c31 2ae8 8031 0295 ac31
00000090: 055d 1031 a314 2031 dae8 1431 d13e 4d31
000000a0: ab27 1431 ebc7 4531 c1a8 1f31 bd84 5131
000000b0: d285 2e31 2482 0631 504e 0c31 6fb4 4231
000000c0: 1380 0a31 13f7 ee30 6207 0931 2209 2131
000000d0: 1e28 dd30 ae15 0331 d83d fa30 1262 2231
000000e0: abe7 c630 2eb9 f630 cd4e e930 e600 1331
000000f0: 20d4 d730 db0b c230 c0fc cc30 6aa9 0131
00000100: 6b18 bf30 575a b530 87ac cc30 9611 0331
00000110: 8006 b230 8063 b930 cd85 ce30 f3ab f230
00000120: e3ef 8a30 b8a3 b530 6926 b530 60ea c530
00000130: 2ae5 a330 08e1 c230 af94 bb30 6d3c e230
00000140: 5ca7 8730 32b9 b430 27ee a830 dda0 c130
00000150: 5557 5f30 faa5 c330 ab30 9e30 2a9f bc30
00000160: 7628 8b30 66fc 9530 b378 9630 ca0b bf30
00000170: 8c8b 8530 3b28 7130 1c88 9130 b7d1 a930
00000180: 78c0 5530 8b67 7630 d347 8430 637e 9230
00000190: 9002 7330 4e05 7030 8784 8130 a025 9630
000001a0: c60b 3830 a93a 7e30 1377 5930 0b31 8a30
000001b0: 4e8a 7530 6da8 6d30 bacc 7730 8531 9b30
000001c0: dbe1 6030 f31c 6f30 3ad1 8830 dd5b 9130
000001d0: f597 4b30 b1a4 6930 1c2a 7030 d146 8e30
000001e0: dd1a 2e30 edf8 4b30 782f 5030 39f9 7930
000001f0: 1a54 1e30 8e5a 7930 0509 4e30 578c 8230
00000200: b928 3d30 bc92 5930 4cf0 5e30 2793 7f30
00000210: e278 1930 99b1 3b30 d957 3930 46d7 6330
00000220: c6ab 0c30 224e 5730 4062 4330 dbb5 5f30
00000230: bc07 2e30 4f48 1b30 4e2d 3a30 31bc 4c30
00000240: 506e 2130 50bf 3830 eff5 4230 8c19 6730
00000250: bfec 1330 34dd 3a30 0a41 2b30 5cb6 4c30
00000260: 647b 1e30 ce90 3230 6268 2d30 e8a2 6530
00000270: 5375 0530 cd93 1d30 102d 2530 ca28 4630
00000280: ee80 0a30 8a37 3530 2118 3630 d940 6430
00000290: e375 0530 cee0 1730 6543 1530 76ad 3030
000002a0: 3c67 1030 6cad 1230 ac22 2030 3fba 3330
000002b0: 6f75 0330 76e3 2d30 aee5 1430 6c81 4430
000002c0: ed56 b62f 2cac 3330 8b2c 1430 efdc 2e30
000002d0: 7b85 c82f 9415 2430 9ec7 0e30 fe6c 2430
000002e0: 2fdb c12f 8909 1730 92d1 0030 6bf2 2430
000002f0: 288c c42f fec7 1230 8e93 0730 9445 1630
00000300: 2321 c42f cd3b 0c30 a782 ef2f 7f21 1830
00000310: d837 c82f 07cb f72f 78dd f02f 20e1 1330
00000320: 68a2 a22f 4253 0c30 2d1a f32f 3a0d 1530
00000330: feee b12f 6153 1030 e5fc f42f 02ab 1630
00000340: 6775 912f 959b 0c30 35e5 e52f e093 0f30
00000350: 0fd2 a72f f9c9 dc2f 6629 e42f 0683 fc2f
00000360: 48d2 aa2f bdc0 da2f f4e2 ee2f db46 fd2f
00000370: 746f 982f 7610 0030 dcc6 da2f 2f9e f62f
00000380: 5a2b b52f 4b6d d12f 5435 d52f 7533 f72f
00000390: 7706 8c2f 5d8b d72f 4445 ca2f 5e93 e02f
000003a0: 19b8 8a2f 8f93 e32f 43ff d12f dfea 0030
000003b0: 3029 922f fff5 c82f a76c ce2f 6b98 e72f
000003c0: 9974 a72f ec6a c32f 61c3 c12f b0be f02f
000003d0: 0d5f 572f 301a f02f 6559 cc2f 31ac ec2f
000003e0: dd71 942f 3f3f c72f f767 be2f a6de d82f
000003f0: ee67 9d2f 63a0 c52f 499e cd2f 5c8f e82f
