TemporalContextAggregation/models/TCA_T25_K8/model.pth.tar (torch, 989355 bytes, 18 tensors)

pool_layer_before.clusters f4 [512, 4]
3.294058 3.4423862 -1.2836188 -3.8386278 2.2946727 -2.3261292 -0.036403645 0.31255835
1.3266497 -0.69445395 1.01481 -1.7483394 2.3587272 -1.526855 -0.13751024 -0.3415496
0.7783454 1.5913596 -2.1168911 0.40232265 0.0057566506 -0.031102045 -0.39251557 0.5061813
-0.8268803 -0.3919739 -1.1296959 2.1809592 0.3567795 -0.836245 0.40140134 0.13667639
1.7193972 -0.12525634 0.43600184 -2.1211586 -0.049761638 -0.6590678 1.8787892 -1.4546307
-1.4435022 0.8283746 0.71349347 -0.28873128 -1.8640538 1.2187586 -2.0578897 3.1340096
-1.1444538 -1.0034206 -0.38468975 2.4953187 0.71303153 -0.41617537 -0.090289816 -0.17372096
-0.06060774 -0.14415668 1.5669314 -1.3225217 -0.023943521 -0.36007097 -0.9532428 1.41649
0.98132455 2.0772955 -0.32613817 -2.4991133 0.34904227 -2.0685997 1.7141783 -0.39646003
1.1765379 -3.5364242 1.0471075 0.9980602 -1.2156419 1.3341463 0.5172582 -0.5864449
-1.1377519 1.482606 -0.9131107 0.7206045 0.14827387 -0.44121373 -1.1941698 1.7277098
-1.5461131 1.4773704 -0.35252163 0.20546961 -2.4532974 4.2076797 -1.2997907 -0.49693125
-0.07478076 1.10237 -0.79138726 0.06811681 -0.33891493 -0.8793866 0.05830267 0.9752426
0.044662707 -2.028909 0.9196717 0.86033803 0.5423998 0.7334345 -0.95092326 -0.10226281
0.46669668 -0.8519019 1.1091013 -1.0096459 -1.7388257 2.3071506 -1.779375 1.4734315
-1.2424974 -0.89809245 0.52486175 1.2528776 -2.354038 0.5826091 1.2470912 0.14398494
0.72813976 -0.026648467 -0.8482917 0.41789362 1.6519948 2.1894417 -0.9669224 -2.1696835
-0.86644226 0.35471076 0.0030219962 0.19293791 -0.35909763 -0.9330096 0.28368104 0.8524833
0.16071028 1.3536398 1.0273765 -2.5358794 -1.0519245 -0.5776684 -0.68592775 2.2304325
2.545147 0.23548897 -0.42755878 -2.0863466 -0.64323807 1.4339672 -0.18641268 -0.519722
1.9144902 -3.2191138 1.3959781 -0.374081 0.17920525 1.8825788 -1.7279326 0.09950575
0.08565749 1.5622874 -1.3655567 0.080690965 -1.7824081 0.85634696 0.054504447 0.5271452
-3.715561 0.7847094 0.39474136 1.5495646 -0.71146476 -0.10193667 0.6375726 -0.03698999
-3.1767466 -2.2683828 1.9375527 2.2594364 1.3620907 -1.297652 -0.050475687 0.017183091
-0.9293343 -0.09143834 0.6936654 0.120656125 -0.6438635 0.031978257 -0.4510137 1.1033063
-0.46999723 0.25298673 -1.4652082 1.8255962 2.0810194 -1.0485822 -1.927382 1.4201014
-0.7305157 1.181513 -1.7385672 1.5701251 1.4729992 -0.97930044 -1.3872868 1.2280201
-1.4596826 2.1981602 -0.52357674 -0.041667394 -2.890562 0.61598057 0.5796097 0.9933566
0.021006843 1.2782584 0.61629546 -1.9032477 0.35728973 -0.78950346 -0.64555264 1.1030005
2.0253985 -1.9749087 0.16472928 0.05137469 -2.2206476 -0.7277231 0.87644553 1.4097849
-0.022724127 1.1574728 -0.075675786 -1.1598052 -0.7370199 -0.62048894 0.28811052 0.786709
-0.397436 -1.6570048 -0.07985417 1.9346532 -2.1449964 0.06495186 0.73991793 1.0084969
00000000: d9d1 5240 0e50 5c40 9f4d a4bf 14ac 75c0
00000010: ebdb 1240 4ddf 14c0 fd1b 15bd a607 a03e
00000020: a8cf a93f bcc7 31bf 4be5 813f 96c9 dfbf
00000030: 63f5 1640 fc6f c3bf 7ccf 0cbe 97df aebe
00000040: a541 473f acb1 cb3f 257b 07c0 3cfd cd3e
00000050: 49a2 bc3b b7c9 febc cdf7 c8be 1995 013f
00000060: 6dae 53bf ceb0 c8be e099 90bf d694 0b40
00000070: cdab b63e 2714 56bf 7a84 cd3e e5f4 0b3e
00000080: 3515 dc3f 3343 00be a23b df3e 10c1 07c0
00000090: dcd2 4bbd abb8 28bf 2a7c f03f 5731 babf
000000a0: aec4 b8bf 5c10 543f 82a7 363f 96d4 93be
000000b0: 5199 eebf 4800 9c3f 77b4 03c0 9d93 4840
000000c0: 767d 92bf 1670 80bf 0ef6 c4be 4db3 1f40
000000d0: 3c89 363f f014 d5be dee9 b8bd e8e3 31be
000000e0: d23f 78bd cf9d 13be 3591 c83f 6448 a9bf
000000f0: 3425 c4bc 395b b8be b807 74bf 8b4f b53f
00000100: 1638 7b3f 69f2 0440 95fb a6be 79f1 1fc0
00000110: abb5 b23e f063 04c0 326a db3f cffc cabe
00000120: cb98 963f c654 62c0 9e07 863f e080 7f3f
00000130: 279a 9bbf 4ec5 aa3f 096b 043f 4121 16bf
00000140: dba1 91bf 09c6 bd3f 9fc1 69bf 8979 383f
00000150: 1bd5 173e c4e6 e1be 8eda 98bf 9825 dd3f
00000160: 09e7 c5bf 791a bd3f b77d b4be a066 523e
00000170: d302 1dc0 50a5 8640 8b5f a6bf c66d febe
00000180: a826 99bd 761a 8d3f 5b98 4abf d380 8b3d
00000190: 4286 adbe 7b1f 61bf c8ce 6e3d 80a9 793f
000001a0: 3ef0 363d a5d9 01c0 9b6f 6b3f 1d3f 5c3f
000001b0: b7da 0a3f 5dc2 3b3f b56f 73bf 2a6f d1bd
000001c0: def2 ee3e 3e16 5abf 08f7 8d3f 143c 81bf
000001d0: d791 debf 5ba8 1340 8fc2 e3bf 6799 bc3f
000001e0: 280a 9fbf 63e9 65bf 575d 063f 4b5e a03f
000001f0: 8fa8 16c0 df25 153f afa0 9f3f ca70 133e
00000200: 5e67 3a3f e34d dabc a529 59bf 27f6 d53e
00000210: 9174 d33f d01f 0c40 3a88 77bf 18dc 0ac0
00000220: 29cf 5dbf a69c b53e af0c 463b 8491 453e
00000230: a5db b7be b8d9 6ebf a43e 913e 583c 5a3f
00000240: 3c91 243e 1244 ad3f 1381 833f d94b 22c0
00000250: 76a5 86bf 14e2 13bf f698 2fbf 68bf 0e40
00000260: b0e3 2240 0524 713e fce8 dabe b486 05c0
00000270: 40ab 24bf 3d8c b73f f7e2 3ebe 800c 05bf
00000280: 040e f53f f605 4ec0 69af b23f 8b87 bfbe
00000290: 9581 373e 58f8 f03f e52c ddbf acc9 cb3d
000002a0: 326d af3d 09f9 c73f 90ca aebf 4e41 a53d
000002b0: f325 e4bf 8e39 5b3f 0e40 5f3d fdf2 063f
000002c0: c0cb 6dc0 b7e2 483f 8a1b ca3e 2258 c63f
000002d0: 8e22 36bf 2cc4 d0bd f537 233f d182 17bd
000002e0: d14f 4bc0 2f2d 11c0 ba01 f83f 9b9a 1040
000002f0: fd58 ae3f 7619 a6bf 98bf 4ebd 8ec3 8c3c
00000300: dae8 6dbf 0644 bbbd 0e94 313f 8f1a f73d
00000310: 3dd4 24bf a2fb 023d 45eb e6be 2439 8d3f
00000320: 7aa3 f0be 7a87 813e f18b bbbf 23ad e93f
00000330: 6c2f 0540 f137 86bf 74b4 f6bf e2c5 b53f
00000340: 1403 3bbf d13b 973f 5f89 debf dcf9 c83f
00000350: 3d8b bc3f 6fb3 7abf 9d92 b1bf c32f 9d3f
00000360: e1d6 babf a8ae 0c40 2009 06bf 6eab 2abd
00000370: f8fe 38c0 e7b0 1d3f 4d61 143f 9e4c 7e3f
00000380: 8b16 ac3c f99d a33f 8ac5 1d3f 9f9d f3bf
00000390: aeee b63e e61c 4abf f042 25bf 1f2f 8d3f
000003a0: 21a0 0140 cfc9 fcbf cbae 283e 446e 523d
000003b0: 171f 0ec0 104c 3abf bc5e 603f d573 b43f
000003c0: f327 babc 1228 943f e8fb 9abd 7f74 94bf
000003d0: 56ad 3cbf 5dd8 1ebf 3983 933e c365 493f
000003e0: bb7c cbbe bc18 d4bf 958a a3bd b7a2 f73f
000003f0: 9f47 09c0 7b05 853d 436b 3d3f 6d16 813f

pool_layer_before.clusters2 f4 [1, 512, 4]
0.30211338 -0.58020484 -0.2851831 0.49117061 0.18692979 -0.031369925 0.044978052 0.020674687
0.13248552 -0.11174196 0.04764885 -0.12774386 0.10962791 -0.043385874 0.037101068 0.010213491
-0.05942349 -0.011151629 0.019157343 0.062302824 0.013745617 0.011415292 -0.002937517 -0.044353623
-0.014275381 -0.016232137 -0.019395078 0.025575245 0.011812606 0.025743881 -0.024304211 -0.01804741
0.036047015 0.019694595 0.0067818845 -0.049869195 0.01640724 0.0208887 -0.0039023736 -0.01612835
-0.025982253 -0.03411651 -0.019632708 -0.012463146 -0.020078273 -0.009333892 -0.015819686 0.010410352
-0.006227975 0.0053301356 -0.00372636 -0.02678181 0.0016104856 0.00041203626 -0.010083071 -0.0007220499
0.0034034913 0.011467185 0.01070269 -0.010016796 -0.0028485684 -0.00953087 -0.011061128 0.009309868
-0.0006465348 0.031014433 -0.022971762 -0.017460858 0.008061233 -0.0073816394 0.01369877 0.004933779
0.015917474 -0.02835989 -0.0016925088 0.008189004 -0.008504103 0.0026572656 -0.010689854 -0.004569201
0.0042452705 0.01436409 -0.0042253844 -0.0013867948 -0.012182782 -0.0032774871 0.0025822513 -0.0018808567
-0.011774445 -0.004160465 0.0014838084 -0.005451741 -0.016403204 0.03454812 -0.000438312 0.0032737278
-0.014875888 -0.0010813421 -0.0025517694 -0.0075757145 0.0013530903 -0.007886435 0.0041979 0.010189018
0.015447529 -0.0022764513 -0.002750005 0.015351771 0.009992726 0.010262728 -0.00037062017 0.017069237
0.009420633 -0.0024119215 -0.0030306617 0.006208062 -0.0045302017 0.0037538293 -0.0024154328 0.00037133033
-0.0024464396 0.004890924 -0.0014927998 -0.005259621 0.00055358896 0.01466307 0.0075388267 0.013413206
0.0025833831 0.010597212 0.002066558 0.0016980566 0.011147473 0.0030598284 -0.0071769026 -0.004943309
-0.005044098 -0.010438706 -0.0069056908 0.0020984914 0.0060821283 -0.004116422 -0.008625051 0.011581425
-0.009058598 0.016394744 0.0049587544 -0.027440652 -0.0010043253 -0.00071328407 -0.0045932285 -0.018005569
0.005572795 0.004223747 -0.00861343 0.0090194475 -0.0050730463 -0.006979561 0.004243898 -0.0076602767
0.021068735 -0.008080412 0.0020681785 0.007981487 0.003327194 -0.008820568 0.00025895244 -0.012128772
-0.0019291097 0.0012614413 0.0075101373 -0.013662056 0.0027494347 -0.0058985236 0.0050329813 0.011872775
-0.005464732 0.0061481916 0.0025180709 0.0055308756 -0.0038578724 0.005842955 0.004408425 -0.0076543437
-0.009817368 0.0010195394 0.004523207 0.007003416 0.0043328246 -0.012854115 -0.006242609 -0.0037840954
0.0040071546 -0.0074500516 0.010277335 -0.0065692603 0.00013649689 -0.0020027547 -0.00083601795 -0.019486563
-0.0059914053 0.00040999908 0.0020962327 -0.0127270995 0.00061707065 -0.0015144113 -0.012018178 0.010361008
-0.014129259 0.012531431 0.007028763 -0.0014959523 0.009627014 -0.010966954 -0.0046821446 0.008191811
-0.010841664 0.014404936 8.51249e-05 -0.005106179 -0.013379383 0.016222673 0.000261326 -0.0034389812
-0.009533999 0.0065496177 -0.0066998927 -0.016890418 0.0025910393 -0.008732456 0.0074023777 0.006453528
0.00088582304 -0.005690285 0.005943994 -0.0022155193 -0.0011673355 0.005724423 0.003214207 -0.002516019
-0.005212736 0.0082821315 -0.0024980805 0.0029992363 -0.007356015 0.011123943 -0.00070458517 -0.0021980677
0.008483365 -0.007833103 0.00020583537 0.017790565 -0.005631832 -0.0019078173 0.010692918 -0.009855069
00000000: 9bae 9a3e 4e88 14bf 8503 92be b77a fb3e
00000010: 866a 3f3e c07d 00bd e83a 383d f65d a93c
00000020: 49aa 073e f8d8 e4bd 712b 433d 49cf 02be
00000030: 9984 e03d 63b5 31bd 4af7 173d 7c56 273c
00000040: 0c66 73bd 52b5 36bc dcef 9c3c 3f31 7f3d
00000050: 4c35 613c 3407 3b3c 5b83 40bb 25ac 35bd
00000060: 4ae3 69bc 42f9 84bc 6de2 9ebc 2d83 d13c
00000070: a989 413c d5e4 d23c a019 c7bc 29d8 93bc
00000080: 09a6 133d 8f56 a13c 923a de3b a443 4cbd
00000090: 7a68 863c c71e ab3c f7be 7fbb 9a1f 84bc
000000a0: bcd8 d4bc c1bd 0bbd c6d4 a0bc 3932 4cbc
000000b0: 317b a4bc 2eed 18bc 4998 81bc 2e90 2a3c
000000c0: 0a14 ccbb 6ba8 ae3b f235 74bb 8765 dbbc
000000d0: ee16 d33a 9206 d839 7733 25bc f347 3dba
000000e0: 1c0d 5f3b dce0 3b3c 565a 2f3c 7d1d 24bc
000000f0: 0caf 3abb 5e27 1cbc bc39 35bc 6b88 183c
00000100: 377c 29ba fb11 fe3c 472f bcbc 130a 8fbc
00000110: 4313 043c aee1 f1bb ce70 603c 8aab a13b
00000120: 5d65 823c 0053 e8bc 2cd7 ddba 2c2b 063c
00000130: cb54 0bbc 8525 2e3b 7f24 2fbc 3cb9 95bb
00000140: e91b 8b3b 5c57 6b3c 1875 8abb 1dc5 b5ba
00000150: 4b9a 47bc 1ccb 56bb fd3a 293b 1487 f6ba
00000160: 9ae9 40bc 8354 88bb 597c c23a 85a4 b2bb
00000170: 0360 86bc 5482 0d3d 3ecd e5b9 0a8c 563b
00000180: ffb9 73bc d2bb 8dba 963b 27bb b33d f8bb
00000190: 2d5a b13a 1b36 01bc 8a8e 893b d7ef 263c
000001a0: a217 7d3c 8430 15bb 6e39 34bb ff85 7b3c
000001b0: 88b8 233c 0025 283c cc4f c2b9 c9d4 8b3c
000001c0: 0059 1a3c 5411 1ebb 119e 46bb 006d cb3b
000001d0: 1672 94bb ce02 763b 3d4c 1ebb 1daf c239
000001e0: 7254 20bb 0b44 a03b 0daa c3ba e658 acbb
000001f0: ba1e 113a 603d 703c 4308 f73b 10c3 5b3c
00000200: fa4d 293b ee9f 2d3c 176f 073b 5391 de3a
00000210: e4a3 363c 6787 483b 392c ebbb 7bfb a1bb
00000220: f648 a5bb 1b07 2bbc 2249 e2bb d886 093b
00000230: 974c c73b 0de3 86bb 1650 0dbc 04c0 3d3c
00000240: 846a 14bc 454e 863c 0c7d a23b 38cb e0bc
00000250: 91a3 83ba affb 3aba cb82 96bb 6a80 93bc
00000260: fe9b b63b 5c67 8a3b 581f 0dbc 4ec6 133c
00000270: cc3b a6bb cdb4 e4bb 6610 8b3b 0f03 fbbb
00000280: 5798 ac3c b463 04bc 478a 073b c8c4 023c
00000290: 0d0d 5a3b 2584 10bc 02c4 8739 c2b7 46bc
000002a0: 2eda fcba f256 a53a 9917 f63b d1d6 5fbc
000002b0: dc2f 343b 6748 c1bb b5eb a43b 0786 423c
000002c0: 7f11 b3bb c576 c93b 3806 253b 593c b53b
000002d0: 5cd4 7cbb 4276 bf3b 8d74 903b 4ad1 fabb
000002e0: 07d9 20bc 11a2 853a 6937 943b e97c e53b
000002f0: 5efa 8d3b 119a 52bc cd8e ccbb 96fe 77bb
00000300: 734e 833b 901f f4bb 4462 283c f342 d7bb
00000310: 9b20 0f39 a640 03bb 3728 5bba 49a2 9fbc
00000320: 8d53 c4bb 25f5 d639 f360 093b 5385 50bc
00000330: e9c2 213a 367f c6ba e4e7 44bc 38c1 293c
00000340: 687e 67bc a250 4d3c 8a51 e63b d413 c4ba
00000350: a0ba 1d3c bdae 33bc ad6c 99bb f236 063c
00000360: 3ca1 31bc ae02 6c3c 1585 b238 bc51 a7bb
00000370: 3335 5bbc 69e5 843c 9502 8939 8860 61bb
00000380: 7d34 1cbc 2d9e d63b c68a dbbb c65d 8abc
00000390: 6dce 293b 9312 0fbc a58f f23b 1e78 d33b
000003a0: 9436 683a 9275 babb d6c5 c23b 3f32 11bb
000003b0: 4801 99ba f193 bb3b 72a5 523b cbe3 24bb
000003c0: 99cf aabb c7b1 073c d6b6 23bb d68e 443b
000003d0: ba0a f1bb 3341 363c e9b3 38ba 750d 10bb
000003e0: d0fd 0a3c 6a56 00bc 83d5 5739 85bd 913c
000003f0: 3b8b b8bb ba0f faba 5931 2f3c 2877 21bc

pool_layer_after.clusters f4 [512, 4]
-1.7076331 -4.585365 7.0097437 -0.6006082 -1.3597283 1.6793088 -0.57818675 1.488325
0.05747278 -0.6191713 0.89519894 -0.4475073 -1.3304324 -0.65255886 0.19663897 2.5987797
-2.5535998 -0.84880334 3.27835 0.6677243 0.1031365 -1.0417839 0.12788728 0.6959693
-1.159568 0.69493693 -0.38068935 1.1510966 -0.04606441 1.5894772 -1.1140321 0.26894435
-1.1445731 -0.8515962 1.1163204 0.94920594 -0.19042023 -0.78060514 0.9140951 -0.10998089
1.6947643 0.11204294 1.1313078 -3.930167 -1.2071844 1.3285024 0.49004012 -0.64020085
0.39450133 0.392661 -0.65106887 -0.3724388 0.608771 0.50863826 -0.10309328 -1.3793174
1.7159195 -0.49318886 0.25411057 -2.5225224 -1.9037273 0.53868705 1.4132805 0.5569086
0.2585332 -0.27780396 -0.25881478 0.1851211 1.1138668 0.39578548 -2.8462799 1.5400125
-0.6916735 1.6202056 -3.0339854 2.9092228 0.64370394 -0.67611504 -0.43854812 0.17321397
-0.27751738 -1.1047713 -0.05604197 1.6752087 -1.3191668 -1.0045761 0.02957886 2.8289723
2.136156 0.44166017 -0.55011284 -2.6749287 0.6531376 -3.7733247 1.64114 0.50974524
-1.0082262 -1.8821244 1.1320429 1.7601358 0.14109962 0.6431426 -0.7310714 0.11021428
-0.83705056 0.5504275 0.5101636 -0.026747735 -0.5957776 1.5099463 0.34934947 -1.1998247
0.40355295 0.2535224 -0.11654833 -0.6383294 0.39417556 0.120642506 2.3443227 -3.569817
-0.70032275 1.5497969 -1.0202816 0.36348554 1.5221083 -0.6129394 -0.11166801 -1.233779
-2.2050087 0.19083647 2.809808 -0.19641668 0.39137492 -1.3060708 0.81429464 -0.17612499
0.22046663 1.1148471 -1.4506233 0.13340035 -1.0187733 2.6055796 0.51602393 -1.7850393
1.1033756 -2.145812 0.04052725 0.48173192 -1.1782211 1.5852602 2.2156787 -2.8673372
-0.2178614 -0.72137624 0.037795536 0.92856646 1.3627295 -0.74289376 0.20097545 -1.4186002
-1.1544741 2.7329566 -0.21012768 -0.65921813 -0.4514685 -0.27601543 1.960157 -1.7438504
-0.5101052 -1.2452738 1.8110198 -0.16149089 0.8142405 -0.07226998 -0.21983138 -0.8774028
2.137595 1.3838716 -1.8708388 -2.4141076 0.5366577 0.3647654 -0.07852281 -1.2144257
1.3414642 1.6299134 -1.0390693 -2.5188403 -2.5717356 1.0781406 0.20918667 2.0351803
0.56746465 -0.016326435 -1.0014894 0.44059733 0.728663 -1.0724106 1.4750524 -1.7762194
0.34982184 -1.5362314 0.6328551 0.2337109 -2.7820132 2.092047 0.80259925 0.85857403
-0.94470197 -0.2764517 -0.040045433 1.5046408 -0.7603839 2.132266 -0.12677781 -0.93038726
1.4870173 -2.2675388 0.43481824 -0.35377747 0.48754662 -0.94630545 -0.83368826 1.1885898
0.80248314 -1.4882226 0.10674177 0.22484156 0.019091519 -1.4105457 0.023729438 1.5314202
-2.2121048 0.7064025 -0.6921382 2.92984 0.12976095 2.141444 -0.16979662 -2.1712604
1.64936 -2.3753684 1.0830685 -0.94605625 -0.39711973 -0.78057003 -0.7070075 1.9126397
-1.3501192 1.5192661 0.18865958 0.068592556 2.7576544 -0.11424801 1.4027435 -5.176093
00000000: b993 dabf 4fbb 92c0 d24f e040 76c1 19bf
00000010: 940b aebf 97f3 d63f 0c04 14bf 6f81 be3f
00000020: 9468 6b3d 0382 1ebf c22b 653f ad1f e5be
00000030: 9c4b aabf 190e 27bf ba5b 493e 6852 2640
00000040: 2e6e 23c0 2d4b 59bf 7dd0 5140 fbef 2a3f
00000050: 3b39 d33d 2d59 85bf e2f4 023e 0b2b 323f
00000060: b96c 94bf 63e7 313f b7e9 c2be 2257 933f
00000070: 09ae 3cbd fd73 cb3f 9b98 8ebf 13b3 893e
00000080: 5f81 92bf 3502 5abf 96e3 8e3f 29ff 723f
00000090: 85fd 42be bdd5 47bf 2302 6a3f a93d e1bd
000000a0: 09ee d83f c576 e53d b2ce 903f db87 7bc0
000000b0: 0585 9abf 5e0c aa3f 8ae6 fa3e 34e4 23bf
000000c0: 14fc c93e dd0a c93e 73ac 26bf 4cb0 bebe
000000d0: 6bd8 1b3f 1e36 023f 9222 d3bd 798d b0bf
000000e0: 40a3 db3f 4083 fcbe c81a 823e 0271 21c0
000000f0: 56ad f3bf 65e7 093f 60e6 b43f 9091 0e3f
00000100: 775e 843e 523c 8ebe 5f83 84be 6390 3d3e
00000110: 3093 8e3f 65a4 ca3e 7329 36c0 211f c53f
00000120: 8411 31bf e662 cf3f d12c 42c0 b530 3a40
00000130: c8c9 243f e015 2dbf 6189 e0be 015f 313e
00000140: c216 8ebe 2569 8dbf 448c 65bd 3d6d d63f
00000150: 75da a8bf f395 80bf 5e4f f23c e20d 3540
00000160: c8b6 0840 4821 e23e 32d4 0cbf 0832 2bc0
00000170: 0734 273f 277e 71c0 e010 d23f aa7e 023f
00000180: 8e0d 81bf 74e9 f0bf c8e6 903f 214c e13f
00000190: 6b7c 103e fea4 243f 7f27 3bbf 06b8 e13d
000001a0: f248 56bf d1e8 0c3f 159a 023f 111e dbbc
000001b0: e184 18bf ec45 c13f efdd b23e db93 99bf
000001c0: 7e9e ce3e b0cd 813e e4b0 eebd 8e69 23bf
000001d0: 61d1 c93e 6b13 f73d 6209 1640 e277 64c0
000001e0: 5a48 33bf bf5f c63f 9698 82bf c71a ba3e
000001f0: 72d4 c23f 99e9 1cbf 33b2 e4bd 78ec 9dbf
00000200: dd1e 0dc0 a36a 433e e5d3 3340 7421 49be
00000210: 4b62 c83e 542d a7bf 9d75 503f 1c5a 34be
00000220: 01c2 613e 4fb3 8e3f 06ae b9bf 1a9a 083e
00000230: 2a67 82bf d1c1 2640 251a 043f 2b7c e4bf
00000240: 693b 8d3f fc54 09c0 e7ff 253d 91a5 f63e
00000250: f3cf 96bf cee9 ca3f aecd 0d40 7482 37c0
00000260: 0f17 5fbe 1dac 38bf 7ecf 1a3d 88b6 6d3f
00000270: ec6d ae3f 492e 3ebf 82cc 4d3e b194 b5bf
00000280: cfc5 93bf c3e8 2e40 b62b 57be 85c2 28bf
00000290: e126 e7be e551 8dbe 6de6 fa3f 7d36 dfbf
000002a0: 4196 02bf 2265 9fbf 7fcf e73f de5d 25be
000002b0: 1172 503f 4902 94bd 7a1b 61be 789d 60bf
000002c0: 5bce 0840 b422 b13f a577 efbf bd80 1ac0
000002d0: 6662 093f 88c2 ba3e 91d0 a0bd 4d72 9bbf
000002e0: 19b5 ab3f 01a1 d03f 3900 85bf ae34 21c0
000002f0: 5197 24c0 8300 8a3f 0835 563e 6540 0240
00000300: 5d45 113f 04bf 85bc ce30 80bf f995 e13e
00000310: a989 3a3f c044 89bf 84ce bc3f 285b e3bf
00000320: d91b b33e 3ba3 c4bf cb02 223f e951 6f3e
00000330: 810c 32c0 19e4 0540 2577 4d3f 82cb 5b3f
00000340: fdd7 71bf 148b 8dbe ae06 24bd 1298 c03f
00000350: 85a8 42bf 0c77 0840 0bd2 01be dc2d 6ebf
00000360: 9556 be3f 5b1f 11c0 7fa0 de3e 5222 b5be
00000370: b69f f93e 1341 72bf 986c 55bf b623 983f
00000380: 896f 4d3f 147e bebf 6e9b da3d de3c 663e
00000390: d165 9c3c c38c b4bf 3d64 c23c 9405 c43f
000003a0: 2093 0dc0 cbd6 343f f82f 31bf 8082 3b40
000003b0: 0ee0 043e 6b0d 0940 2adf 2dbe eef5 0ac0
000003c0: 3a1e d33f 0906 18c0 fda1 8a3f be30 72bf
000003d0: 4753 cbbe 70d3 47bf 72fe 34bf 61d1 f43f
000003e0: b5d0 acbf 5077 c23f fa2f 413e 417a 8c3d
000003f0: 697d 3040 dcfa e9bd 198d b33f 8ea2 a5c0

pool_layer_after.clusters2 f4 [1, 512, 4]
-0.38394925 0.5025686 0.3782922 -0.4573743 0.011644867 -0.004975625 0.010891792 0.04745435
-0.008899 -0.12951325 0.038666185 -0.04698769 0.014984295 -0.17329645 -7.974162e-05 0.046137854
-0.0071721915 0.039449766 -0.036827713 -0.015207386 -0.007844892 -0.06682298 0.119162254 0.008008221
-0.00939232 0.008284846 0.011618674 -0.004520145 -0.0055381046 -0.0069080265 0.0007301627 0.009342716
0.016590318 -0.0066676224 0.032085724 0.026960885 -0.035774257 -0.014159961 0.027406199 0.020119594
-0.03268349 -0.0076736 -0.027291788 -0.041737832 -0.019453157 0.0031169036 -0.019803835 -0.00946168
0.0025761537 -0.033737488 0.0019257698 -0.0056006126 -0.022852335 -0.0059064333 0.0021931005 -0.01223042
0.008283283 -0.014439331 0.0021446117 -0.014080725 -0.020486591 -0.004129686 -0.009724511 0.0008853419
-0.01174702 -0.0018532656 -0.006551157 -0.007086765 0.008173858 0.0005490754 -0.0057887146 0.0048332647
-0.0026752746 0.004207225 0.0060020033 0.010012507 -0.0054112854 0.0050033424 -0.03137553 -0.0049139685
-0.00953774 -0.011286934 0.000115198854 0.008758751 0.0022686683 -5.0828196e-05 -0.0007426206 0.005354304
0.012480011 -0.008210904 -0.01477373 -0.016864767 0.011623581 -0.0055715945 -0.0011126547 0.00087261724
0.0064113475 -0.0045639854 -0.0057679266 0.0026217103 -0.0002856702 -0.014997122 -0.012316524 -0.00067147217
-0.0030974238 0.0068063308 0.008757166 0.0048397486 0.007069447 0.010211828 0.019303584 -0.009220629
-0.009512517 0.0070297834 0.018017244 0.002670247 0.002653064 -0.014765924 0.007923947 -0.016663322
-0.007013703 0.00044817812 -0.008124363 0.0033453205 0.0030754446 0.016917946 -0.00033091215 0.003967431
-0.00010932946 -0.0023103661 0.0053083827 -0.009317466 -0.0027419243 0.012605883 0.00060348207 0.005905176
0.0026444825 0.0061412267 -0.0022372042 0.0067067374 -0.009918914 -0.010398273 -0.00041047242 -0.015694695
0.005896993 -0.014365959 -0.01111684 0.0015829077 -0.005153714 -0.006527034 0.005940881 -0.014438822
-0.006166509 0.012607718 0.016001774 0.0026328573 0.0007672553 0.0189362 -0.0066744043 0.00649714
-8.3419494e-05 0.01574922 0.0064708367 0.002534859 0.0019192944 -0.01789854 0.0076983157 -0.0056644753
0.0027269511 -0.018292246 -0.028925303 -0.0031356479 0.004071118 0.012875627 0.006454449 -0.004216721
0.0036944519 0.035846796 -0.008504121 -0.006802823 0.005841908 -0.013965933 -0.013210096 -0.008429176
0.0016905257 -0.004277328 -0.0023271143 -0.0058784774 -0.01757492 -0.009695809 0.01518661 0.00828042
0.007166055 -0.0100705335 0.006804281 -0.0077646743 0.0022623662 0.0036662505 0.0039918427 -0.0011912094
0.008226634 -0.007604754 -0.010072983 0.0052637034 -0.009521536 -0.0045835637 0.012745448 0.0030395284
0.0029588626 -0.013094787 -0.010542931 0.004504427 -0.010970316 0.0036106019 0.0063399505 -0.002896006
-0.001976998 -0.008497016 -0.014788525 0.0043174974 0.0033693337 -0.007971446 -0.009488547 0.009505699
-0.007258697 -0.008943148 -0.008913866 0.0066451053 0.01229448 0.0052015292 0.007857449 -0.0036179228
0.002443169 -0.0036886244 0.0023493215 0.004791756 0.0037361563 -0.0071458016 5.4927143e-05 0.00101495
-0.0067259492 0.0055354983 -0.009528744 -0.005675395 -0.0038666592 0.0031378584 -0.0097544 0.0070635597
0.0068104304 -0.013064987 0.008059596 -0.00386373 0.01369358 -0.001829078 0.00018279733 -0.005480893
00000000: ff94 c4be 56a8 003f 84af c13e f72c eabe
00000010: 1dca 3e3c 910a a3bb 7d73 323c 7e5f 423d
00000020: 1ccd 11bc 1f9f 04be 6f60 1e3d 2a76 40bd
00000030: b080 753c a074 31be f53a a7b8 0cfb 3c3d
00000040: b404 ebbb 1496 213d a8d8 16bd 6628 79bc
00000050: dd87 00bc 7dda 88bd 570b f43d ea34 033c
00000060: 3fe2 19bc 2abd 073c 405c 3e3c b91d 94bb
00000070: fd78 b5bb ba5c e2bb 6468 3f3a 3112 193c
00000080: 6be8 873c 127c dabb 526c 033d 13dd dc3c
00000090: 0788 12bd 2eff 67bc f782 e03c d9d1 a43c
000000a0: 20df 05bd d372 fbbb 0793 dfbc 4af5 2abd
000000b0: 3a5c 9fbc f744 4c3b a73b a2bc 2a05 1bbc
000000c0: b0d4 283b 5230 0abd 1d6a fc3a 5885 b7bb
000000d0: d234 bbbc c18a c1bb 1fba 0f3b 1962 48bc
000000e0: 9bb6 073c f292 6cbc 9d8c 0c3b d7b2 66bc
000000f0: 7fd3 a7bc 5152 87bb 8e53 1fbc 4a16 683a
00000100: 9376 40bc 46e9 f2ba 17ab d6bb 1838 e8bb
00000110: a5eb 053c d4ef 0f3a 42af bdbb 5d60 9e3b
00000120: a953 2fbb c3dc 893b 74ac c43b 800b 243c
00000130: 2751 b1bb 14f3 a33b a183 00bd 5b05 a1bb
00000140: 2e44 1cbc d5ec 38bc ea96 f138 dd80 0f3c
00000150: f0ad 143b 5c30 55b8 6dac 42ba 2873 af3b
00000160: f678 4c3c 0787 06bc 840d 72bc fb27 8abc
00000170: d570 3e3c ec91 b6bb 7fd6 91ba 5ac0 643a
00000180: 4816 d23b 7c8d 95bb e000 bdbb 00d1 2b3b
00000190: 01c6 95b9 7db6 75bc 3fcb 49bc bc05 30ba
000001a0: 26fe 4abb a407 df3b 377a 0f3c c196 9e3b
000001b0: d2a6 e73b 834f 273c 8d22 9e3c 1f12 17bc
000001c0: 63da 1bbc 195a e63b e698 933c 50ff 2e3b
000001d0: 07df 2d3b c6ec 71bc 71d3 013c 8581 88bc
000001e0: 35d3 e5bb 73f9 ea39 0c1c 05bc 2a3d 5b3b
000001f0: 668d 493b 8197 8a3c 477e adb9 3901 823b
00000200: cf47 e5b8 8369 17bb f1f1 ad3b 49a8 18bc
00000210: dbb1 33bb e888 4e3c ff32 1e3a 3580 c13b
00000220: 0e4f 2d3b 583c c93b 0f9e 12bb 31c4 db3b
00000230: f182 22bc 855d 2abc ad34 d7b9 2992 80bc
00000240: 903b c13b 335f 6bbc 6823 36bc 9279 cf3a
00000250: 7de0 a8bb bbe0 d5bb b9ab c23b cf90 6cbc
00000260: 6d10 cabb 9a90 4e3c 2716 833c 048c 2c3b
00000270: a221 493a 1720 9b3c f6b4 dabb f6e5 d43b
00000280: 80f1 aeb8 8204 813c 5009 d43b e11f 263b
00000290: d590 fb3a f59f 92bc 2742 fc3b 109d b9bb
000002a0: a6b6 323b 9fd9 95bc c2f4 ecbc 717f 4dbb
000002b0: 0367 853b 4bf4 523c d87f d33b 6b2c 8abb
000002c0: 9e1e 723b 17d4 123d de54 0bbc 37ea debb
000002d0: 7a6d bf3b 5ed1 64bc 296f 58bc 871a 0abc
000002e0: a194 dd3a d428 8cbb 8082 18bb 3ea0 c0bb
000002f0: 47f9 8fbc 2cdb 1ebc 42d1 783c 99aa 073c
00000300: 3ad1 ea3b e1fe 24bc 72f6 de3b cf6e febb
00000310: 3544 143b 7a45 703b 01ce 823b 5b22 9cba
00000320: 01c9 063c 4d31 f9bb 2709 25bc 257b ac3b
00000330: 3700 1cbc b831 96bb 49d2 503c d332 473b
00000340: 7ae9 413b 848b 56bc 42bc 2cbc df99 933b
00000350: d7bc 33bc d99f 6c3b 5cbf cf3b ebca 3dbb
00000360: 8690 01bb 1137 0bbc 924b 72bc cb79 8d3b
00000370: 0ad0 5c3b ab9a 02bc da75 1bbc cbbd 1b3c
00000380: 5dda edbb 4886 12bc 770b 12bc 2fbf d93b
00000390: c96e 493c 9771 aa3b 88bc 003c ac1a 6dbb
000003a0: 931d 203b d9bc 71bb 13f7 193b 2a04 9d3b
000003b0: 4dda 743b 5427 eabb 9261 6638 1208 853a
000003c0: 5a65 dcbb 2063 b53b 731e 1cbc aaf8 b9bb
000003d0: c767 7dbb 87a4 4d3b ebd0 1fbc 6f75 e73b
000003e0: 082a df3b 870e 56bc 650c 043c a236 7dbb
000003f0: 0a5b 603c acbd efba 49ad 3f39 1099 b3bb

fc.weight f4 [18, 4096]
0.03580785 -0.028724788 0.14627743 0.06644478 -0.15392213 -0.19027396 -0.23293969 0.14696853
-0.3444927 -0.3304818 -0.34644976 -0.34408784 -0.07456702 -0.108829014 -0.25345865 0.29330435
-0.03538441 0.09779973 0.3977787 1.2709115 0.11731076 0.16580765 -0.09751996 0.09591859
0.096396394 0.123993255 0.1136963 0.88173044 0.16532916 0.097474985 -0.08626396 -0.08188496
-0.017133279 -0.41058517 -0.23980297 -0.12275377 0.20016417 0.58454645 -0.15039337 -0.3274281
0.6207812 -0.20930019 0.69071513 -0.09927969 0.52082103 0.19840063 0.26865578 0.56848764
0.33653516 0.8693655 0.042627703 -0.036443938 -0.18640932 -0.22112702 0.026295332 -0.12696695
-0.00982632 1.064686 -0.13790195 -0.4832839 -0.09121362 -0.3107285 0.359162 0.44413897
0.26349157 0.3200629 0.4445768 0.04099415 -0.62278724 -0.3191504 -0.12098663 -0.01324111
-0.8865562 -0.5780743 -1.2836648 -0.9594908 -0.132651 -1.0179482 0.013412724 0.39745152
0.10415782 0.13816604 -0.124389395 0.7539707 0.20252703 0.07803623 1.2194183 1.0514454
0.6861949 0.49275428 0.95988476 0.41220978 0.17418563 -0.3105484 0.42461756 0.35810152
-0.15381154 0.09418285 0.84606755 1.1643783 -0.14163744 -0.71120536 -0.225836 0.1894496
-0.33414912 0.074120566 -0.76436615 -1.1655712 -0.20650344 -0.92554307 -0.89565635 -0.19517928
-0.28905562 0.4982015 -0.58349913 -0.30489653 0.6883686 -0.47642037 0.4297247 -1.0017245
0.12739013 -0.85062075 -0.91112274 0.7083336 -0.14274423 -1.0710037 0.44073218 -0.3896358
0.20912646 -0.1744768 -0.24066128 -0.2849176 -0.11986514 0.33765298 -0.15458633 -0.5414415
-0.23035948 -1.0522566 -1.3626864 -0.44574094 -0.43860817 -0.6650278 -0.8073528 -0.47151724
0.017514033 0.43486342 1.9067819 0.073373556 0.40304083 1.1272063 0.5509729 0.18209359
-0.25355506 0.25684872 -0.910333 -0.19642684 0.1833879 0.114453904 0.14952788 0.18405488
-0.6416156 0.32623002 -1.5232624 -1.4495536 1.2303363 0.63797224 0.42600358 1.1496714
1.3023953 1.1416543 1.177033 0.59444225 1.0164685 1.3655065 0.53712237 -0.9762674
0.52445817 -0.45162696 -0.48386627 0.1393957 0.7430622 -0.7283694 0.015486622 0.034942057
0.1343793 -0.5517927 -0.026859514 -1.1144264 0.029268477 0.8832327 -0.15151554 0.52508044
0.11239523 0.33287612 0.7288748 0.091865614 0.6765618 1.2716957 -0.0747469 -0.3354913
0.03076655 0.17489304 1.0322994 0.67369354 -1.2351508 -0.89632994 -1.0848732 -0.49839607
-0.1161207 -0.8239852 0.8908684 2.010446 0.24616954 0.33954942 -0.7821995 -1.2596769
0.079221964 -0.10263565 -0.18300079 1.2859933 -0.6316333 -1.302999 -0.48364094 1.1945835
-0.11195273 0.08069186 -0.42607793 0.16178949 0.8578636 1.1674099 1.2661257 -0.20755605
-0.8115622 0.25196627 0.28347072 0.3455893 -0.46435228 -1.0699708 -0.34168506 0.5447366
-0.07432548 -0.046294738 -0.5136259 -1.441361 -0.7252011 -1.1921827 0.28717083 1.1837634
-0.11611417 -0.71539676 -0.23038225 0.3234738 0.7389037 0.4933506 0.5925184 0.020823674
00000000: 41ab 123d 3f50 ebbc c0c9 153e 3314 883d
00000010: c39d 1dbe 2dd7 42be be87 6ebe eb7e 163e
00000020: 5961 b0be e934 a9be dd61 b1be 482c b0be
00000030: 98b6 98bd bfe1 debd 55c5 81be fd2b 963e
00000040: 3eef 10bd 3a4b c83d a6a9 cb3e 3aad a23f
00000050: a040 f03d 7bc9 293e 8bb8 c7bd f770 c43d
00000060: 796b c53d 2df0 fd3d 9bd9 e83d 16b9 613f
00000070: 0c4c 293e f7a0 c73d 29ab b0bd 4db3 a7bd
00000080: 175b 8cbc 3838 d2be e98e 75be 5466 fbbd
00000090: d6f7 4c3e d6a4 153f b800 1abe a8a4 a7be
000000a0: 84eb 1e3f ca52 56be b5d2 303f 2653 cbbd
000000b0: 8754 053f 8929 4b3e 408d 893e 6888 113f
000000c0: 564e ac3e bd8e 5e3f 639a 2e3d 3d46 15bd
000000d0: 16e2 3ebe 1f6f 62be 4f69 d73c a003 02be
000000e0: 93fe 20bc a147 883f 2b36 0dbe fd70 f7be
000000f0: 35ce babd ce17 9fbe 15e4 b73e 2f66 e33e
00000100: 5ee8 863e 49df a33e 929f e33e 7be9 273d
00000110: fc6e 1fbf ae67 a3be d7c7 f7bd 3ef1 58bc
00000120: 59f5 62bf adfc 13bf 214f a4bf 30a1 75bf
00000130: aad5 07be 204c 82bf 0bc1 5b3c c47e cb3e
00000140: b250 d53d 667b 0d3e debf febd 3904 413f
00000150: 3f63 4f3e 75d1 9f3d e615 9c3f c395 863f
00000160: 78aa 2f3f 4a4a fc3e 02bb 753f 290d d33e
00000170: b85d 323e 3300 9fbe 7967 d93e 1559 b73e
00000180: c680 1dbe f0e2 c03d e297 583f 590a 953f
00000190: 6809 11be 8e11 36bf 8d41 67be 13ff 413e
000001a0: 9815 abbe 86cc 973d 80ad 43bf 7031 95bf
000001b0: a375 53be 64f0 6cbf bc49 65bf 14dd 47be
000001c0: 19ff 93be 4414 ff3e 3360 15bf 661b 9cbe
000001d0: ed38 303f 5fed f3be e004 dc3e 8238 80bf
000001e0: 8f72 023e 48c2 59bf 573f 69bf 5a55 353f
000001f0: 8b2b 12be a616 89bf a6a7 e13e 587e c7be
00000200: 3f25 563e 0caa 32be e96f 76be b8e0 91be
00000210: db7b f5bd dae0 ac3e e14b 1ebe e99b 0abf
00000220: 5be3 6bbe 58b0 86bf 826c aebf 2838 e4be
00000230: 4091 e0be 433f 2abf acae 4ebf b56a f1be
00000240: 9779 8f3c 6ba6 de3e 6e11 f43f e044 963d
00000250: 5e5b ce3e 4c48 903f 8f0c 0d3f be76 3a3e
00000260: f8d1 81be ad81 833e 950b 69bf 1e24 49be
00000270: 0aca 3b3e cf66 ea3d d61d 193e e278 3c3e
00000280: ec40 24bf 9f07 a73e 43fa c2bf f98a b9bf
00000290: a97b 9d3f 2652 233f 241d da3e 6f28 933f
000002a0: e4b4 a63f ba21 923f 04a9 963f 5e2d 183f
000002b0: a41b 823f ebc8 ae3f da80 093f a9ec 79bf
000002c0: e442 063f a63b e7be 52bd f7be bfbd 0e3e
000002d0: 5339 3e3f 6b76 3abf 9abb 7d3c 671f 0f3d
000002e0: ba9a 093e 4942 0dbf 7c08 dcbc 86a5 8ebf
000002f0: 72c4 ef3c 8a1b 623f e426 1bbe ac6b 063f
00000300: 782f e63d bd6e aa3e 8a97 3a3f 0a24 bc3d
00000310: 2733 2d3f edc6 a23f e714 99bd 84c5 abbe
00000320: 220a fc3c 2917 333e 6322 843f 2e77 2c3f
00000330: 6c19 9ebf e175 65bf 20dd 8abf c52d ffbe
00000340: b1d0 edbd b2f0 52bf f40f 643f 26ab 0040
00000350: de13 7c3e 6cd9 ad3e 3a3e 48bf 183d a1bf
00000360: 203f a23d a432 d2bd 8f64 3bbe 6e9b a43f
00000370: b8b2 21bf acc8 a6bf c99f f7be 1de8 983f
00000380: 7947 e5bd c641 a53d e326 dabe 25ac 253e
00000390: f39c 5b3f b06d 953f 6810 a23f 9389 54be
000003a0: 8ac2 4fbf b901 813e 1323 913e 15f1 b03e
000003b0: 95bf edbe cef4 88bf 58f1 aebe dc73 0b3f
000003c0: f537 98bd 8d9f 3dbd fd7c 03bf 847e b8bf
000003d0: c7a6 39bf 7199 98bf 0e08 933e 8f85 973f
000003e0: 44cd edbd 3e24 37bf 53e9 6bbe 5c9e a53e
000003f0: cb28 3d3f 7398 fc3e 49af 173f 6996 aa3c

fc.bias f4 [18]
0.046470586 -0.6816032 -1.0834267 -0.8808584 -0.7227884 -0.9135248 -1.0099523 -1.0174986
-1.1086435 -0.26542318 -0.11006134 -0.6425515 -0.76194274 -0.7867075 -1.3429441 -0.73323315
-0.72674906 -0.63660586
00000000: f157 3e3d 8c7d 2ebf baad 8abf f07f 61bf
00000010: a908 39bf c3dc 69bf 1e46 81bf 653d 82bf
00000020: 08e8 8dbf 8ce5 87be d767 e1bd 417e 24bf
00000030: ae0e 43bf aa65 49bf 98e5 abbf 2bb5 3bbf
00000040: 3a0c 3abf 9af8 22bf

exp_avg f4 [512, 4]
5.440853e-05 0.00017528216 -0.0004096209 0.00017993014 3.554117e-05 3.4405206e-05 -4.057511e-05 -2.9371224e-05
1.3902743e-05 4.626891e-06 1.3251106e-05 -3.1780783e-05 7.2409166e-05 -3.5248482e-05 -3.9596463e-05 2.4357926e-06
-4.3637385e-05 -3.4500813e-06 1.8629884e-05 2.8457574e-05 -3.634282e-05 3.4673598e-05 1.3469973e-05 -1.1800773e-05
-6.753309e-06 2.2084683e-05 5.168055e-06 -2.0499429e-05 1.316181e-05 1.5210405e-06 -1.4291443e-05 -3.914028e-07
1.835746e-05 5.539309e-06 6.4555707e-06 -3.0352356e-05 8.94117e-06 -5.925795e-06 4.6565488e-06 -7.671924e-06
4.849566e-05 -5.943886e-06 -1.431568e-05 -2.8236114e-05 -6.3078473e-06 8.706429e-06 2.515318e-05 -2.755176e-05
-1.931303e-05 2.3400375e-05 -1.0707195e-05 6.6198345e-06 -4.975232e-07 -1.1056647e-05 2.0948151e-05 -9.393966e-06
-6.7236606e-06 -9.908312e-06 -2.5756957e-05 4.2388914e-05 -9.898661e-06 -1.3083309e-06 3.629217e-05 -2.5085174e-05
-4.648516e-06 -2.4001354e-05 4.123182e-06 2.4526684e-05 -2.6726208e-05 1.0760455e-05 7.0816677e-06 8.884084e-06
-2.3448194e-05 4.054556e-05 1.7792807e-05 -3.4890167e-05 -2.5512378e-05 8.475122e-06 3.4038578e-05 -1.7001308e-05
4.691551e-06 1.13317965e-05 -2.896767e-05 1.2944324e-05 1.7797962e-05 -1.3871046e-05 -1.4862271e-05 1.0935356e-05
1.3434307e-05 4.9910104e-06 -1.714814e-05 -1.27718e-06 -6.7355563e-06 -2.5693885e-06 1.0928694e-07 9.195641e-06
-4.5810625e-06 2.6082755e-06 1.4095755e-05 -1.2122965e-05 9.626291e-06 -6.7225606e-06 -6.3864454e-06 3.4827199e-06
1.5155412e-07 -2.065712e-05 5.706464e-06 1.4799103e-05 7.4634722e-06 -2.3515735e-05 1.3764803e-06 1.4675785e-05
-1.6948858e-05 -1.4291175e-05 2.074881e-05 1.0491229e-05 9.416058e-06 7.963717e-06 -7.2940647e-06 -1.0085707e-05
7.547807e-06 9.362407e-06 -9.096245e-06 -7.813969e-06 5.236881e-06 2.1083915e-05 -2.0640184e-05 -5.680609e-06
1.0597223e-05 -8.929876e-06 -1.431814e-05 1.2650791e-05 -6.247317e-06 4.8581805e-06 2.9512119e-06 -1.5620728e-06
-1.4744201e-06 1.2176307e-06 4.456931e-06 -4.2001525e-06 -5.1109873e-06 8.54775e-06 -1.142794e-05 7.991181e-06
1.2824947e-06 -1.3953716e-06 -3.7175446e-06 3.8304215e-06 -4.215933e-06 -1.1597912e-05 1.5512553e-05 3.0129013e-07
-2.2344742e-05 7.996327e-06 8.0278805e-06 6.320538e-06 -1.0717171e-06 1.9372512e-06 9.582344e-06 -1.0447873e-05
-9.1772085e-07 -1.584143e-06 3.0579063e-06 -5.560453e-07 -4.4454572e-07 -5.8818955e-06 1.2667073e-05 -6.3406333e-06
9.54053e-06 2.4365437e-07 -1.9404857e-05 9.620674e-06 -7.05514e-06 -8.311882e-06 9.16792e-06 6.199107e-06
-6.454689e-06 -3.201697e-06 1.5047329e-05 -5.3909394e-06 1.7847962e-05 1.0362209e-05 -1.00110665e-05 -1.8199098e-05
-2.1041006e-07 2.593028e-05 -3.0418933e-05 4.6990745e-06 -1.26350205e-05 -1.7627731e-06 5.853318e-06 8.544474e-06
-1.130719e-05 6.782921e-06 1.3199769e-05 -8.675497e-06 7.036756e-06 -1.0660589e-06 -3.4831965e-06 -2.4874969e-06
7.524546e-06 -5.4555444e-06 -1.0995608e-05 8.92661e-06 3.1131196e-06 8.564019e-06 -3.8038704e-06 -7.873258e-06
-2.3250875e-06 -5.2521796e-07 2.7579144e-06 9.238953e-08 -1.0169433e-06 -1.5164084e-05 1.07133665e-05 5.467666e-06
4.945373e-06 9.85514e-06 -2.07909e-05 5.990387e-06 5.435017e-07 4.2631705e-06 5.6929503e-06 -1.04996225e-05
1.4484286e-06 7.2831376e-06 -7.1470095e-06 -1.5845615e-06 4.0630744e-06 2.6518385e-06 -2.645035e-06 -4.0698815e-06
-7.134917e-06 -3.6363479e-06 9.872561e-06 8.987126e-07 2.5174897e-06 -1.6817756e-05 9.7855045e-06 4.514764e-06
7.007646e-06 -3.2459732e-06 -2.6352075e-06 -1.1264633e-06 -5.8799565e-06 1.1485061e-05 -1.0661019e-05 5.055913e-06
-1.0683414e-05 -5.758636e-06 1.0934937e-05 5.507116e-06 4.757376e-06 -7.876325e-08 3.8431003e-07 -5.062917e-06
00000000: b734 6438 f2cb 3739 63c2 d6b9 a1ab 3c39
00000010: 0a12 1538 4f4e 1038 312f 2ab8 3962 f6b7
00000020: d43f 6937 b140 9b36 1151 5e37 5b4c 05b8
00000030: 60da 9738 c5d7 13b8 6114 26b8 9976 2336
00000040: 4907 37b8 f287 67b6 5f47 9c37 2db8 ee37
00000050: ce6e 18b8 7e6e 1138 18fd 6137 effb 45b7
00000060: 7c9a e2b6 7f42 b937 4169 ad36 30f6 abb7
00000070: 8bd1 5c37 8e26 cc35 48c5 6fb7 fe21 d2b4
00000080: 58fe 9937 4dde b936 ee9c d836 309d feb7
00000090: 0802 1637 31d6 c6b6 733f 9c36 aab6 00b7
000000a0: d267 4b38 9871 c7b6 612d 70b7 98dc ecb7
000000b0: ffa7 d3b6 d411 1237 0b00 d337 f41e e7b7
000000c0: 6b02 a2b7 ec4b c437 0da3 33b7 f21f de36
000000d0: 898d 05b5 f07f 39b7 d0b9 af37 c79a 1db7
000000e0: ce9b e1b6 e03b 26b7 a510 d8b7 c0ca 3138
000000f0: 6d12 26b7 e899 afb5 6c38 1838 006e d2b7
00000100: 73fa 9bb6 8456 c9b7 dd59 8a36 a7be cd37
00000110: 1832 e0b7 cd87 3437 109f ed36 da0c 1537
00000120: 9db2 c4b7 770f 2a38 c341 9537 0857 12b8
00000130: 6a03 d6b7 5f30 0e37 a5c4 0e38 089e 8eb7
00000140: 1e6c 9d36 b21d 3e37 99ff f2b7 732b 5937
00000150: d54c 9537 b0b7 68b7 f858 79b7 ff76 3737
00000160: e963 6137 7478 a736 5ad9 8fb7 926b abb5
00000170: fd01 e2b6 c26d 2cb6 21b1 ea33 fa46 1a37
00000180: 07b7 99b6 d509 2f36 cf7c 6c37 bd63 4bb7
00000190: 9b80 2137 5b92 e1b6 264b d6b6 acb8 6936
000001a0: e1ba 2234 d448 adb7 277a bf36 aa49 7837
000001b0: bd6e fa36 a843 c5b7 81bf b835 0438 7637
000001c0: 652d 8eb7 21c4 6fb7 bb0d ae37 7c03 3037
000001d0: a9f9 1d37 e79b 0537 8abf f4b6 c835 29b7
000001e0: 2b43 fd36 3b13 1d37 139c 18b7 be18 03b7
000001f0: 77b8 af36 5ddd b037 7524 adb7 0f9c beb6
00000200: baca 3137 86d1 15b7 f137 70b7 bc3e 5437
00000210: 0ba0 d1b6 7403 a336 6f0d 4636 6aa8 d1b5
00000220: b0e4 c5b5 796d a335 bf8c 9536 09ef 8cb6
00000230: 0c7f abb6 4f68 0f37 a1ba 3fb7 dc11 0637
00000240: 2f22 ac35 9a48 bbb5 ee7a 79b6 1287 8036
00000250: 9776 8db6 a794 42b7 f420 8237 00c1 a134
00000260: f870 bbb7 f727 0637 7caf 0637 0215 d436
00000270: ebd7 8fb5 b901 0236 dbc3 2037 4649 2fb7
00000280: 4c59 76b5 bd9e d4b5 6e36 4d36 2443 15b5
00000290: e6a9 eeb4 195d c5b6 aa84 5437 a0c1 d4b6
000002a0: 4410 2037 9acf 8234 9dc7 a2b7 7b68 2137
000002b0: 31bb ecb6 4373 0bb7 ebcf 1937 ec01 d036
000002c0: 5b95 d8b6 bcdc 56b6 c973 7c37 d1e3 b4b6
000002d0: 35b8 9537 59d9 2d37 34f5 27b7 44aa 98b7
000002e0: 14ed 61b4 da84 d937 292c ffb7 beac 9d36
000002f0: 00fb 53b7 6c98 ecb5 9e67 c436 3d5a 0f37
00000300: 03b4 3db7 d998 e336 9374 5d37 fa8c 11b7
00000310: 461d ec36 8115 8fb5 dcc0 69b6 dfee 26b6
00000320: 5c7b fc36 c50e b7b6 c779 38b7 7fc3 1537
00000330: fdea 5036 2eae 0f37 ff45 7fb6 6317 04b7
00000340: b308 1cb6 b4fc 0cb5 9c14 3936 ae67 c633
00000350: e87d 88b5 3f69 7eb7 8fbd 3337 e576 b736
00000360: 6ef0 a536 8157 2537 1e68 aeb7 0801 c936
00000370: 27e5 1135 5b0c 8f36 1206 bf36 8927 30b7
00000380: a167 c235 ad61 f436 58d0 efb6 1ead d4b5
00000390: 8b55 8836 3df6 3136 5b81 31b6 0490 88b6
000003a0: 7868 efb6 fb07 74b6 54a2 2537 0f3f 7135
000003b0: 25f2 2836 db13 8db7 6c2c 2437 877d 9736
000003c0: 3923 eb36 65d5 59b6 85d8 30b6 fc30 97b5
000003d0: 714c c5b6 f6af 4037 badc 32b7 f6a5 a936
000003e0: ea3c 33b7 4e3a c1b6 3275 3737 c4c9 b836
000003f0: 8ca1 9f36 8e24 a9b3 2b53 ce34 20e2 a9b6

exp_avg_sq f4 [512, 4]
5.3932997e-08 1.9423418e-07 3.0418664e-07 1.6715424e-07 3.211561e-08 3.545388e-08 3.6060847e-08 1.7249429e-08
2.4251202e-08 2.8963136e-08 3.046682e-08 1.8592736e-08 2.3040537e-08 2.514227e-08 3.23857e-08 1.7280563e-08
1.3217494e-08 1.26425e-08 1.6393114e-08 1.1213345e-08 8.525731e-09 1.3049717e-08 1.3695411e-08 9.761163e-09
5.041347e-09 6.9894375e-09 8.232274e-09 6.694163e-09 7.2197035e-09 8.832202e-09 9.768187e-09 4.625826e-09
8.513104e-09 1.1162058e-08 1.1977872e-08 6.6906365e-09 4.6074495e-09 5.9796945e-09 7.0935613e-09 4.648731e-09
4.773724e-09 6.1651315e-09 7.894697e-09 5.5037845e-09 4.9342783e-09 5.4031437e-09 5.9519336e-09 4.0716244e-09
4.2679345e-09 5.355065e-09 5.933952e-09 3.6379475e-09 3.0998335e-09 4.419665e-09 5.0993556e-09 3.830888e-09
3.1609202e-09 4.8756728e-09 5.1940443e-09 3.7349266e-09 3.0449963e-09 3.8696912e-09 4.533214e-09 3.0919534e-09
2.849775e-09 4.363748e-09 4.3715906e-09 2.9192517e-09 2.8124665e-09 3.5564658e-09 4.033604e-09 2.9113851e-09
2.2888815e-09 3.5470513e-09 4.1378114e-09 2.939913e-09 2.42407e-09 3.5776644e-09 4.143666e-09 3.0594884e-09
2.0796684e-09 2.908571e-09 3.4657162e-09 2.6205649e-09 1.6730377e-09 3.1804044e-09 3.7869405e-09 2.9934681e-09
2.111478e-09 2.7756215e-09 3.0690401e-09 2.0665665e-09 1.9950621e-09 2.5220859e-09 3.06097e-09 1.8396571e-09
1.5984442e-09 2.3415552e-09 2.5960356e-09 1.8323059e-09 2.0073443e-09 2.3739317e-09 2.6490237e-09 1.568347e-09
1.5739584e-09 2.3899962e-09 2.5216849e-09 1.9325463e-09 1.9809583e-09 2.4053435e-09 2.7042384e-09 1.8614245e-09
1.8562314e-09 2.4501945e-09 2.8132938e-09 1.5750073e-09 1.4860129e-09 2.0786617e-09 2.3811388e-09 1.5401012e-09
1.3818913e-09 2.0654278e-09 2.3115596e-09 1.6283861e-09 1.1000244e-09 1.7138881e-09 2.164039e-09 1.7371089e-09
1.4440524e-09 1.920967e-09 2.1371147e-09 1.6235284e-09 1.1536367e-09 1.6577575e-09 1.9233504e-09 1.5349512e-09
1.079926e-09 1.8344596e-09 2.164696e-09 1.5906316e-09 1.4503481e-09 1.7320319e-09 1.9081627e-09 1.2314566e-09
1.2487437e-09 1.632977e-09 2.2322588e-09 1.3325184e-09 1.1520795e-09 1.4905259e-09 1.8059817e-09 1.399843e-09
1.238349e-09 1.5643282e-09 1.7636695e-09 1.1263426e-09 1.0648443e-09 1.5360276e-09 1.7525401e-09 1.2312021e-09
9.562818e-10 1.4822539e-09 1.7384302e-09 1.257364e-09 9.431634e-10 1.4747856e-09 1.5690537e-09 1.071034e-09
1.1043904e-09 1.6237508e-09 1.6385078e-09 1.0671878e-09 9.0522506e-10 1.370785e-09 1.5302196e-09 1.1592343e-09
7.570563e-10 1.2642115e-09 1.6338936e-09 1.3330079e-09 7.381863e-10 1.2672626e-09 1.4712149e-09 1.2973838e-09
6.896484e-10 1.1676817e-09 1.4159196e-09 1.035937e-09 7.6272055e-10 1.1969292e-09 1.3097902e-09 1.058389e-09
7.595602e-10 1.1229238e-09 1.2905286e-09 9.506197e-10 7.0566986e-10 1.2322692e-09 1.363317e-09 9.1188107e-10
6.153095e-10 1.0623601e-09 1.2854772e-09 1.0261342e-09 6.0668076e-10 1.1665715e-09 1.3186044e-09 1.0714478e-09
5.178919e-10 9.713232e-10 1.2913505e-09 1.0515946e-09 6.6605266e-10 9.403344e-10 1.1712895e-09 7.891001e-10
6.404595e-10 1.1189932e-09 1.2549831e-09 7.758845e-10 5.718962e-10 8.731396e-10 1.05313e-09 8.5881074e-10
7.24206e-10 9.0029706e-10 1.0700796e-09 7.326426e-10 4.9530324e-10 8.751693e-10 1.0357469e-09 8.608204e-10
5.448518e-10 9.727575e-10 1.0873431e-09 7.6635465e-10 6.251802e-10 9.785528e-10 1.0815328e-09 7.2276e-10
6.709111e-10 9.146913e-10 1.0628812e-09 7.597712e-10 4.177137e-10 9.008649e-10 1.058025e-09 9.084129e-10
5.692033e-10 8.0503393e-10 9.454829e-10 6.9241507e-10 5.9326527e-10 8.4451895e-10 1.0409492e-09 6.5318795e-10
00000000: f5a3 6733 af8e 5034 184f a334 027b 3334
00000010: 7def 0933 f445 1833 52e1 1a33 e52b 9432
00000020: f550 d032 9cca f832 9fda 0233 dcb5 9f32
00000030: adea c532 70f8 d732 7418 0b33 5c70 9432
00000040: 2713 6332 4e32 5932 d7d0 8c32 d0a4 4032
00000050: 9078 1232 4331 6032 0e49 6b32 0db2 2732
00000060: 2838 ad31 be27 f031 ed6d 0d32 7b02 e631
00000070: 2f11 f831 6fbc 1732 f1d0 2732 32f1 9e31
00000080: 0741 1232 40c3 3f32 3dc7 4d32 76e3 e531
00000090: 8e4f 9e31 f375 cd31 a0bb f331 acba 9f31
000000a0: 1f06 a431 12d5 d331 3fa1 0732 cd1b bd31
000000b0: 5f8a a931 8ea6 b931 c381 cc31 63e6 8b31
000000c0: 26a5 9231 a6ff b731 98e3 cb31 73ff 7931
000000d0: d904 5531 c9db 9731 6836 af31 d9a0 8331
000000e0: 7f37 5931 df86 a731 4c77 b231 c354 8031
000000f0: 2440 5131 2af6 8431 92c2 9b31 387a 5431
00000100: c6d5 4331 efef 9531 eb34 9631 059c 4831
00000110: 6f45 4131 0266 7431 f597 8a31 a111 4831
00000120: 6e4a 1d31 63c0 7331 932c 8e31 7f07 4a31
00000130: b194 2631 f0da 7531 1260 8e31 173f 5231
00000140: eae9 0e31 1fe0 4731 8629 6e31 7715 3431
00000150: c8f0 e530 448e 5a31 481e 8231 a6b5 4d31
00000160: 8419 1131 40bd 3e31 20e7 5231 6c03 0e31
00000170: 8119 0931 0151 2d31 2759 5231 2ed7 fc30
00000180: 41b0 db30 13e9 2031 f165 3231 88d4 fb30
00000190: 93f1 0931 a622 2331 1e0a 3631 4e8d d730
000001a0: bd52 d830 423d 2431 f349 2d31 b7cd 0431
000001b0: 6321 0831 404b 2531 77d5 3931 0dd5 ff30
000001c0: 561e ff30 4760 2831 fd53 4131 a577 d830
000001d0: 6e3c cc30 34d8 0e31 70a1 2331 7eab d330
000001e0: faec bd30 64ef 0d31 63d9 1e31 becd df30
000001f0: ab2f 9730 148e eb30 2db6 1431 16bf ee30
00000200: 1478 c630 0202 0431 85dc 1231 d422 df30
00000210: fc8d 9e30 28d7 e330 f02b 0431 4bf6 d230
00000220: 856c 9430 4f20 fc30 bcc1 1431 609d da30
00000230: 9655 c730 740c ee30 c120 0331 0740 a930
00000240: 43a0 ab30 456f e030 5066 1931 d323 b730
00000250: 3257 9e30 38db cc30 5536 f830 9964 c030
00000260: 8832 aa30 e8ff d630 9b65 f230 a8cd 9a30
00000270: e159 9230 2b1c d330 06de f030 1337 a930
00000280: 2d6e 8330 2cb8 cb30 93ed ee30 90cf ac30
00000290: 9da0 8130 68b1 ca30 2ba6 d730 a933 9330
000002a0: 48c9 9730 a72a df30 de31 e130 55ac 9230
000002b0: 8dd3 7830 3666 bc30 d14f d230 ee52 9f30
000002c0: 1a19 5030 7dc0 ad30 858f e030 0c35 b730
000002d0: 3ee9 4a30 d72b ae30 c633 ca30 a24f b230
000002e0: b191 3d30 267c a030 3e9a c230 cb60 8e30
000002f0: b0a7 5130 3481 a430 2504 b430 c176 9130
00000300: 4cc9 5030 5e55 9a30 705e b130 f5a6 8230
00000310: 1af9 4130 9e5c a930 745f bb30 eda7 7a30
00000320: 8f22 2930 7902 9230 b5ac b030 e307 8d30
00000330: 5dc3 2630 1655 a030 453a b530 3842 9330
00000340: 675b 0e30 667f 8530 5b7b b130 b287 9030
00000350: 4a15 3730 133d 8130 16fb a030 fce7 5830
00000360: 550c 3030 13cb 9930 cb7b ac30 0546 5530
00000370: 9e33 1d30 bd01 7030 b8bd 9030 6f11 6c30
00000380: 7711 4730 c678 7730 1412 9330 2463 4930
00000390: de25 0830 9190 7030 1b5a 8e30 da9e 6c30
000003a0: 89c4 1530 ddb1 8530 7c71 9530 6aa7 5230
000003b0: 25d9 2b30 c47d 8630 0da5 9430 b7ab 4630
000003c0: 2c6b 3830 ae6d 7b30 cf14 9230 25d8 5030
000003d0: faa3 e52f bba0 7730 f269 9130 e0b3 7930
000003e0: 1f76 1c30 3a49 5d30 39f2 8130 6154 3e30
000003f0: 5513 2330 bd23 6830 2511 8f30 048c 3330
