TemporalContextAggregation/models/TCA_T60_K8/model.pth.tar (torch, 989373 bytes, 18 tensors)

pool_layer_before.clusters f4 [512, 4]
000000 78 5c 19 c0 19 0b 2d c0 5a b3 56 bf ba 6e 8a 40
       -2.3962688 -2.7038023 -0.8386742 4.3260164
000010 c7 b9 75 bf f6 09 a3 3f f1 a1 9d 3f 95 8a 9b bf
       -0.959866 1.2737415 1.2315046 -1.2151667
000020 87 18 5d 3e 27 7e d7 bf 0e 54 4a 3f 96 e5 fb 3d
       0.21591388 -1.6835374 0.7903451 0.122996494
000030 e8 38 83 bf 2c 5d 29 be 0c ad 59 3f 8f 2c 40 3e
       -1.0251741 -0.16539448 0.85029674 0.18766998
000040 d6 08 c8 bf f5 14 d2 3f b9 f0 02 c0 1e 14 24 40
       -1.5627697 1.6412646 -2.0459425 2.5637279
000050 22 e2 5c bd cd 3c 8b 3f 7f 7d 68 3e 02 85 47 bf
       -0.053926595 1.087793 0.22704123 -0.7793733
000060 c9 a9 ee be 54 05 0f 40 2e 37 0d be e1 bc 36 bf
       -0.4661391 2.2347002 -0.1379058 -0.71381956
000070 71 82 f0 3d a4 e0 85 bf af 4f fd 3e 3a aa cf bc
       0.1174363 -1.045918 0.49474856 -0.025349725
000080 07 31 72 bf a7 94 44 c0 4f ac dd 3f c5 e4 6e 3f
       -0.9460606 -3.071573 1.731821 0.93317825
000090 0b 15 da 3e 5e b9 26 c0 2e 3b 4d 3f 67 a2 a8 3e
       0.4259418 -2.605064 0.80168426 0.32936403
0000a0 92 01 a3 3f 49 3e 9a bf 09 05 e3 bf 58 32 d0 3f
       1.2734854 -1.2050258 -1.7735912 1.6265364
0000b0 33 e3 7c bf a6 30 83 3f ce d8 8b bf 3b ec 9b 3f
       -0.9878418 1.0249221 -1.0925539 1.2181467
0000c0 db 33 d7 3e bf 70 46 3f af 1e 80 be 37 d7 13 bf
       0.4203175 0.77515787 -0.2502341 -0.57750267
0000d0 26 3d c8 3e ec 38 f7 3d 01 e6 21 bf 4c 95 87 3e
       0.39109153 0.12071404 -0.63241583 0.26481092
0000e0 94 e2 03 40 39 1e 05 c0 4c 6c 0d be 3b 6f 38 be
       2.0607042 -2.0799696 -0.13810843 -0.18011181
0000f0 0a 73 9d bf 2a e3 2d 40 6f 32 89 bf 68 78 cd 3e
       -1.2300732 2.71699 -1.0718516 0.40130925
000100 de e7 82 3e c7 f7 47 c0 32 07 20 3e 3e e1 b4 3f
       0.25567526 -3.1244981 0.15627745 1.4131238
000110 6b 9f 31 3d 3b 8c ca 3f 8a a1 c9 3f 6b fe 1c c0
       0.043364923 1.5824045 1.5752423 -2.4530284
000120 cf 42 64 3f f6 1c 22 40 95 e1 2e 3f 0d 98 4a c0
       0.8916444 2.5330176 0.6831296 -3.1655304
000130 8d b6 25 3e bd 0e 5a 3e 21 24 4e 3d e0 dc 9c be
       0.16182919 0.21294685 0.050327424 -0.30637264
000140 ce b4 1b bf 9b 2f d3 3e c4 d9 24 3e 5f fe af 3d
       -0.6082276 0.41247258 0.16098696 0.08593439
000150 d9 ef c0 bf 4b 78 82 3f e5 e9 79 3e a5 7e 1d 3f
       -1.5073196 1.019296 0.2440563 0.6152137
000160 9d 9b dd 3f b7 9d cf bf fa 45 b4 bf be 03 54 3f
       1.7313114 -1.6220006 -1.4083855 0.8281821
000170 7e 9a 46 bf 10 18 56 bf e2 f9 5e 3e cf 01 57 3f
       -0.77579486 -0.83630466 0.2177501 0.83987135
000180 bc 82 7f bf f6 58 c4 3e 69 0e 09 be 7f 3d 49 3f
       -0.9980886 0.38349122 -0.13384403 0.7860946
000190 38 b8 e0 3e 71 83 2b 40 21 01 30 bf 11 d0 b7 bf
       0.43890548 2.6798975 -0.6875172 -1.4360372
0001a0 46 6c 51 3f f7 eb a8 3f 54 41 df be b6 5c 83 bf
       0.8180584 1.3197011 -0.4360453 -1.0262668
0001b0 b1 93 0f 3d 16 31 4d 3f 3c 91 5b bf 42 4f ae 3e
       0.03505296 0.80153024 -0.85768485 0.34044844
0001c0 66 cc af 3f bf 87 d7 be 36 81 21 be b0 1f 5a bf
       1.3734252 -0.42095754 -0.15771946 -0.852046
0001d0 b4 05 25 3e ee 4e 87 3f 60 e5 13 c0 b7 8e dc 3f
       0.16115457 1.0570962 -2.310875 1.7231053
0001e0 16 b2 d0 be 56 58 b2 3e 87 66 9d 3f 44 dc 8d bf
       -0.4076087 0.3483302 1.2296914 -1.1082845
0001f0 93 84 ae 3e fc 6e 23 bf 15 fa e2 3d e8 5f 3e 3e
       0.3408552 -0.63841224 0.110828556 0.18591273
000200 14 8b 96 bf 44 df 2d 3f df c0 51 be 1d 96 47 3f
       -1.1761193 0.679188 -0.2048373 0.7796343
000210 49 c5 30 bf c5 fb 12 c0 1f 12 83 3f f6 94 97 3f
       -0.69051033 -2.2966168 1.0239905 1.1842334
000220 08 18 22 3d 93 2c 89 3f d9 df 1b 3f dc 83 ce bf
       0.0395737 1.0716728 0.6088844 -1.613399
000230 4f 10 17 3f 61 92 dc 3f 09 a3 3a bf c7 31 6e bf
       0.5900926 1.7232171 -0.7290502 -0.93044704
000240 19 d6 b2 be 04 cd 1e c0 2c fe 0c 3f 66 13 b4 3f
       -0.3492897 -2.4812632 0.55075336 1.406842
000250 53 1e cf be a1 67 26 3f f1 b5 f4 bf d5 7a f4 3f
       -0.40452823 0.65001875 -1.9118024 1.9099985
000260 20 a5 38 3e ff 50 04 c0 cc 04 4d 3e 6b ff 5e 3f
       0.1803174 -2.0674436 0.20021361 0.87108487
000270 dc 76 49 3f 5b 4a 09 c0 3c 08 8d 3d 6e 68 1b 3f
       0.7869699 -2.1451633 0.06886336 0.6070622
000280 51 80 27 bd bf af 8a bf 08 05 05 40 b7 d8 b7 bf
       -0.040893856 -1.0834883 2.078432 -1.4363011
000290 35 01 57 be d4 84 51 3f 5b c0 f2 bf 0e ab d2 3f
       -0.20996554 0.81843305 -1.8964952 1.6458452
0002a0 a3 e2 e5 bf a8 8a 0d bf b7 65 05 bf 8a 6a 1a 40
       -1.7959789 -0.552897 -0.5210833 2.4127526
0002b0 45 95 35 3f ab a9 70 bf c4 08 54 bf 14 da 3c 3f
       0.7093089 -0.9400889 -0.82825875 0.7377026
0002c0 b8 39 ed 3f 0e 7b 94 3e c1 e0 a7 bf 72 00 48 bf
       1.8533239 0.29000133 -1.3115464 -0.7812568
0002d0 d1 96 06 3f c6 cd f4 bf 13 b6 1d bf d1 f1 e4 3f
       0.5257388 -1.9125297 -0.6160595 1.7886297
0002e0 3b 55 fc 3f 34 93 ef be de d8 a0 bf 57 89 03 be
       1.971351 -0.46791995 -1.2566183 -0.1284536
0002f0 13 ee a1 bf 65 2b 17 3f 6d fe 87 3f b3 03 ba be
       -1.265078 0.5905059 1.062452 -0.36330947
000300 11 74 6d 3f 99 95 1a bf cd 0d 97 3d fa 6c 09 bf
       0.9275523 -0.6038452 0.07375679 -0.5368191
000310 9d ad a2 bf df 09 c8 bf 72 ef 08 bf 2e 6f 2d 40
       -1.2709233 -1.5628012 -0.53490365 2.7099109
000320 22 a5 c6 bf ea 76 7a 3f 3b 93 1b bf a9 4f bb 3f
       -1.5519145 0.978377 -0.6077153 1.4633685
000330 72 3e 45 c0 0c a7 3f 40 b1 b9 fb 3e b1 cd a9 3e
       -3.0819364 2.9945707 0.4916511 0.33164743
000340 42 c6 8f bf ca 2a 47 3f b2 1a 0e be 93 c9 71 3f
       -1.1232378 0.77799666 -0.13877371 0.944482
000350 b2 08 e5 be a7 a8 7a be 3b 69 c8 be f3 7d 78 3f
       -0.44733196 -0.24478398 -0.39142784 0.97067183
000360 35 dc c3 3f 00 1c 65 bf 4b f5 e7 bf 15 d9 80 3f
       1.5301577 -0.8949585 -1.8121732 1.0066248
000370 e4 07 15 3f e6 ee 7f 3f 29 67 e9 3d 51 53 c4 bf
       0.58215165 0.99973905 0.11396629 -1.5337926
000380 d4 57 8d 3f bf c9 b1 bf 2c 33 9c bd 83 22 0d bd
       1.1042428 -1.3889693 -0.07626948 -0.03445674
000390 73 01 33 bf 49 6e 48 3e 2d 8e 0a 3f 26 13 bc bd
       -0.69924086 0.1957332 0.54123193 -0.0918334
0003a0 fb 01 9c bf 0e 31 db 3f 53 08 c9 3f e2 5f d7 bf
       -1.2188104 1.7124345 1.5705665 -1.6826136
0003b0 8b 74 fb 3e d9 c1 e6 3f 61 9a a2 bf ff c7 ba be
       0.49112353 1.8027908 -1.2703363 -0.3648071
0003c0 c7 46 c7 3e 72 79 fb bf 39 1e c5 3f d9 2f 49 bf
       0.38921186 -1.9646437 1.5399848 -0.78588635
0003d0 27 4f 25 be 93 a9 14 40 6a a7 c3 be ae 10 7f bf
       -0.16143475 2.32285 -0.38213664 -0.99634826
0003e0 17 d9 81 3f 9c 4e 4c 40 cc 10 18 c0 93 04 fa be
       1.0144376 3.192298 -2.3760252 -0.48831615
0003f0 a3 9d eb 3f 08 72 2c bf 73 df 05 c0 e9 ec 6b 3f
       1.8407482 -0.673615 -2.0917633 0.9215837

pool_layer_before.clusters2 f4 [1, 512, 4]
000000 75 ae ca be 1c 67 24 be bf c4 8d be 93 f2 9a be
       -0.39586225 -0.16054958 -0.27689168 -0.30263194
000010 43 02 e6 bc 17 19 b9 3c 9d 23 48 3d 72 d3 26 3d
       -0.02807725 0.022594972 0.04886209 0.040728994
000020 72 62 d2 3c 53 3c 8e bb 96 63 58 3d b7 04 8c bd
       0.025681708 -0.0043406873 0.052829348 -0.06836837
000030 2e cb 96 bc 30 23 95 bb 03 14 1d 3d d5 89 18 3d
       -0.01840743 -0.004551314 0.038349163 0.037240822
000040 b9 0a 46 bb 2a ee dc 3c 4c b3 1f bd 21 85 91 3c
       -0.0030218794 0.026969034 -0.03898935 0.017763676
000050 c1 70 23 bc 26 27 68 bb ed c8 64 bb ac 40 89 3c
       -0.009975613 -0.0035423725 -0.00349098 0.01675447
000060 c2 77 cf bc a4 fc 27 3b a1 6c 7c bc 14 eb e2 3b
       -0.02532566 0.0025632763 -0.0154067585 0.006924996
000070 b7 3b 89 bc db df 68 bc f7 39 1f 3c 88 ae a2 3c
       -0.016752107 -0.014213528 0.00971841 0.019858614
000080 60 9f 8e 3b df 34 c7 bc d1 e4 30 3d f8 f4 fa 3c
       0.004352495 -0.024317203 0.043186966 0.030634388
000090 e5 45 6d bc 3d 6b a3 bc e6 1b d2 3c dd ff 37 3d
       -0.014481996 -0.019948596 0.025648069 0.044921745
0000a0 9f 2c 39 bb 5c a1 79 bc 2a 8c 02 bd 35 43 f3 3b
       -0.0028255356 -0.015236225 -0.031871952 0.007423783
0000b0 6b 42 3e bc 1d dc 06 bb 28 a8 7a bc b5 81 b5 3a
       -0.011612515 -0.0020577975 -0.015298881 0.001384786
0000c0 a7 dd b9 39 f0 17 0c 3c f4 d0 33 bc 6c f4 f7 3c
       0.00035451094 0.008550629 -0.010975111 0.030267917
0000d0 7f 98 68 bb 0a 7a e4 bb e6 08 7c bb 6d 9a 01 3b
       -0.0035491285 -0.006972556 -0.0038457452 0.0019775883
0000e0 54 bd 86 3c 12 62 27 bc 02 84 b6 ba ba c0 dc 3b
       0.0164477 -0.010216253 -0.001392484 0.006736842
0000f0 e5 ba 40 bc 39 e2 85 3c 4c f6 39 bc 67 28 74 bc
       -0.011763309 0.016343223 -0.011350226 -0.014902211
000100 fd f1 d8 bb 58 d4 c2 bc 8b 9e 6c 3b 3d 4c 43 3c
       -0.006620644 -0.023782894 0.003610524 0.011920032
000110 bf b3 51 3b 4e 20 0a 3c bd 71 0b 3c d2 85 fc bb
       0.0031998006 0.008430554 0.008511004 -0.0077063823
000120 6a 4c 1d 3b f9 89 63 3c a3 72 ee 3b 8a b5 bd bb
       0.0024001845 0.013887876 0.0072768494 -0.0057894634
000130 32 aa 50 bb f3 fd f9 ba 95 55 0f bb 67 0e d5 39
       -0.0031839726 -0.0019072875 -0.002187108 0.00040637256
000140 4e a8 31 bb 39 3a d2 3b c2 63 29 3c 2d 33 17 38
       -0.0027108374 0.006415632 0.0103387255 3.6048867e-05
000150 93 09 9d 3b ac 5e f4 3b 2d df 75 bb 14 e1 0f bc
       0.004792401 0.007457575 -0.0037517056 -0.00878169
000160 fa 0d 1a 3c 94 c3 ce bb e5 63 72 bc cc de 72 bc
       0.009402746 -0.006309936 -0.0147943245 -0.014823627
000170 cc 58 61 3b d2 6e 4d 3b 78 43 20 ba 06 48 18 3c
       0.0034385202 0.0031346572 -0.0006113569 0.0092945155
000180 2f f2 98 3a e5 37 84 3b 87 59 33 bb fd e5 dc 3a
       0.0011668856 0.0040349835 -0.0027366595 0.001685321
000190 b5 32 01 bc a0 05 62 3c ff 28 d4 b9 90 58 62 bb
       -0.007885625 0.013795286 -0.00040466335 -0.003453765
0001a0 00 f2 e9 3b 94 8b a8 3b a6 47 97 3b 46 19 01 3c
       0.0071394444 0.005143592 0.0046166955 0.007879561
0001b0 22 28 f8 38 7f 91 f3 3b c2 a4 9f bb 8d 61 e6 3b
       0.00011833037 0.007433116 -0.0048719356 0.007030672
0001c0 58 6c 15 bb 49 b7 2a bb 6b d8 eb 39 ba 08 08 3b
       -0.0022800174 -0.0026049188 0.00044983937 0.0020757155
0001d0 e1 ff e6 3b e4 a5 b5 3b 3a 35 73 bc 02 1a f9 ba
       0.007049546 0.0055434573 -0.014844233 -0.0019004943
0001e0 54 2e 3f bb 1f 9b fc ba 2c 05 93 3b 39 c7 f6 3b
       -0.00291719 -0.0019272304 0.0044867005 0.0075310734
0001f0 25 b3 aa 3b 55 cf 00 3b 39 2d 0e 3c 8d 6c 4d 3b
       0.005209344 0.001965483 0.008677774 0.003134522
000200 49 e7 e2 3a 79 59 cf 3b d4 44 ae bb d8 a8 14 bc
       0.001731136 0.0063278046 -0.0053182635 -0.009073459
000210 c4 ae 4a ba 75 06 e9 bb c9 00 59 3c eb 9b d3 3b
       -0.00077317306 -0.0071113654 0.013244816 0.006457796
000220 dd 64 05 bb e4 3c c3 ba ac 31 52 3b 26 4e 78 bc
       -0.0020354309 -0.0014895466 0.0032073064 -0.015155351
000230 ab a6 07 bc a7 37 8d 3b 17 09 f0 bb f4 19 81 bc
       -0.008279483 0.004309613 -0.0073253023 -0.015759446
000240 19 e4 22 3b 07 2d 81 bc 57 61 6a 3b 35 8e 6e bb
       0.0024855195 -0.015768541 0.0035763585 -0.003640068
000250 ec ec 03 bc c8 f9 97 bb 4e b4 c1 bb f7 61 74 3b
       -0.008052092 -0.0046379305 -0.0059113866 0.0037289837
000260 76 95 5c bb 1d 3a 42 bb fa 8a 8c 3b 1b ea 46 3b
       -0.0033658422 -0.002963669 0.0042890282 0.003035194
000270 f4 16 de 3b 21 de 31 bc df 02 da 3b fd f3 bd 3b
       0.0067776386 -0.010856182 0.0066531743 0.005796908
000280 90 4d 0c bb 14 f8 d7 3b b6 08 f7 3b 03 05 d3 3b
       -0.0021408536 0.0065908525 0.00753888 0.0064398064
000290 15 36 30 bb 12 68 a6 3a c1 73 44 bc 6e 43 b1 bb
       -0.0026887704 0.001269581 -0.0119904885 -0.0054096496
0002a0 0f 42 cf 39 41 e6 c4 bb 8f 49 0a bc 04 ce b9 bb
       0.00039531334 -0.0060088937 -0.008440389 -0.005670311
0002b0 11 1a dd 3b 83 18 a6 3b 76 77 d2 bb 1d 98 40 3b
       0.006747492 0.00506884 -0.0064229323 0.0029387542
0002c0 ce 19 e1 3a ac 01 23 bb 75 8a c5 bb 0b 41 c9 3b
       0.0017173828 -0.0024872823 -0.0060284683 0.006141787
0002d0 77 c8 9c 3b 95 b6 a2 bb 8d 52 25 bc 48 c5 02 3c
       0.0047846395 -0.004965613 -0.010090482 0.007981606
0002e0 2f 18 92 bb 3b 27 c8 ba ee 62 59 bb 3b fd 2a bc
       -0.0044584493 -0.0015270481 -0.003317054 -0.010436351
0002f0 03 a3 1e bc cc e3 8f b9 4a 2d 89 3b 33 a1 f4 bb
       -0.00968242 -0.00027444807 0.004186307 -0.0074655055
000300 f6 8f 1a 3c 88 a4 de 3a 8c 50 a5 ba 55 c2 7e 3c
       0.009433737 0.001698629 -0.0012612506 0.015549262
000310 b6 17 9e 3b 0b da 7e ba e0 7f d5 3a 80 87 d4 bb
       0.004824604 -0.0009721822 0.001628872 -0.0064858794
000320 17 f7 65 3b b1 8f f0 3a 1b 53 ba bb 93 80 04 bc
       0.0035089904 0.001835337 -0.0056861765 -0.008087295
000330 f8 f8 36 bc e1 4e ca 3b 53 33 55 3b 3a b2 9e 3a
       -0.011167757 0.006173954 0.0032531812 0.0012107559
000340 eb 33 21 3b 3d a5 0a bb 2d 02 74 3a 17 e9 aa 3a
       0.0024597596 -0.0021155619 0.00093081855 0.0013039437
000350 53 39 9c bb fb 9e 04 3b 5e e7 86 bb 62 10 cf 3b
       -0.0047675758 0.0020236361 -0.0041169366 0.0063190917
000360 e6 00 07 3b e6 28 ed bb c1 48 b8 3b 97 38 56 3c
       0.00205999 -0.0072375415 0.0056239073 0.0130750155
000370 06 70 76 bb 12 39 a1 3b 35 f8 64 3b 1a 3a 45 3b
       -0.0037603392 0.0049201334 0.0034937982 0.0030094446
000380 20 e3 d1 39 76 28 71 bb 39 34 da 3b 70 07 38 3b
       0.00040032808 -0.0036797798 0.0066590575 0.0028080605
000390 d4 ea 0b 3c 1c 0a 1a 3c fb 81 82 bb e9 0d 42 bc
       0.008539874 0.009401824 -0.00398278 -0.011844137
0003a0 e4 cd 5a 3b d2 12 9e 3b 4f 1c ec 3b 2c 3d 47 3b
       0.003338688 0.004824021 0.007205523 0.0030401452
0003b0 e3 78 32 3b 16 82 6b 3b 27 4d 89 bb 3b e2 8e bb
       0.0027232699 0.0035935692 -0.0041901055 -0.004360465
0003c0 da 66 98 ba 5c e4 41 bb 4f 54 e1 3a a5 42 c6 3a
       -0.0011627332 -0.0029585576 0.0017191264 0.0015126063
0003d0 7c ed 83 bb 7d bb 1a 3a 58 2d 38 3b 95 93 ba 3b
       -0.004026113 0.0005902572 0.00281032 0.0056938627
0003e0 79 a3 b3 ba 54 10 02 3c 61 23 21 bb 07 a5 ac bb
       -0.0013705335 0.007938463 -0.0024587738 -0.005268696
0003f0 32 78 8e 3b 63 ad b0 3b 26 a6 2b bb 43 eb f2 bb
       0.0043478245 0.005391763 -0.0026191561 -0.0074132993

pool_layer_after.clusters f4 [512, 4]
000000 54 2e 37 c0 c5 88 be bf 9f c6 ec 3d e4 37 89 40
       -2.8622026 -1.4885489 0.115613215 4.2880726
000010 1f 94 ae bf d4 5d bd 3e ed fb 16 40 ab ad 44 bf
       -1.3638953 0.36985648 2.3591263 -0.76827496
000020 b4 2b 6c 3f d2 81 2a bd 8c 53 a2 bf fe 5f ac 3d
       0.92254186 -0.041627713 -1.2681746 0.084167466
000030 e9 a6 18 c0 06 5c 9a 3e e4 15 3b 40 5a 0a 14 bf
       -2.3851874 0.30148333 2.923211 -0.57828295
000040 e1 4f 4e c0 54 23 3d be dc ff ad 3d 6c e0 4f 40
       -3.2236254 -0.18470508 0.08496067 3.2480726
000050 69 4e f4 bd eb 22 48 3e 20 4b 9f 3f 36 92 91 bf
       -0.11929018 0.1954457 1.2444801 -1.1372745
000060 22 00 69 bf 97 47 8a 3e 89 ce 86 3f e3 5e 48 be
       -0.9101583 0.27007744 1.053178 -0.19567446
000070 1f 74 25 bf ff 1e 91 3f 43 e7 0e 3e 60 8d 0b bf
       -0.6463031 1.1337584 0.13955407 -0.54512596
000080 ac c6 8d bf 62 e0 28 3f 6e 98 60 3f e4 11 dd be
       -1.1076255 0.6596738 0.8773259 -0.43177712
000090 a8 ce 05 bf d6 1e 1d 3f 80 d5 24 3e b4 e1 54 be
       -0.5226846 0.61375177 0.16097069 -0.20789224
0000a0 94 b2 c0 3f 7f 6a 80 bf 74 dd 44 c0 c5 84 e2 3f
       1.5054498 -1.00325 -3.0760164 1.7696768
0000b0 f2 2f 8a bf 59 c4 83 bf fd 3d 32 3f f4 93 a5 3f
       -1.0795882 -1.0294296 0.69625837 1.2935777
0000c0 92 25 88 3f 84 ff 2b be a3 91 2e bf 96 d6 01 bf
       1.0636466 -0.1679669 -0.68190974 -0.5071806
0000d0 cc 08 52 3f 6f d9 b2 3e a4 c1 87 bf 8d b4 b6 be
       0.8204467 0.34931514 -1.060597 -0.35684624
0000e0 69 e7 3e 3f aa ae 90 3f 47 9b ec bf 62 38 c2 be
       0.74571854 1.1303303 -1.8484887 -0.37933642
0000f0 c0 79 f5 3e 3f 5e 00 c0 de fc 9a 3e dd 65 91 3f
       0.4794445 -2.0057523 0.30271047 1.1359211
000100 3b d2 20 bf 0b 4e a8 3f 67 dd 38 bf 90 1f a9 ba
       -0.62820786 1.3148817 -0.72212833 -0.0012903083
000110 64 89 bd 3d c4 bf b0 3f 70 90 a8 3f 2d dc 18 c0
       0.09254721 1.3808522 1.3169079 -2.3884385
000120 84 ae 63 bc 22 50 ed 3f c4 d2 6d 3f 84 dc 12 c0
       -0.013896588 1.854008 0.9289973 -2.2947092
000130 a2 22 25 bf bf 10 0d 3f 87 b5 37 be ca 50 8e 3d
       -0.6450597 0.5510368 -0.17940341 0.06949003
000140 a9 2e e6 bf b1 47 8e 3d 03 52 e7 3e 69 d4 ac 3f
       -1.798299 0.06947268 0.45179757 1.3502322
000150 1a 13 1b c0 83 da 26 be 24 73 4f 40 e7 85 61 bc
       -2.4230409 -0.16294293 3.2414026 -0.013764835
000160 ee 1c 23 40 e2 1b d3 be f1 e3 54 c0 dd 6b 32 3f
       2.5486407 -0.4123221 -3.3264124 0.69695836
000170 47 b6 34 bf 40 b6 94 bf 80 66 c4 3e 29 d0 8f 3f
       -0.70590633 -1.1618118 0.3835945 1.12354
000180 c9 04 f7 bf cd f2 d7 bd 01 94 16 3f 48 f1 a5 3f
       -1.9298335 -0.105443574 0.58819586 1.2964258
000190 86 62 82 bf 51 f7 6c 3f b3 04 17 3f 8a a7 a9 be
       -1.0186317 0.92564875 0.58991545 -0.33135635
0001a0 47 27 c3 3e 3d 7c b6 3e f2 d7 30 bf c6 14 19 be
       0.38115904 0.3564166 -0.69079506 -0.1494933
0001b0 74 7c 07 bf b1 f3 41 bf e2 47 30 3f 66 7e 1c 3f
       -0.52924275 -0.7576247 0.68859684 0.6113037
0001c0 44 fd b0 3f d7 05 38 3f a9 3d 26 bf fb 25 b8 bf
       1.382729 0.7188391 -0.64937836 -1.4386591
0001d0 a1 bb a5 3f c3 62 06 c0 05 b5 13 c0 2b 97 20 40
       1.2947885 -2.099778 -2.3079236 2.5092266
0001e0 3a ad 97 3d c2 7a 50 bf 49 6c c0 3e a6 79 a3 3e
       0.07406087 -0.81437314 0.37582615 0.31928748
0001f0 62 eb 0a 40 e3 ce 28 3e ae cb cd bf b8 11 5d bf
       2.1706166 0.16485171 -1.6077783 -0.8635516
000200 8a 40 a8 bf d6 2b c3 bf 36 13 d9 3f 3e 04 ad 3f
       -1.3144696 -1.5247753 1.6958988 1.351692
000210 38 8f bd bb 9c 31 55 be 2c 2d 3a be 3d a8 b9 3e
       -0.0057848953 -0.20819706 -0.18181294 0.36261168
000220 60 d9 ee 3f 8c 1a 9e bf 3b 3b 89 be fa 21 d4 be
       1.8660088 -1.2351851 -0.26803002 -0.41432172
000230 5e 56 e7 3e be b3 12 bf 99 2b 00 bf bb 69 04 3f
       0.4518308 -0.57305515 -0.50066525 0.5172383
000240 36 ec 10 3f 75 0f f5 3f 42 57 f6 bf 75 56 4f bf
       0.5661043 1.9145342 -1.9245379 -0.809913
000250 3e 04 28 bf a3 70 d4 be 5e c8 3a 3e 13 0e 62 3f
       -0.65631473 -0.41492185 0.18240497 0.88302726
000260 36 1e 12 bf c2 57 a2 3f 63 3e b8 be 50 f7 6e be
       -0.5707735 1.2683032 -0.35985097 -0.2333653
000270 dc ec 48 3f f6 73 0e bf f2 c3 b5 bf 7f 1b 6d 3f
       0.7848642 -0.5564569 -1.4200423 0.9262008
000280 22 39 90 bd 16 12 55 3f c0 14 32 3f c6 e0 af bf
       -0.07042147 0.8323072 0.6956291 -1.374047
000290 9f 5e 8b bf b1 84 14 c0 29 29 af 3e 3b 5e 22 40
       -1.0888251 -2.3205988 0.3421109 2.5370014
0002a0 53 05 c6 bf 58 55 a6 bb eb 8d 25 3d 70 ce ce 3f
       -1.5470375 -0.0050760917 0.040418547 1.615675
0002b0 03 42 83 bd 89 d1 f6 3e 5c 85 c1 be de fb 0d be
       -0.06409075 0.48206738 -0.37797058 -0.13865611
0002c0 35 e4 4b 40 b4 06 6a bf 82 09 1e c0 79 75 bf be
       3.1858037 -0.9141648 -2.4693303 -0.37394312
0002d0 17 e6 8b 3f e2 cb b0 bf 66 9a 67 bf 67 2d 6e 3f
       1.0929593 -1.381222 -0.9046997 0.9303803
0002e0 d8 fa 59 40 0f 5e 67 bf 93 94 00 c0 a7 bb 73 bf
       3.4059353 -0.903779 -2.0090683 -0.9520821
0002f0 45 ff ba bf a5 76 81 be d0 4e 84 3f f7 50 62 3f
       -1.4609152 -0.2528583 1.0336552 0.8840479
000300 80 f1 d5 3e 5c 95 fe 3f 82 dc 04 c0 e4 36 09 bf
       0.41785812 1.9889331 -2.0759587 -0.5359938
000310 39 6d 51 be 7b a0 5e bf 1e 81 38 3f 87 a4 83 3e
       -0.20451821 -0.86963624 0.7207202 0.25711462
000320 05 8f 0e bd d7 3d 4d bf 7b c6 0a 3f 2c 5d 02 3e
       -0.034804363 -0.80172485 0.5420911 0.12730855
000330 4e 3f 28 c0 6f 93 ca bf 11 6d 55 40 0f 88 d2 3f
       -2.6288638 -1.5826243 3.334782 1.6447772
000340 92 7f 7d bf 2a 5e d0 be 13 52 65 be cb 05 d8 3f
       -0.9902278 -0.4069684 -0.2239459 1.6876768
000350 08 15 e6 3e 26 99 3e 3d ad f8 53 3f be 54 91 bf
       0.4493792 0.046532772 0.82801324 -1.1353986
000360 49 6c b5 be ac 05 7c 3f cc 16 16 bf 20 09 56 be
       -0.35434178 0.98446155 -0.58628535 -0.20901918
000370 4b 19 94 be a5 ff a4 bf 9b b0 69 3f ed 02 32 3f
       -0.28925547 -1.2890517 0.91285104 0.69535714
000380 fe ae 7a 3f 6b 95 d0 3e 22 de 81 bf 03 e2 d5 be
       0.97923267 0.40738997 -1.0145915 -0.41773996
000390 69 9a a0 bf 56 ce 00 be 19 67 0b 40 e7 00 e2 be
       -1.2547122 -0.12578711 2.1781676 -0.44141313
0003a0 a7 aa 49 bf bf a4 54 3f e8 6d 8b 3f 3b e3 76 bf
       -0.7877602 0.8306388 1.0892916 -0.96440476
0003b0 70 aa 0a 40 e0 d4 6c bf f6 0f c2 bf bd 46 9a bd
       2.1666527 -0.9251232 -1.5161121 -0.075330235
0003c0 f8 15 49 3f 22 4c b1 3f 32 74 ba be dc f7 d5 bf
       0.78549147 1.3851359 -0.36416775 -1.6716266
0003d0 52 ea a3 3f d4 e6 95 bf fc 37 d9 be 70 73 54 bd
       1.2805884 -1.1711068 -0.42425525 -0.051867902
0003e0 d9 84 c1 be e2 08 91 bf ee a1 c9 3f b5 93 c8 3d
       -0.37796667 -1.1330836 1.5752542 0.09793798
0003f0 17 7b bb 3f 93 a0 c2 be bc bc 50 c0 5e 3b db 3f
       1.4646939 -0.38013133 -3.2615194 1.7127492

pool_layer_after.clusters2 f4 [1, 512, 4]
000000 db 6a e5 be f6 36 d9 be 3b 5f ad bc b4 f0 07 bf
       -0.44808087 -0.42424744 -0.021163573 -0.5310166
000010 2a b5 be bc dc 33 73 3b 7d 03 0c 3e eb c9 95 3c
       -0.023279745 0.0037109768 0.13673206 0.018284759
000020 9a 68 91 3b a2 33 ad bc a0 2a ea ba 9e 49 4e bc
       0.0044375183 -0.021142785 -0.0017865486 -0.012590794
000030 58 72 0b bd 73 ae c9 3c 39 8d 15 3e 74 e7 25 3c
       -0.034044594 0.024619317 0.14604653 0.0101259835
000040 0c 59 30 bd 41 e3 84 3c 1e e7 bb bc ff 29 95 3c
       -0.04305367 0.016221644 -0.022937354 0.018208502
000050 8f bf 63 3b 41 73 20 3a f7 2d 1a 3d 57 ee 9d 3b
       0.003475163 0.000612069 0.03764149 0.004819672
000060 f1 b7 ba bc 03 53 56 bb 14 f9 96 3c 72 a8 80 bc
       -0.022792788 -0.0032703287 0.018429317 -0.015705321
000070 19 07 a0 bc 74 24 bf 3c ed 62 a4 bb 4b 52 99 3c
       -0.019534634 0.023332812 -0.0050166757 0.018715998
000080 9e 5f 26 bc 38 dc 57 3c 89 10 22 3d f8 09 79 3c
       -0.010154633 0.013175063 0.03956655 0.015200131
000090 2f 25 c4 bc a3 4c 22 3c f1 77 ab 3c 88 90 bf 3c
       -0.023943512 0.009905967 0.020931216 0.023384348
0000a0 dc dd f4 bb 5b 04 a9 bc 61 f6 08 bd 0f e7 c0 b9
       -0.0074727368 -0.02063196 -0.03343809 -0.00036793246
0000b0 06 4d aa bb 49 69 59 bc cc c0 af 3b 8c b5 7e bc
       -0.00519717 -0.013269731 0.0053635594 -0.015546214
0000c0 48 d5 a0 3b 98 4a d5 bb 20 79 16 bc a4 bc 27 3d
       0.0049082376 -0.0065091364 -0.009184152 0.040951386
0000d0 a1 f8 ac bc a3 63 bb bb 0b 78 5a bc d1 79 75 bc
       -0.02111465 -0.0057186647 -0.013334285 -0.014982657
0000e0 6c 88 95 39 a8 6c 01 3c b0 5d 6d bc 68 c0 15 3c
       0.00028521137 0.007899441 -0.014487669 0.0091401115
0000f0 87 93 b0 bc 47 8f 5e bc 8f c2 86 3b cc f7 2c 3c
       -0.021554722 -0.013583965 0.0041125487 0.010557126
000100 c5 84 41 bc 97 f5 6b 3c 6d bc 39 ba ab d5 1e 3c
       -0.01181144 0.014401815 -0.00070852676 0.009694497
000110 f8 a3 a8 3b 9b 2c 93 3b 47 1b cc 3b 7c e9 7d bc
       0.0051464997 0.0044914014 0.0062288377 -0.015497562
000120 e0 9d 93 bb bc ef 97 3b 65 1b e0 3b 7f c5 b2 bb
       -0.004504904 0.004636733 0.006839203 -0.0054556723
000130 a0 19 5a 3b 06 ab a1 ba db b7 bb bb 37 75 a2 3b
       0.0033279434 -0.0012334294 -0.0057287044 0.0049578208
000140 f7 7f 27 bc aa a8 29 3a 9a 7d e4 3b 97 4e 1d 3c
       -0.01022338 0.0006471971 0.0069729807 0.009601257
000150 de f3 f3 3b 4c 34 33 3a ce 58 f5 3b 06 d9 5b 3c
       0.0074448427 0.0006836101 0.007487393 0.013418442
000160 13 ae 3c 3b c2 f1 e0 bb 9b 54 5c bc 1a 4a 20 bc
       0.002879028 -0.0068647573 -0.013447906 -0.009783292
000170 cc 65 90 b9 51 4d ee ba 88 ae 12 bb 4b b8 87 3b
       -0.00027541665 -0.0018181001 -0.002238186 0.0041418425
000180 a9 97 d5 3b 67 95 8b ba 06 6f eb 3a af e4 1d 3b
       0.0065183234 -0.0010649384 0.0017962165 0.0024092605
000190 9a 40 48 3b 5b c8 cf 3a 7b 56 80 bb dc 48 08 3c
       0.0030556084 0.0015852557 -0.0039165593 0.008318152
0001a0 a3 df 11 bb 40 cb 91 3a d9 d8 87 ba dd 7f a6 3a
       -0.0022258542 0.0011123195 -0.0010364308 0.0012702901
0001b0 10 46 ad 3b 66 01 a9 ba 27 5d fc 3a 47 64 76 3c
       0.005287893 -0.0012894094 0.0019253836 0.015038556
0001c0 70 de db bb 65 83 be ba 31 d3 0f 3c a6 10 4b 3c
       -0.006709866 -0.0014535008 0.008778379 0.012394106
0001d0 4a 7c 01 3c a0 b1 c1 bb b9 89 c5 bb 1f 42 4b 3c
       0.007903168 -0.005911067 -0.0060283807 0.012405901
0001e0 b3 91 9c ba a8 83 d3 bb cd 1e 8f 3a e6 bd 87 3b
       -0.0011945277 -0.0064549036 0.0010919214 0.0041425107
0001f0 61 1e af 3b d0 7f da 3b ea 23 a2 bb 2d 42 c4 3b
       0.0053441976 0.0066680685 -0.004948129 0.005989334
000200 69 bf f3 3b 8b 74 cd ba 85 34 21 3c fb 5c 37 3d
       0.0074385894 -0.0015674991 0.009839182 0.044766407
000210 30 9e 0c bc 04 db 8e 3a 2f f0 bc ba a6 0f db 3c
       -0.008582637 0.0010899012 -0.0014414842 0.02674086
000220 a8 de 07 3b 9a 81 81 bb c0 01 9d 3a f6 97 3c bc
       0.0020732079 -0.0039522173 0.0011978671 -0.01151084
000230 04 66 13 bb 55 e1 f3 bb c3 9b 23 3b 8a 9c 7a bc
       -0.0022491226 -0.007442633 0.0024964667 -0.015296111
000240 fe 05 5c 3b dc 5e c9 3b 97 b8 ce bb c9 ae c2 bc
       0.0033572908 0.0061453413 -0.006308626 -0.023764985
000250 0c a9 b7 bb 84 bb ac 39 67 96 f1 3a 5d 04 4b bb
       -0.0056048688 0.00032946107 0.0018431664 -0.0030977943
000260 3f e2 e3 bb 01 24 44 3b 7f d9 9a 39 11 e0 d0 3a
       -0.006954461 0.0029928687 0.00029535216 0.0015935918
000270 1b 3d 2f bb a1 56 fd ba 66 82 98 bb 01 9d dd bc
       -0.0026739303 -0.0019328186 -0.0046542166 -0.027052404
000280 09 1a 4b ba 5d 52 5b 3b 4f 28 8e 3b d6 d8 b5 bb
       -0.0007747715 0.003346584 0.0043383013 -0.0055495305
000290 5c 41 c4 bb e2 5d 38 bc 21 06 de 3a f8 e2 1b bb
       -0.0059892368 -0.011252852 0.0016939082 -0.0023786407
0002a0 43 21 1e 3a df 21 12 3b 2f 92 a0 39 67 e6 fb bc
       0.0006032178 0.002229802 0.00030626493 -0.030749513
0002b0 df 84 f2 b9 c3 07 24 3b 3f b4 a3 b9 cd 2a 90 3b
       -0.00046256834 0.002502904 -0.00031224077 0.0043996335
0002c0 98 0c 4e 3b 6c 1c 83 3a 60 5a 3e bb d8 0d 6b 3c
       0.0031440612 0.0010002977 -0.0029045567 0.014346562
0002d0 e1 7b 9d 3b af c0 ba bb 3f 0d 80 ba 2a d1 aa bc
       0.0048060273 -0.005699239 -0.0009769573 -0.02085169
0002e0 63 7d 2f 3c 37 3a 4c 3a 96 78 8c bb 0b c3 06 bc
       0.010711047 0.0007790657 -0.004286836 -0.008225213
0002f0 80 d7 22 bc 2e 12 e1 ba 8f da 24 b9 e6 b1 b3 bb
       -0.0099390745 -0.0017171556 -0.00015721678 -0.0054838536
000300 e3 58 ab 3b 3e 9c a9 3b 19 88 05 38 bf 52 a2 3c
       0.005229102 0.005176096 3.1836422e-05 0.019814847
000310 b4 0a 59 3b 8e e2 0e bb ab 5b 67 b9 79 5c 0a 3b
       0.0033117952 -0.0021802518 -0.00022064026 0.0021112247
000320 39 1d 0d 3b a8 c0 f9 39 56 9d 98 3b c7 c5 d7 3c
       0.002153231 0.0004763652 0.004657428 0.026339425
000330 e6 3f 0f bc 88 70 de bb 81 cb 55 3c 79 9e 99 3a
       -0.008743262 -0.006788317 0.013049007 0.0011720202
000340 ff d2 e0 39 76 1c 5f bb 97 e1 c7 ba 4f 58 26 bd
       0.00042881814 -0.0034044064 -0.0015249726 -0.04061156
000350 6c 49 2d bc e8 a6 0b bb 52 88 b8 3b dd fb e4 3b
       -0.010576587 -0.00213092 0.005631485 0.0069880323
000360 9d 75 0c ba 01 78 3f 3b cf 2e 5c ba b3 2c 52 3c
       -0.0005358102 0.0029215815 -0.0008399309 0.01282804
000370 df 04 eb 3b b4 22 9b ba 26 ef f6 ba f4 0a 2e 3b
       0.0071722115 -0.0011835904 -0.0018839582 0.0026556822
000380 3b cb 2f bc 3b b6 78 3a 0e 28 77 bb 2d 28 a6 bc
       -0.010729606 0.00094876037 -0.0037713083 -0.02028283
000390 36 45 a4 3b 58 e0 da ba dd 28 a2 3b 21 69 8b 3c
       0.0050131334 -0.001669894 0.004948719 0.017017903
0003a0 04 e0 ec 3b 92 15 89 3a d5 39 35 ba 8c a5 a7 bc
       0.007228853 0.0010458699 -0.00069132197 -0.020464681
0003b0 3c 34 7f 3a 7b 39 0d ba dc de 7f bb 18 f4 94 bb
       0.00097352616 -0.00053872884 -0.0039042747 -0.0045457
0003c0 c2 e0 b3 3a 6c 8e 47 3a cd 68 e0 ba 70 a4 2e 3c
       0.0013723599 0.000761247 -0.0017121077 0.010659322
0003d0 5c 1d ba bb bc ad 93 39 2d 29 2f bb d1 b7 b1 3b
       -0.0056797694 0.00028167467 -0.0026727424 0.005423524
0003e0 67 82 35 3c 27 f4 14 bb 43 7a 7b 3b d2 74 97 3b
       0.011078454 -0.0022728534 0.0038372434 0.0046220804
0003f0 22 2a 97 3a 0e ca 70 3a 17 3c e2 bb 44 b6 a0 bc
       0.0011532942 0.0009185382 -0.006904136 -0.019618161

fc.weight f4 [18, 4096]
000000 cf 19 73 3e ca 1e 48 3d e2 de eb bd e0 07 1a be
       0.23740314 0.048857488 -0.11517121 -0.15042067
000010 50 9c ed bd 13 50 c4 bd 56 cc 80 be b4 52 0c 3e
       -0.1160208 -0.095855854 -0.25155896 0.13703424
000020 05 cd 9a be d8 51 c4 be d9 2b 39 bf 00 f9 03 bf
       -0.30234542 -0.38343692 -0.7233253 -0.5155182
000030 83 a3 01 bf 73 b8 93 bd 4a 2c f4 be 17 79 ae bc
       -0.50640124 -0.07212915 -0.4769004 -0.021297975
000040 e4 1d 88 3e bb 44 c1 3e ef 84 6d bc 46 49 fe 3e
       0.26585305 0.3774775 -0.014497026 0.49665278
000050 ba 41 09 bd 0f bb 03 3e ed a6 99 3e e5 23 cd bc
       -0.033509947 0.12864326 0.30010167 -0.02504153
000060 87 ec aa 3e a8 a6 09 3f 61 30 b4 3e e9 d9 34 3e
       0.3338358 0.5376992 0.3519316 0.17661251
000070 53 54 73 be 58 ff 54 be 7b 94 e0 3e 42 be 94 3e
       -0.23762636 -0.20800531 0.43863282 0.29051405
000080 b5 f1 71 3e 97 64 20 3e 2a b4 3b be 19 0f 23 bd
       0.2362736 0.15663372 -0.18330446 -0.03980932
000090 32 13 0b be 70 99 78 be fc 39 4b 3e 53 eb 04 3f
       -0.13581541 -0.24277282 0.19846338 0.51921576
0000a0 91 71 26 3f 7b 21 fa 3e 8b 1a 48 3f 2b 00 d8 3d
       0.6501704 0.4885367 0.781655 0.10546907
0000b0 99 e2 d6 3c 5f 63 e5 3e e1 4c 1c 3e 72 56 4c 3e
       0.026231097 0.44802377 0.15263702 0.19954851
0000c0 3a 04 15 3e 18 38 0a be 9c 51 2b 3f 7f 45 d4 3e
       0.14552394 -0.1349796 0.669214 0.4145927
0000d0 3d 72 b1 3c 97 5a bb 3c 36 3c 46 be bf 92 31 3e
       0.021660918 0.022870345 -0.19358906 0.17341135
0000e0 38 00 27 bd 93 31 d6 be 9b b1 17 3f 44 d7 85 3f
       -0.040771693 -0.41834697 0.5925538 1.0456319
0000f0 0c 9c d5 3e 2d 62 aa 3d ab 9f 8d 3e d3 cf a8 be
       0.41720617 0.08319507 0.2766088 -0.32971057
000100 95 af da 3e bf bb 64 3e 66 32 f1 3e 18 24 95 3e
       0.42712083 0.22337244 0.47108763 0.291291
000110 17 ae ef be 8e 3c 55 be 7b c6 05 bf 2b 39 33 be
       -0.46812508 -0.20823881 -0.5225598 -0.17502277
000120 80 0e 7c bf d1 94 87 bf f4 37 7d bf 06 ec 03 bf
       -0.98459625 -1.059229 -0.989135 -0.5153202
000130 ca 5a a6 3e ff 88 3f 3f 6b 65 ba 3c e5 77 4c bf
       0.32491142 0.74818414 0.022753438 -0.79870445
000140 63 13 64 3f 33 8f 29 3f a3 3a 05 3f 80 27 d1 3d
       0.8909208 0.6623413 0.520426 0.10212612
000150 45 d4 7d 3f 83 8b ef 3e 84 f1 ab 3e b0 d0 f8 be
       0.9915202 0.46786126 0.335827 -0.48596716
000160 44 17 96 3f 44 ec 84 3f a8 d2 a4 3f 36 38 ed 3e
       1.172585 1.0384603 1.2876787 0.46331948
000170 9b 7c f9 3e ae 86 3e 3e 7c 0d b1 3c 4a fc 18 bf
       0.4872788 0.18606064 0.021612875 -0.5975996
000180 d8 2e e3 3e a4 96 54 3f 39 57 01 bc 55 2a d7 be
       0.44371676 0.8304236 -0.007894331 -0.42024484
000190 1e 4f 3a bf fe 73 ed 3d 93 8a 18 bf 2e 23 44 bf
       -0.72776973 0.115943894 -0.5958645 -0.7661618
0001a0 f5 e1 ca bf 4f 64 a6 bf 39 af 0a bf 0e 9c e6 3d
       -1.5850207 -1.2999362 -0.5417362 0.11260234
0001b0 49 41 92 bf 9e 36 43 be d1 3f 3c bf fd df 0f bd
       -1.1426173 -0.19063804 -0.73534876 -0.03512572
0001c0 aa 12 43 bf 41 d2 b9 be d8 1b 04 bf 40 93 b5 bd
       -0.76200354 -0.36293224 -0.51604986 -0.08865976
0001d0 03 21 50 3f 06 c7 1e 3d 5c 66 50 3f 24 05 8d be
       0.8130037 0.038764022 0.8140619 -0.27542984
0001e0 ff 5a 42 bf d3 a4 8d 3f 65 80 04 be 98 08 ff be
       -0.759201 1.1065925 -0.12939604 -0.49811244
0001f0 47 db 5a 3f 13 eb 0b bf df 77 09 3d 42 2a 0b bf
       0.8549084 -0.5465557 0.033561584 -0.54361355
000200 7a ab a5 be 81 9c c4 be 05 bc 4f bc b1 1a 08 3f
       -0.3235739 -0.38400653 -0.012679105 0.5316573
000210 f5 4c e5 3e 1e 63 85 be 9c dd 20 bf 40 5f eb be
       0.44785276 -0.26052183 -0.6283815 -0.45971107
000220 c4 aa d3 bf 26 d8 11 be 39 95 95 bf 73 47 00 bf
       -1.6536489 -0.1424261 -1.1686164 -0.5010902
000230 4b 77 6f bf 04 a5 31 bf 08 b6 32 bf 32 1f b8 be
       -0.935414 -0.6939242 -0.6980901 -0.359613
000240 2f 6e dc 3f da 0d 0a bf f2 48 b9 3f 96 94 33 3e
       1.7221125 -0.53927386 1.4475386 0.1753715
000250 73 ed 1e 3f c1 4e 62 3e 41 3e 7a 3f 6b c8 83 3f
       0.6208107 0.22100355 0.9775124 1.0295538
000260 bb 59 0f bf 0b 05 9e be e3 82 91 be b7 19 08 be
       -0.5599629 -0.30863222 -0.2842017 -0.1329106
000270 b5 df 4b bd 94 9b a5 3c 85 8a 52 3d 03 a3 46 be
       -0.04977389 0.020215787 0.051401634 -0.19398122
000280 3b 1c b5 bf f1 fc 87 be 5d c7 87 bf 96 8c 15 3f
       -1.414924 -0.26560166 -1.0607716 0.5841764
000290 41 fd f9 3e d7 92 ab 3f 55 55 3d 3f fc e3 81 3f
       0.4882603 1.3404187 0.7395833 1.01477
0002a0 12 76 cd 3f 21 4c 8c 3e 5f d4 30 3f ac 86 a5 3e
       1.6051657 0.27401832 0.6907405 0.3232931
0002b0 45 81 18 3e ab 65 dd 3d b3 54 2a 3f 87 3e 79 3f
       0.14893062 0.10810407 0.6653549 0.97361034
0002c0 2b 9d e4 bf a4 02 57 3f 2c 2e 36 bf cf f3 88 bf
       -1.7860464 0.83988404 -0.711642 -1.0699404
0002d0 0a 42 23 3f 73 a4 b4 3e 47 1f 27 3f 44 40 9a be
       0.6377264 0.35281715 0.652821 -0.30127156
0002e0 20 22 dc be 3c 91 33 be b0 33 11 3e df c8 df bc
       -0.42994785 -0.17535871 0.14179873 -0.027317462
0002f0 f0 1a 78 bd 9c 65 62 bd 39 b3 0d be 23 04 44 3f
       -0.060572565 -0.055272684 -0.138379 0.7656881
000300 8d 25 49 3f f0 37 ac 3e e9 55 87 3f 44 c9 0c 3f
       0.7857292 0.33636427 1.0573093 0.54994607
000310 f0 a0 91 3f 8a 59 6d be 19 f9 d2 3e 82 38 92 3f
       1.1377239 -0.23178688 0.4120567 1.1423495
000320 8f 5e 29 3f a7 70 ba 3e e4 d0 8a be 09 1d 07 bd
       0.6615991 0.36414072 -0.27112496 -0.032986674
000330 02 a7 c0 be f8 f0 4e be 13 65 58 bf 93 d6 cd bc
       -0.37627417 -0.2020911 -0.84529227 -0.025126731
000340 69 c3 db 3f 70 7d d4 3f 6a 0a 71 3f 92 5a 52 3f
       1.716901 1.660078 0.94156516 0.8216945
000350 6d c8 95 bf 1f ca e6 3e 8e ad a8 be 69 8d d1 3e
       -1.170179 0.4507608 -0.32944912 0.409282
000360 48 6a d1 be ff e4 83 3e 66 53 ff 3d 8e 62 b5 be
       -0.409014 0.25760648 0.12467079 -0.35426754
000370 ce 47 3f bf 05 bc e7 bc 4b 52 89 bf 0d ba bc bf
       -0.7471894 -0.028287897 -1.0728239 -1.4744278
000380 1f 6d 82 be 10 e8 ec ba aa 30 de bd 56 e1 96 be
       -0.25473878 -0.0018074531 -0.10849126 -0.29468793
000390 29 5d 02 3f e0 32 72 3e 6c ab 55 3f f7 4c c1 3f
       0.509234 0.2365222 0.83464694 1.5101613
0003a0 22 0f 98 3e 6e 02 e1 be e3 cf ba be c8 78 8a be
       0.29699045 -0.43947166 -0.3648673 -0.27045274
0003b0 3a 8d dc 3d 47 06 eb 3e 0c 8f 81 bf 33 43 3a bf
       0.10769124 0.45903227 -1.012178 -0.7275879
0003c0 dc e8 57 bf a5 77 a5 bf 4c 1e ed bd 5f 32 6c bf
       -0.8433969 -1.2927138 -0.11578044 -0.9226436
0003d0 b4 10 1b 3e 76 b0 fa 3e 3e 04 41 be ad 11 f8 bf
       0.1514309 0.48962754 -0.18849275 -1.9380394
0003e0 21 46 87 3d 24 7f ac bc 94 42 25 bf f2 95 28 3e
       0.06605173 -0.02105672 -0.64554715 0.1646345
0003f0 7b 93 7f 3f d2 b7 c4 3e 4a e7 77 3f 1b e1 77 3f
       0.9983441 0.38421494 0.96837294 0.9682786

fc.bias f4 [18]
000000 59 3c ee 3e 8c e6 3c bf 35 ac 27 bf 11 63 46 bf
       0.46530417 -0.73789287 -0.6549714 -0.77494913
000010 f3 70 29 bf 2d 65 3d bf 4a b9 25 bf 6b 5c 44 bf
       -0.6618797 -0.73982507 -0.64735854 -0.7670352
000020 fa 7a 4e bf 26 42 d7 be 11 5f a8 be b5 5f 0a bf
       -0.806564 -0.42042655 -0.3288503 -0.5405229
000030 d7 d2 16 bf 57 47 12 bf 08 35 4f bf 21 7b 34 bf
       -0.58915466 -0.57140106 -0.80940294 -0.7050038
000040 11 d7 22 bf bc a9 21 bf
       -0.63609415 -0.6314962

exp_avg f4 [512, 4]
000000 79 c8 14 b9 a2 90 01 39 26 8c 4c 38 66 59 ff b7
       -0.00014189062 0.00012356279 4.8767914e-05 -3.0439998e-05
000010 37 83 9e 38 aa 28 81 b8 7d 97 9a 37 e1 00 08 b8
       7.558468e-05 -6.1587736e-05 1.8428773e-05 -3.2425745e-05
000020 61 de 06 b8 90 c2 99 36 29 ba 46 b7 92 54 25 38
       -3.2155196e-05 4.5824054e-06 -1.1845063e-05 3.9417828e-05
000030 47 09 e0 b7 79 80 94 b5 94 b5 89 b8 e2 09 c4 38
       -2.6707201e-05 -1.106425e-06 -6.5664906e-05 9.347849e-05
000040 4d b6 31 b7 c4 3c 8e b5 bd c4 91 37 56 17 c0 b6
       -1.0592467e-05 -1.059751e-06 1.737696e-05 -5.7247626e-06
000050 9a af 07 38 fb 23 a6 b6 97 5e 73 b8 7b 73 00 38
       3.235005e-05 -4.951374e-06 -5.802381e-05 3.0625128e-05
000060 2f 08 cc 36 53 65 ba b7 54 51 a0 37 a7 70 47 b6
       6.0806265e-06 -2.222011e-05 1.9111358e-05 -2.9718883e-06
000070 68 72 88 b6 36 4a 38 36 9a 81 e2 b3 30 5e bf 35
       -4.0664345e-06 2.7461333e-06 -1.05475195e-07 1.4258021e-06
000080 92 12 d4 37 f2 a3 8e 37 a6 b7 7a 37 30 09 70 b8
       2.5281017e-05 1.7004062e-05 1.494392e-05 -5.7229016e-05
000090 da 3c c5 37 d3 c6 f2 36 2d 7c 4e b7 82 b0 9a b7
       2.3512566e-05 7.235308e-06 -1.2307469e-05 -1.8440423e-05
0000a0 ed 52 99 37 a3 33 3a 37 df a7 19 b8 ef 8b f3 36
       1.8277637e-05 1.10984865e-05 -3.6634385e-05 7.2582548e-06
0000b0 a3 2a e1 36 e5 1a 9f b7 24 6c a8 b7 32 9e 07 38
       6.710486e-06 -1.89668e-05 -2.0077518e-05 3.233384e-05
0000c0 93 bc 88 b6 70 20 33 37 34 d6 f8 34 c4 11 ed b6
       -4.075069e-06 1.0676784e-05 4.6349453e-07 -7.0652186e-06
0000d0 1e be 81 b7 49 9c 87 b6 2a ec 23 38 20 33 a4 b7
       -1.5466529e-05 -4.0415075e-06 3.9082173e-05 -1.957413e-05
0000e0 3a 81 bf b7 5d 99 72 37 2c 1a 1b 37 de 10 6b b5
       -2.282915e-05 1.4460032e-05 9.244814e-06 -8.7568867e-07
0000f0 ba f6 09 36 54 0e 29 37 b7 8f 8b 36 ed a9 88 b7
       2.0558205e-06 1.0076521e-05 4.1592534e-06 -1.6291591e-05
000100 1b 3d f0 b6 72 53 a0 b5 f8 1d 52 b6 83 b0 40 37
       -7.159671e-06 -1.1945215e-06 -3.1309883e-06 1.1485189e-05
000110 26 d7 0a b5 00 fe a2 b7 54 ad 72 37 39 f8 b7 36
       -5.172209e-07 -1.9430183e-05 1.446468e-05 5.482722e-06
000120 fd 41 f5 37 69 cc 1c b7 66 de 13 b8 09 e1 80 37
       2.9237004e-05 -9.3459175e-06 -3.5254656e-05 1.536358e-05
000130 74 d3 f2 37 42 2c 32 b7 7d ca 17 37 95 a2 e5 b7
       2.8947114e-05 -1.0619931e-05 9.047447e-06 -2.7374635e-05
000140 e2 25 82 b7 09 bb 44 b6 a2 94 ec 37 c4 ae 23 b7
       -1.5514848e-05 -2.9315145e-06 2.8202605e-05 -9.756248e-06
000150 e0 47 38 36 61 80 9b b6 ea d7 83 36 01 f7 08 b6
       2.7459973e-06 -4.6343052e-06 3.92924e-06 -2.0409354e-06
000160 91 ab 11 b5 03 17 06 37 34 ef 9e b7 0d e2 40 37
       -5.426637e-07 7.99238e-06 -1.8946455e-05 1.1496723e-05
000170 71 97 95 b7 1e 97 55 b7 69 2e f0 37 ab a4 01 36
       -1.7832705e-05 -1.2730974e-05 2.863184e-05 1.9318347e-06
000180 a0 ec 2e 37 54 86 99 b6 7a 7e 3d b7 17 aa b6 36
       1.0426302e-05 -4.575393e-06 -1.12947255e-05 5.4438237e-06
000190 cb 5a 07 b6 d9 ae e7 b5 cb 8c ca 36 48 e7 19 b6
       -2.0169416e-06 -1.7261729e-06 6.0364596e-06 -2.29334e-06
0001a0 a1 d7 82 37 c7 fc ab 37 2a 11 89 b7 3b c3 a5 b7
       1.5597618e-05 2.0502497e-05 -1.6339665e-05 -1.9760444e-05
0001b0 fd 33 f1 35 8a b9 13 37 e8 f3 fe b6 74 98 49 b6
       1.797103e-06 8.805082e-06 -7.5981843e-06 -3.0040073e-06
0001c0 72 66 98 b6 f5 4f 1a b6 ed 4a 88 37 99 ce 1d b7
       -4.541879e-06 -2.299433e-06 1.6247353e-05 -9.4060315e-06
0001d0 10 89 2f b4 3a 26 c5 36 05 43 c6 b6 3c 24 53 34
       -1.6348008e-07 5.8755077e-06 -5.908662e-06 1.9664088e-07
0001e0 90 8b 62 37 94 5e 8e 35 03 1a 63 b7 0b eb 89 b5
       1.3503144e-05 1.060735e-06 -1.3536311e-05 -1.0275702e-06
0001f0 c7 e1 08 b5 22 30 bf 36 1b 0a 1d b6 af 1d 3f b6
       -5.09925e-07 5.697847e-06 -2.3400705e-06 -2.8478496e-06
000200 85 eb 60 37 78 df 94 b6 b8 3e 4d b7 ee 0b 5b 36
       1.3406277e-05 -4.436759e-06 -1.2233555e-05 3.2640487e-06
000210 1c cd 83 36 97 c0 6a 37 ed dd df b6 23 b8 3c b7
       3.927982e-06 1.3992328e-05 -6.6717535e-06 -1.1248546e-05
000220 80 16 2a 36 cc 06 3b 35 d1 fa 84 b6 da 75 44 35
       2.534507e-06 6.967282e-07 -3.9631054e-06 7.3187186e-07
000230 f2 fd 9d b6 14 33 01 37 15 5f a9 b7 05 45 90 37
       -4.7085277e-06 7.700892e-06 -2.0190646e-05 1.7198277e-05
000240 2d 15 8e 36 bf a7 db b5 74 13 ce b5 37 99 8e b5
       4.234395e-06 -1.6365592e-06 -1.5353858e-06 -1.0624416e-06
000250 8b 88 fc 35 f5 c2 ee b6 cd 63 13 37 a6 4d 6e b6
       1.8815202e-06 -7.1156487e-06 8.7851195e-06 -3.550996e-06
000260 78 82 6b b6 aa 7b 0c b7 b6 c1 e9 36 c2 f6 a4 36
       -3.5093672e-06 -8.373443e-06 6.966492e-06 4.9163073e-06
000270 63 89 c3 b6 7b 25 f1 b6 c2 0b 80 37 50 00 17 b6
       -5.827447e-06 -7.186723e-06 1.5264264e-05 -2.2500935e-06
000280 91 a1 b1 36 9f 73 5f b6 bf d7 b5 36 82 bf f7 b6
       5.29382e-06 -3.329689e-06 5.4193365e-06 -7.383468e-06
000290 da 9e f4 b5 a9 36 12 b1 9b 04 91 b6 99 3e ce 36
       -1.8225649e-06 -2.1276867e-09 -4.321873e-06 6.1465657e-06
0002a0 76 b1 89 b7 27 23 c6 b4 25 b5 53 37 c4 bd 8b 36
       -1.641431e-05 -3.690595e-07 1.2618756e-05 4.1646144e-06
0002b0 3e 30 b8 36 28 69 00 b7 13 5d 6d 36 b7 31 b8 b5
       5.4892434e-06 -7.653878e-06 3.5369928e-06 -1.3723537e-06
0002c0 ef 13 15 b7 af e4 df b5 67 e1 ca 36 99 3f 97 36
       -8.885733e-06 -1.668135e-06 6.0463094e-06 4.5075544e-06
0002d0 3e ca b0 b6 ab fe 83 36 c9 3b 27 b6 81 69 80 36
       -5.268753e-06 3.9337515e-06 -2.4919739e-06 3.8269795e-06
0002e0 d9 de 59 b6 82 98 57 36 62 57 1d b4 16 bd 41 34
       -3.2465234e-06 3.2126268e-06 -1.4653554e-07 1.8043315e-07
0002f0 28 0a b4 b6 5b 65 ac 36 5d b4 7d b6 f0 7e 86 36
       -5.3656004e-06 5.137799e-06 -3.7804923e-06 4.0082887e-06
000300 6c 0d 99 b3 62 24 95 b5 fd 94 39 b7 99 6b 4d 37
       -7.127059e-08 -1.1111954e-06 -1.1061548e-05 1.2244004e-05
000310 4e 62 bc 34 54 17 94 36 3c db f2 35 53 94 dc b6
       3.5089255e-07 4.4134595e-06 1.8094211e-06 -6.573778e-06
000320 fb 11 d3 36 b9 4a db b6 c7 7d e9 36 0d 45 e1 b6
       6.290383e-06 -6.5354075e-06 6.9585835e-06 -6.713561e-06
000330 37 e0 69 b7 c7 e8 a8 b4 ce 5d 5d 37 50 4d 8e 35
       -1.3940086e-05 -3.1461806e-07 1.3194467e-05 1.0602325e-06
000340 12 37 af b6 8b 5e f9 36 ea c9 c4 35 db b3 76 b6
       -5.2218174e-06 7.4317845e-06 1.4661903e-06 -3.6761546e-06
000350 b6 2a 82 36 68 4e a4 b6 0b 1c fe b6 e2 1f 10 37
       3.879274e-06 -4.8967086e-06 -7.5730545e-06 8.590492e-06
000360 45 d9 06 b7 20 b1 0d b7 2f e8 80 37 5b d0 95 35
       -8.037609e-06 -8.445495e-06 1.5366908e-05 1.1162005e-06
000370 16 ca ff b6 f9 62 1e 37 00 85 10 b7 2c 0e e4 36
       -7.623118e-06 9.440578e-06 -8.614035e-06 6.7965793e-06
000380 23 cf af 36 8b 86 bb b6 ee b6 0d b7 a8 92 13 37
       5.2395203e-06 -5.588697e-06 -8.446847e-06 8.796029e-06
000390 78 59 d4 35 3d 2a 40 36 d7 51 22 36 63 54 e6 b6
       1.582127e-06 2.8634815e-06 2.4187518e-06 -6.864358e-06
0003a0 58 49 f3 b5 5d a6 44 36 64 6f 84 b5 3a a2 0c b4
       -1.8126257e-06 2.9303112e-06 -9.867185e-07 -1.3097534e-07
0003b0 ab 69 9d 36 59 11 f9 b5 62 3a 8a b7 18 e2 64 37
       4.691266e-06 -1.8556995e-06 -1.6478069e-05 1.3642501e-05
0003c0 dd 5d 77 b7 b3 22 24 37 6b ea ff b6 61 30 53 37
       -1.47442015e-05 9.783241e-06 -7.626882e-06 1.2587844e-05
0003d0 3c cd 2c 37 1c e6 e1 34 98 9e 30 b7 54 75 4f b4
       1.0299784e-05 4.2076942e-07 -1.0527343e-05 -1.9321061e-07
0003e0 ee 6d 33 b7 f5 4f b4 35 96 83 ea 36 90 88 1e 36
       -1.0694826e-05 1.3434316e-06 6.989062e-06 2.3623325e-06
0003f0 e9 e7 86 b6 12 ac 83 b6 10 c2 26 b5 20 b6 0f 37
       -4.020509e-06 -3.924136e-06 -6.2122217e-07 8.5658685e-06
