TemporalContextAggregation/models/TCA_T5_K8/model.pth.tar (torch, 989363 bytes, 18 tensors)

pool_layer_before.clusters f4 [512, 4]
-1.1300601 -5.5118933 0.96084636 7.149113 -0.25881413 1.931548 -2.1766725 0.31458876
1.0599544 -3.5484817 1.3536483 1.149442 -0.8602511 0.3791378 -1.2892102 1.5305563
-4.243652 -1.0050106 1.6920717 3.1678076 0.021114953 0.831144 -1.7920924 0.74633604
-0.91384524 1.5618649 0.5226258 -1.1134852 0.92563015 0.2515547 2.062099 -2.4924278
0.715911 -0.6070329 -1.7649077 1.1999305 1.9655963 -2.0075762 -1.2796693 1.2336799
0.92784214 -0.93630683 2.1587238 -1.8202951 -1.197399 1.1455071 0.71978915 -0.81959796
0.2558688 1.1915059 0.0907089 -1.289705 -0.62414396 -0.82767314 -0.09311329 1.5241507
1.1976916 -0.8562505 -0.051071778 0.16566174 -1.1460878 0.47674063 0.013436109 0.55145955
0.30543765 -0.52185035 -0.8268371 1.0836232 0.46879703 2.1018631 -0.59281176 -1.8050795
0.58456284 0.20749773 -2.2176025 1.1893749 0.7592973 -0.34024975 0.2629407 -0.6342758
-0.19541365 0.737696 -0.15210225 -0.46391866 -1.5098106 0.5362474 1.1418637 -0.10483038
0.87645406 -1.520875 3.8358345 -2.6050265 1.0231872 -1.9070033 1.4000922 -0.60678244
-2.421071 0.06129687 1.4329028 1.0010252 0.846557 0.5906303 0.75980014 -2.1485991
-0.7811935 0.28218597 0.28669393 0.32287595 0.39504716 0.7816338 -1.0385504 -0.11472146
-0.24277285 -1.503418 1.4955844 0.31782958 1.038134 -0.26291892 1.3870975 -1.86334
0.88324785 1.3090618 -1.7872682 -0.61647326 0.69843197 -1.3209233 0.9684266 0.086018115
-0.84714526 0.62598467 -2.5860593 2.3776808 0.065067 -0.17246765 -1.0285496 0.9637536
0.91422254 0.418788 -1.0168295 -0.47556373 0.9152614 1.0143648 -1.8933916 -0.319809
0.75262904 -1.3038665 1.2659545 -0.47129488 -0.19695325 0.93376184 -1.7347127 0.78248906
0.8455808 -2.4885597 1.9433221 -0.18017198 0.36706707 0.02702459 1.7453442 -2.0373557
0.9611778 0.20712425 -1.7651196 0.49584535 -0.19896927 0.9491965 1.0145108 -1.7126642
-1.2433976 0.41284284 0.17913747 0.4862627 0.8478583 -0.16493955 -0.02144453 -0.7312768
-0.1244138 0.9764232 1.7526779 -2.8678427 1.021469 0.06343163 0.44991738 -1.3440646
0.72346914 1.4244099 -0.98152703 -1.3243403 -1.4514594 1.0971447 -0.6402501 0.6667289
-1.6865857 1.4652311 0.16181745 -0.016188636 2.0329778 -1.1522385 -0.98780537 0.21316066
-0.32764268 0.5158622 -0.29668248 0.05845539 -2.8550537 2.1038587 -1.2439258 1.7311213
-1.2529433 2.3298953 -1.425176 -0.007302029 0.6162487 1.4744655 -1.0152452 -1.3165718
-0.371215 -0.20101991 0.29241017 0.3359123 -1.6207907 0.6862186 0.4870938 0.40776095
0.7618516 -1.4027914 1.3701701 -0.5363973 -0.9875197 0.98940504 -0.43276545 0.32535598
-2.0374582 0.40500912 -0.2846768 1.8802084 0.99139833 -0.8388848 2.0442934 -2.0963953
0.18371773 0.20038112 -0.43306664 -0.1586605 -1.0425022 2.4178576 -0.7015727 -1.1834552
0.41132763 3.0742834 -1.0206933 -2.694513 0.5837125 0.89297545 -0.13748547 -1.4142082
00000000: cfa5 90bf 6e61 b0c0 07fa 753f 89c5 e440
00000010: 4983 84be f73c f73f 9a4e 0bc0 c711 a13e
00000020: 96ac 873f 531a 63c0 5944 ad3f ea20 933f
00000030: 6b39 5cbf 5a1e c23e d704 a5bf 45e9 c33f
00000040: ffcb 87c0 30a4 80bf ce95 d83f 5cbd 4a40
00000050: 44f9 ac3c dac5 543f 4963 e5bf e10f 3f3f
00000060: c3f1 69bf 30eb c73f ceca 053f af86 8ebf
00000070: 19f6 6c3f c7cb 803e 6ef9 0340 f083 1fc0
00000080: f145 373f 8266 1bbf 7fe8 e1bf 5397 993f
00000090: a998 fb3f 217c 00c0 34cc a3bf 39e9 9d3f
000000a0: 1087 6d3f ceb1 6fbf 8828 0a40 6eff e8bf
000000b0: 5f44 99bf fa9f 923f 1a44 383f 2cd1 51bf
000000c0: 3c01 833e 4483 983f 96c5 b93d 0e15 a5bf
000000d0: e6c7 1fbf 63e2 53bf 2eb2 bebd 5f17 c33f
000000e0: f54d 993f 3c33 5bbf a430 51bd 3ba3 293e
000000f0: 01b3 92bf 5917 f43e 2023 5c3c 742c 0d3f
00000100: 5362 9c3e fc97 05bf 99ab 53bf 2ab4 8a3f
00000110: 2a06 f03e ed84 0640 83c2 17bf d80c e7bf
00000120: e9a5 153f 497a 543e 33ed 0dc0 703d 983f
00000130: 4f61 423f 3735 aebe 2aa0 863e e65f 22bf
00000140: 841a 48be a5d9 3c3f b1c0 1bbe bf86 edbe
00000150: 7941 c1bf 8247 093f 9728 923f 4fb1 d6bd
00000160: 4b5f 603f 08ac c2bf 507e 7540 c1b8 26c0
00000170: ccf7 823f af18 f4bf 3936 b33f 1856 1bbf
00000180: d4f2 1ac0 6d12 7b3d 5c69 b73f 9821 803f
00000190: f6b7 583f 8c33 173f 4382 423f a682 09c0
000001a0: 4cfc 47bf ae7a 903e 8cc9 923e ff4f a53e
000001b0: 9f43 ca3e 2719 483f 38ef 84bf 16f3 eabd
000001c0: 7299 78be 0070 c0bf 4f6f bf3f 8fba a23e
000001d0: 93e1 843f 4f9d 86be 698c b13f ed81 eebf
000001e0: 881c 623f 568f a73f 34c5 e4bf 31d1 1dbf
000001f0: 70cc 323f 0414 a9bf ceea 773f 442a b03d
00000200: 83de 58bf 8840 203f ff81 25c0 ec2b 1840
00000210: d941 853d 5c9b 30be 83a7 83bf 8eb8 763f
00000220: 7d0a 6a3f 616b d63e 7827 82bf 177d f3be
00000230: 924e 6a3f b5d6 813f a85a f2bf 01be a3be
00000240: 4cac 403f 19e5 a6bf cc0a a23f 904d f1be
00000250: 1dae 49be 040b 6f3f 110b debf 3451 483f
00000260: fc77 583f 9044 1fc0 c7be f83f 017f 38be
00000270: 37f0 bb3e ac62 dd3c 7067 df3f 0964 02c0
00000280: c00f 763f 6118 543e 70ef e1bf 71df fd3e
00000290: 9abe 4bbe 8bfe 723f 7ddb 813f 9538 dbbf
000002a0: a727 9fbf 2360 d33e d06f 373e 6df7 f83e
000002b0: 3e0d 593f eae5 28be 70ac afbc f534 3bbf
000002c0: aacc febd dff6 793f c057 e03f bc8a 37c0
000002d0: 7fbf 823f 71e8 813d 925b e63e 4f0a acbf
000002e0: 4635 393f 1053 b63f 5b45 7bbf fc83 a9bf
000002f0: 6cc9 b9bf 3d6f 8c3f 6ee7 23bf bfae 2a3f
00000300: 0ae2 d7bf b18c bb3f 79b3 253e 089e 84bc
00000310: 4f1c 0240 8d7c 93bf d0e0 7cbf ca46 5a3e
00000320: c8c0 a7be 8c0f 043f c4e6 97be eb6e 6f3d
00000330: 33b9 36c0 9fa5 0640 f638 9fbf 6295 dd3f
00000340: 7260 a0bf 011d 1540 2b6c b6bf dc45 efbb
00000350: 7ac2 1d3f 49bb bc3f 8ef3 81bf 6d85 a8bf
00000360: e40f bebe 2ad8 4dbe c9b6 953e b2fc ab3e
00000370: 1276 cfbf 06ac 2f3f 5c64 f93e 0bc6 d03e
00000380: b508 433f ab8e b3bf bc61 af3f 5551 09bf
00000390: 17ce 7cbf a649 7d3f 6f93 ddbe 0f95 a63e
000003a0: b765 02c0 5b5d cf3e 28c1 91be abaa f03f
000003b0: 48cc 7d3f 27c1 56bf b4d5 0240 572b 06c0
000003c0: 8020 3c3e b530 4d3e e9ba ddbe e677 22be
000003d0: b670 85bf 2ebe 1a40 459a 33bf 767b 97bf
000003e0: 8999 d23e 0fc1 4440 14a6 82bf e772 2cc0
000003f0: 2f6e 153f 0a9a 643f fec8 0cbe c604 b5bf

pool_layer_before.clusters2 f4 [1, 512, 4]
-0.88081133 0.6797415 0.2755356 0.613969 0.0028677853 -0.145229 0.15392102 -0.12944256
-0.01046115 -0.04382672 0.18593335 -0.033549022 -0.0010594369 -0.03364262 0.11529187 -0.052551925
-0.0033027707 0.2995025 -0.071319155 -0.009052596 -0.024088902 -0.07606863 -0.0082409335 0.056814183
-0.04864016 -0.008037058 0.007040074 -1.1929775e-05 0.009918326 -0.026814394 0.066842854 0.022246687
0.013453357 0.012984107 0.057438836 0.005046695 0.019459944 -0.022193504 0.025613826 0.019692795
-0.059208058 0.0116076525 -0.021697078 -0.018275026 -0.0002034809 -0.002689021 -0.018000389 -0.019507188
-0.011535685 -0.016676823 -0.022462476 0.015772017 -0.010500086 0.004168332 -0.012518744 -0.011266776
-0.0048438096 0.0010504216 -0.014040124 0.011428731 -0.019996556 0.02131914 -0.013907889 0.003536565
0.008207108 0.0072642267 0.011247395 -0.025418814 0.0033472346 5.5201792e-05 -0.0059565078 0.021144953
-0.008700116 0.01322329 0.0063386397 0.01958914 0.0112045165 -0.011758752 0.0104786465 -0.0077834246
0.019312426 0.007678267 0.014869466 -0.011499703 -0.0061912383 -0.0041230875 -0.000516429 -0.019368414
1.4259206e-05 -0.014376621 -0.0048124488 -0.021744153 0.0095173875 -0.016523307 0.006464365 -0.014435733
-0.0017356179 -0.014910659 0.0035711585 -0.010402413 -0.007958372 -0.0023988255 -0.010674524 -0.013371926
-0.005041511 0.011220236 0.0026137314 0.016415093 0.01576211 -0.0018639016 3.9185827e-05 0.01791705
-0.007711631 0.011196338 0.006544765 0.01579568 0.017226592 -0.0007344521 -0.008421082 -0.017904537
0.010197236 -0.0035870872 0.0008995313 -0.007827868 0.0047975676 -0.00088156207 0.018431908 0.0063838814
0.017421493 0.008716767 -0.0053656925 0.001364809 -0.005586197 -0.021795455 0.003926748 -0.012904449
0.0110168345 0.007860075 -0.007446471 -0.0099817775 -0.011842679 0.026671762 0.0019361454 -0.00081043236
0.0035386265 -0.014452277 -0.0014563915 0.0023551988 -0.00450827 0.005363548 -0.011120743 -0.005949811
-0.011365938 0.008981975 0.006306739 0.01106072 0.0034709338 0.0045319838 0.0076434477 -0.0019284983
-0.0034138088 0.010009747 0.015091068 0.019707056 0.0032778461 -0.020347476 0.0011625474 -0.0070684035
0.0066538523 -0.0026095905 -0.016648253 0.0039297743 0.0036665043 0.030981341 0.0057709045 -0.0015821886
-0.0052758474 -0.019195726 0.0013782204 -0.010453212 0.010137683 -0.016872998 -0.018946772 -0.01830736
-0.0018404892 0.0130546875 0.0057789013 0.00041039466 -0.028747726 0.0003369173 -0.0008755825 0.0030769475
-0.015622164 0.0050719557 0.019504584 0.008956359 0.020187903 -0.0020749774 -0.0060925614 0.0014983052
0.005918774 -0.010855228 -0.0007165266 -0.016833661 -0.025735477 0.012175555 -0.00946653 0.015330435
0.0061281505 -0.016522698 -0.020420361 -0.016729182 -0.014685617 0.014238007 -0.007297237 0.020708855
0.009884289 -0.018579476 -0.018915363 -0.016461069 0.016298356 -0.018452115 0.010091234 -0.012910837
0.010896703 -0.014617626 -0.007995961 -0.023527611 0.012452297 -0.0025172 0.01131198 0.004624144
-0.016610658 -0.004326566 0.0038592336 0.0019570487 0.0038113005 -0.0035020434 0.0041480977 -0.008668447
-0.0059319516 -0.006813024 -0.011587022 -0.011877016 0.010349728 -0.007359904 -0.0074833655 -0.009089911
-0.011660427 0.023693306 -0.009593214 0.016350683 0.020976992 -0.009514457 0.0011494599 -0.012106599
00000000: da7c 61bf 8a03 2e3f 0113 8d3e 132d 1d3f
00000010: 74f1 3b3b e9b6 14be 799d 1d3e 978c 04be
00000020: 3e65 2bbc a683 33bd 5065 3e3e b36a 09bd
00000030: cedc 8aba d8cc 09bd 251e ec3d b040 57bd
00000040: 4c73 58bb 6458 993e c70f 92bd 5751 14bc
00000050: 1756 c5bc dfc9 9bbd fb04 07bc fdb5 683d
00000060: e83a 47bd ddad 03bc 6cb0 e63b fe25 48b7
00000070: 7980 223c dca9 dbbc e8e4 883d af3e b63c
00000080: 786b 5c3c 4bbb 543c fc44 6b3d bf5e a53b
00000090: 766a 9f3c 27cf b5bc 16d4 d13c c952 a13c
000000a0: 2684 72bd 062e 3e3c 12be b1bc 82b5 95bc
000000b0: 7d5d 55b9 493a 30bb 8d75 93bc 8acd 9fbc
000000c0: 2b00 3dbc d59d 88bc 3a03 b8bc 5134 813c
000000d0: 8d08 2cbc 8196 883b 6b1b 4dbc 4998 38bc
000000e0: d2b8 9ebb 4dae 893a 8c08 66bc 923f 3b3c
000000f0: d1cf a3bc 7aa5 ae3c eadd 63bc b7c5 673b
00000100: 1b77 063c c008 ee3b fe46 383c 1e3b d0bc
00000110: 475d 5b3b 7988 6738 cf2e c3bb 2e38 ad3c
00000120: ee8a 0ebc 80a6 583c 5db4 cf3b 6779 a03c
00000130: 2693 373c c8a7 40bc a1ae 2b3c 190c ffbb
00000140: 1835 9e3c f999 fb3b 109f 733c 4069 3cbc
00000150: dfdf cabb f71a 87bb f760 07ba 82aa 9ebc
00000160: d33a 6f37 eb8b 6bbc bfb1 9dbb cb20 b2bc
00000170: d1ee 1b3c e35b 87bc 06d3 d33b da83 6cbc
00000180: ac7d e3ba d64b 74bc 190a 6a3b e26e 2abc
00000190: d563 02bc 9d35 1dbb 33e4 2ebc ec15 5bbc
000001a0: 4233 a5bb 15d5 373c 234b 2b3b f278 863c
000001b0: 8a1f 813c 294e f4ba 765b 2438 c7c6 923c
000001c0: d9b1 fcbb d870 373c 7875 d63b f165 813c
000001d0: c81e 8d3c 3f88 40ba 94f8 09bc 89ac 92bc
000001e0: 4f12 273c 5615 6bbb 86ce 6b3a 7540 00bc
000001f0: ea34 9d3b a118 67ba 83fe 963c e12f d13b
00000200: 85b7 8e3c c5d0 0e3c b1d2 afbb 64e3 b23a
00000210: 6b0c b7bb 628c b2bc f3ab 803b 2f6d 53bc
00000220: f47f 343c 8bc7 003c 8701 f4bb 9c8a 23bc
00000230: cc07 42bc bd7e da3c 42c6 fd3a 3273 54ba
00000240: 4de8 673b 3ec9 6cbc 64e4 beba ae59 1a3b
00000250: 1cba 93bb b4c0 af3b c733 36bc a2f6 c2bb
00000260: 3338 3abc 2229 133c c3a8 ce3b 0638 353c
00000270: 9b78 633b 0981 943b e375 fa3b aac5 fcba
00000280: 35ba 5fbb ecff 233c 8740 773c b170 a13c
00000290: 22d1 563b c0af a6bc 9e60 983a 119e e7bb
000002a0: 8f08 da3b aa05 2bbb eb61 88bc 56c5 803b
000002b0: bc49 703b 95cc fd3c db19 bd3b 7161 cfba
000002c0: 04e1 acbb 5b40 9dbc 67a5 b43a f343 2bbc
000002d0: 8618 263c 3e39 8abc 4336 9bbc 51f9 95bc
000002e0: 923c f1ba 54e3 553c f05c bd3b 3d2a d739
000002f0: 5a80 ebbc 46a4 b039 5987 65ba 9da6 493b
00000300: 1bf4 7fbc a632 a63b 14c8 9f3c b1bd 123c
00000310: 1a61 a53c 58fc 07bb 1ca4 c7bb c862 c43a
00000320: 46f2 c13b 20da 31bc 49d5 3bba bfe6 89bc
00000330: 35d3 d2bc fb7b 473c 8119 1bbc 812c 7b3c
00000340: a7ce c83b 9c5a 87bc 9a48 a7bc a30b 89bc
00000350: f19b 70bc 8846 693c a91d efbb 9ea5 a93c
00000360: b6f1 213c fc33 98bc 64f4 9abc 5dd9 86bc
00000370: 2184 853c e428 97bc b455 253c fa87 53bc
00000380: 1688 323c c47e 6fbc 7e01 03bc fabc c0bc
00000390: b804 4c3c 9cf7 24bb e255 393c 2286 973b
000003a0: 1313 88bc dec5 8dbb 32eb 7c3b d441 003b
000003b0: 03c7 793b 8a82 65bb c4ec 873b 1a06 0ebc
000003c0: d160 c2bb ca3f dfbb 7ed7 3dbc d197 42bc
000003d0: e891 293c 592b f1bb 0537 f5bb daed 14bc
000003e0: 600b 3fbc 7718 c23c db2c 1dbc def1 853c
000003f0: f1d7 ab3c 86e2 1bbc 79a9 963a c25a 46bc

pool_layer_after.clusters f4 [512, 4]
-3.7859824 -3.4943762 2.245784 6.7562366 -1.711318 0.9402159 -0.97049516 1.7611904
0.6375221 -0.90910774 -0.7160039 0.7746765 -2.325793 1.1657497 0.20882483 0.9393492
-4.115936 1.0324279 1.3903098 1.7662362 -0.3133593 1.1188198 0.061208416 -1.0891184
-1.4351583 1.3120652 1.5121636 -1.7391437 0.7241664 1.2007358 -1.7367088 -0.31731206
-0.47167698 -0.91954964 -0.26452398 1.8438406 2.5974233 -0.19229756 -2.793895 0.57015324
0.95979565 -2.4879107 0.6254417 1.2173268 -2.011913 0.085572556 1.139528 0.58562404
1.1354411 2.6344657 -2.294001 -1.6929336 1.9527831 -0.79978305 -1.5657334 0.40821436
1.7122113 -0.4939856 -1.9528035 0.8950684 -1.1186702 -0.08793846 0.95795214 0.16473548
0.22156374 -1.7152436 0.0044401954 1.5818055 0.6419403 0.022730106 0.23010212 -0.8420046
2.1516228 0.69966066 -2.49434 0.011215969 0.17781603 -0.6539437 1.4158415 -1.4240311
-2.5332592 1.753437 2.1955223 -1.5426689 -2.5740204 0.3114073 2.5305638 -0.30270422
0.42633817 -0.8874578 1.6069167 -1.2005384 -2.1766872 -0.9015397 3.8011065 -1.203013
-1.7362559 -0.23090295 0.9479899 1.3542459 0.49713418 1.0943067 0.40966916 -2.293895
-0.3468943 1.3410003 -2.1263304 1.611646 -2.1675243 -0.46791002 0.24095458 2.3152075
1.994258 0.36904797 -1.7247989 -0.27264863 -2.6423345 -1.1995494 1.0973895 2.986102
-1.2435341 1.4156476 0.1289724 -0.2945661 1.9726326 -1.065129 0.17892407 -1.2938002
-0.12792538 -0.36387062 -0.5326336 1.318446 0.12330469 -0.7651068 -0.15768504 0.91717434
0.60183895 -0.39321813 0.8229371 -1.3576552 -0.762509 -1.6381574 -0.13274553 2.621068
2.9289603 -3.7530913 0.63124466 -0.01942713 0.07781472 -0.5388374 -0.86128694 1.4289898
0.87070477 0.8118895 -2.0608518 0.6706618 0.6187258 0.7780481 -1.4902296 0.45671368
2.4528692 1.3092698 -5.385471 2.7015805 -1.4715806 -0.26054746 1.1141019 0.8837151
2.1696746 -0.99645436 0.9552862 -2.4630187 2.2521584 1.7279621 -1.6473024 -2.467255
1.3013364 0.49782354 -0.23535566 -2.1573386 0.7548434 -0.061129186 0.25495094 -1.3393178
1.9975083 0.54716575 -1.0504327 -2.098155 0.09100897 -0.01132476 -0.6428717 0.35426784
2.010661 -0.03037156 -1.7022564 -0.2806871 1.8004527 1.7188468 -3.0240705 -0.47012094
-0.7184822 0.35573345 1.4514496 -1.6326739 0.17261806 -0.61515176 -1.2471932 2.4395077
-2.1556165 -1.6043799 3.3901286 0.26484266 0.9696742 0.5002818 -2.737252 1.9049757
-2.1551962 -0.60368216 3.3485122 -1.3089141 -1.486294 -0.8977163 4.153998 -2.6599503
-0.55427194 0.39960203 1.9704007 -1.8923087 0.80929565 -2.3698099 1.3451041 -0.19191444
-2.0192695 -1.482896 2.0254786 1.8804834 0.8005547 -1.3048251 0.14313263 0.17037958
0.78149027 -1.657805 -0.87519276 2.1401095 0.67518485 -0.62026185 2.3637729 -4.028045
0.8362112 2.1581516 -1.4948736 -1.3567683 0.68437904 0.59453857 -1.4341593 0.43658072
00000000: 894d 72c0 dca3 5fc0 edba 0f40 1733 d840
00000010: 780c dbbf fdb1 703f 5f72 78bf b06e e13f
00000020: a634 233f 49bb 68bf 084c 37bf 3351 463f
00000030: cbd9 14c0 4937 953f 2dd6 553e 3079 703f
00000040: bfb5 83c0 9926 843f acf5 b13f 0714 e23f
00000050: a170 a0be 7d35 8f3f adb5 7a3d 3b68 8bbf
00000060: 44b3 b7bf c1f1 a73f 948e c13f 439c debf
00000070: f862 393f b6b1 993f 794c debf ba76 a2be
00000080: a57f f1be 9b67 6bbf b06f 87be f802 ec3f
00000090: 2f3c 2640 a7e9 44be 2dcf 32c0 90f5 113f
000000a0: 2bb5 753f ee39 1fc0 f21c 203f 5dd1 9b3f
000000b0: 2fc3 00c0 aa40 af3d 0edc 913f 75eb 153f
000000c0: 2256 913f 169b 2840 ead0 12c0 0cb2 d8bf
000000d0: ccf4 f93f 95be 4cbf f469 c8bf 7901 d13e
000000e0: bd29 db3f aeeb fcbe 77f5 f9bf 3423 653f
000000f0: 9630 8fbf 1419 b4bd 5a3c 753f 6bb0 283e
00000100: 9be1 623e 1a8d dbbf 0f7f 913b 9a78 ca3f
00000110: 3356 243f 7d34 ba3c e49f 6b3e 9d8d 57bf
00000120: 30b4 0940 f61c 333f 44a3 1fc0 2fc3 373c
00000130: 6815 363e db68 27bf 4b3a b53f a746 b6bf
00000140: eb20 22c0 a070 e03f 7083 0c40 2d76 c5bf
00000150: c0bc 24c0 c770 9f3e c2f4 2140 0cfc 9abe
00000160: ff48 da3e 6f30 63bf 72af cd3f 3eab 99bf
00000170: d84e 0bc0 4ecb 66bf 5445 7340 54fc 99bf
00000180: a23d debf d371 6cbe 77af 723f ee57 ad3f
00000190: 5f88 fe3e 3e12 8c3f 28c0 d13e 2dcf 12c0
000001a0: 219c b1be e6a5 ab3f cc15 08c0 6b4a ce3f
000001b0: b8b8 0ac0 e791 efbe ccbc 763e 5c2c 1440
000001c0: d943 ff3f dbf3 bc3e 36c6 dcbf 9a98 8bbe
000001d0: 021c 29c0 d68a 99bf 4277 8c3f 4c1c 3f40
000001e0: 202c 9fbf f133 b53f 5711 043e 5ed1 96be
000001f0: 3a7f fc3f 2656 88bf df37 373e 3f9b a5bf
00000200: dffe 02be 404d babe ad5a 08bf d7c2 a83f
00000210: 2b87 fc3d 0ade 43bf 3078 21be f0cb 6a3f
00000220: 1e12 1a3f e353 c9be 01ac 523f a5c7 adbf
00000230: ca33 43bf 24af d1bf 72ee 07be 94bf 2740
00000240: 1674 3b40 a632 70c0 4099 213f a525 9fbc
00000250: 535d 9f3d 3ff1 09bf 4d7d 5cbf 23e9 b63f
00000260: 82e6 5e3f fed7 4f3f ffe4 03c0 7eb0 2b3f
00000270: d064 1e3f 292e 473f d8bf bebf 60d6 e93e
00000280: cffb 1c40 2796 a73f c755 acc0 b2e6 2c40
00000290: c15c bcbf 7a66 85be e49a 8e3f 273b 623f
000002a0: f3db 0a40 a217 7fbf a38d 743f 19a2 1dc0
000002b0: 5d23 1040 dd2d dd3f ceda d2bf 82e7 1dc0
000002c0: 3192 a63f bae2 fe3e 1301 71be d611 0ac0
000002d0: 6b3d 413f 9962 7abd ee88 823e c46e abbf
000002e0: 5aae ff3f 0e13 0c3f 9474 86bf 2c48 06c0
000002f0: e962 ba3d 7c8b 39bc 3d93 24bf 9862 b53e
00000300: abae 0040 c7cd f8bc 8ae3 d9bf 38b6 8fbe
00000310: 3c75 e63f 2c03 dc3f 5f8a 41c0 b1b3 f0be
00000320: 73ee 37bf b222 b63e 1ac9 b93f 75fb d0bf
00000330: cac2 303e 967a 1dbf 07a4 9fbf e520 1c40
00000340: 9ff5 09c0 525c cdbf def7 5840 7599 873e
00000350: 923c 783f 7812 003f 232f 2fc0 3ed6 f33f
00000360: bcee 09c0 ea8a 1abf 064e 5640 7f8a a7bf
00000370: e23e bebf bcd0 65bf 8ded 8440 a03c 2ac0
00000380: c4e4 0dbf a398 cc3e 1736 fc3f 2c37 f2bf
00000390: 002e 4f3f f7aa 17c0 5f2c ac3f 3885 44be
000003a0: b63b 01c0 89cf bdbf 71a1 0140 aeb3 f03f
000003b0: 27f1 4c3f 8204 a7bf 5c91 123e fc77 2e3e
000003c0: bf0f 483f f432 d4bf a20c 60bf 8ef7 0840
000003d0: ead8 2c3f 7bc9 1ebf 0e48 1740 bfe5 80c0
000003e0: f011 563f 281f 0a40 0558 bfbf 95aa adbf
000003f0: 7733 2f3f ae33 183f 8892 b7bf 8287 df3e

pool_layer_after.clusters2 f4 [1, 512, 4]
0.6439585 -0.5037613 -0.7749589 0.53441316 -0.24635448 0.027274383 0.024342554 0.060484868
-0.113251716 0.053752534 -0.07333511 0.01992253 -0.16622634 0.0733117 0.053568564 -0.0034673864
0.33500084 -0.0856181 -0.044582874 -0.11956682 -0.10863048 -0.036426656 0.03427351 0.11918085
0.031995185 -0.028492374 0.00024793617 0.0060006515 0.0072715576 0.007076261 0.014313055 0.0144595625
0.019220829 0.045150716 0.037729472 0.06674675 0.012404609 -0.005418155 0.06490491 0.036760114
0.0011616832 -0.020142326 -0.050339848 -0.027850626 0.018316729 0.0022908428 -0.0019988057 -0.006209897
-0.033101287 -0.012170645 0.0040475805 0.014909683 -0.00992461 -0.030178526 0.026954543 -0.0099772895
-0.014618285 -0.011931029 -0.003852848 -0.0014638108 -0.03205083 -0.011386955 -0.03232479 -0.008385528
6.815104e-05 -0.03258058 0.048788626 -0.020117715 0.0070208246 0.004073825 -0.00829868 0.014739881
-0.0081876 -0.001715212 0.0032752375 0.022358181 0.023105022 0.0038522412 0.011717964 -0.019764947
0.017426314 0.0007111228 0.03033204 0.010357701 -0.005884763 0.0005239638 -0.01521034 -0.02042091
-0.010552953 0.009367225 -0.014772857 -0.011309095 0.017470853 0.0053850734 0.014164639 -0.0046334886
-0.0091058165 0.010763751 -0.027036797 0.00018222979 0.0010645437 0.021261035 -0.059533656 -0.0012018314
0.0014224722 -0.009611391 -0.0001434034 0.0033931464 -0.025170492 0.010184368 0.008825052 0.024165243
0.013546116 -0.013099241 -0.0067857336 0.0041067405 -0.0155122895 0.001339896 -0.0027034043 0.003908413
0.012644657 0.011432286 0.025560858 0.011164143 0.025672253 -0.016383566 0.007886405 0.0026057654
-0.015948083 0.013496806 0.010641957 -0.0008909182 0.015741346 0.0026071542 0.0072367867 0.004085985
0.025623899 -4.8186015e-05 0.0017317621 0.00016432749 -0.024823472 -0.0053251903 -0.0058386074 0.0040685367
-0.014104633 -0.012441904 0.011092502 -0.0042743967 -0.018441262 -0.001295122 -0.01908333 0.0019199721
0.008438114 -0.008982176 0.021346474 0.007437519 0.031270426 -0.0005806581 -0.026210362 0.012474512
0.010505926 0.00021876517 -0.012979243 0.01117813 -0.014323149 0.0036707448 -0.00314585 -0.002104687
-0.008487402 0.0031485313 0.009343889 -0.010735663 -0.0027234617 0.0068549863 0.012776 -0.005513632
0.022627354 5.1262115e-05 -0.03194452 -0.0010476132 -0.019870764 0.00888091 -0.0047537386 -0.009466095
0.007744935 0.005179447 -0.038892154 0.014753702 0.0010436551 -0.00738376 0.013980573 -0.0028572057
-0.010094639 0.009851721 -0.010425962 0.023562308 0.004548846 0.006830763 0.011133182 0.0009204548
0.01712446 -0.004629751 0.012203191 0.00016082113 0.010311456 -0.00830758 -0.016310792 0.005439333
-0.012860092 0.0011755477 0.023112962 -0.006098148 -0.024666226 0.0069378447 -0.010836619 0.0020896904
-0.009134437 0.0014757966 0.007884661 -0.014364376 0.015827518 0.0005289487 0.014057876 -0.0002924038
0.017201236 -0.009197597 0.013525473 0.0024116952 -0.0098982 0.0036602211 -0.012115024 -0.00741004
0.01457421 0.0016315208 0.0026720169 0.0031289426 0.0042663505 0.0019085818 -0.027230194 -0.00070972904
0.009181379 -0.009652622 -3.575648e-05 -0.008712557 0.012279286 -0.0072300714 0.014431259 -0.0005311444
-0.021194967 0.008400011 -0.0101117585 0.0023593255 -0.008771079 0.013912876 -0.008755935 -0.0011789019
00000000: 77da 243f 80f6 00bf b563 46bf 4dcf 083f
00000010: 5944 7cbe 876e df3c 096a c73c fbbe 773d
00000020: 84f0 e7bd 9e2b 5c3d b830 96bd 9334 a33c
00000030: 3d37 2abe 7224 963d b66a 5b3d 173d 63bb
00000040: 3b85 ab3e 8b58 afbd 889c 36bd 73df f4bd
00000050: a879 debd 1e34 15bd 6162 0c3d 1715 f43d
00000060: 620d 033d d768 e9bc 6efd 8139 1da1 c43b
00000070: 3f46 ee3b fbdf e73b 4e81 6a3c cde7 6c3c
00000080: 0075 9d3c f5ef 383d 388a 1a3d 85b2 883d
00000090: b33c 4b3c c78a b1bb deec 843d c691 163d
000000a0: 9f43 983a 8501 a5bc 2831 4ebd ff26 e4bc
000000b0: f70c 963c f721 163b 65fe 02bb 647c cbbb
000000c0: 3795 07bd 6367 47bc 91a1 843b be47 743c
000000d0: d59a 22bc f538 f7bc c6cf dc3c c977 23bc
000000e0: 8881 6fbc 5d7a 43bc 1080 7cbb 57dd bfba
000000f0: bb47 03bd 5a90 3abc 0067 04bd 7463 09bc
00000100: 50ec 8e38 3773 05bd 95d6 473d e8cd a4bc
00000110: f20e e63b b97d 853b 30f7 07bc 8b7f 713c
00000120: 4925 06bc f7d0 e0ba 5ea5 563b 8128 b73c
00000130: be46 bd3c e275 7c3b b4fc 3f3c 19ea a1bc
00000140: a1c1 8e3c a56a 3a3a e67a f83c 59b3 293c
00000150: f8d4 c0bb 9e5a 093a ca34 79bc c149 a7bc
00000160: 4be6 2cbc fd78 193c da09 72bc c849 39bc
00000170: 091f 8f3c 4575 b03b cd12 683c 85d4 97bb
00000180: 9030 15bc 725a 303c 467c ddbc f014 3f39
00000190: 2988 8b3a 9f2b ae3c 90d9 73bd c586 9dba
000001a0: 3f72 ba3a 1979 1dbc 8f5e 16b9 8d5f 5e3b
000001b0: 5932 cebc 56dc 263c f396 103c 30f6 c53c
000001c0: 87f0 5d3c 339e 56bc dc5a debb d691 863b
000001d0: 4227 7ebc 739f af3a 992b 31bb 2512 803b
000001e0: 892b 4f3c 7c4e 3b3c 0165 d13c cfe9 363c
000001f0: 9e4e d23c d436 86bc fb35 013c 7dc5 2a3b
00000200: 8ea5 82bc b521 5d3c 9a5b 2e3c 828c 69ba
00000210: fff3 803c cadc 2a3b 9122 ed3b bae3 853b
00000220: 36e9 d13c 571b 4ab8 4bfc e23a 534f 2c39
00000230: 985a cbbc ef7e aebb ca51 bfbb 5c51 853b
00000240: 1e17 67bc 21d9 4bbc 53bd 353c 3d10 8cbb
00000250: 2112 97bc 15c1 a9ba a554 9cbc 93a7 fb3a
00000260: 0440 0a3c fa29 13bc cdde ae3c 6eb6 f33b
00000270: 6b15 003d 4e37 18ba 1db7 d6bc e561 4c3c
00000280: 0c21 2c3c 5464 6539 e4a6 54bc 7a24 373c
00000290: a4ab 6abc e190 703b 9b2a 4ebb caee 09bb
000002a0: bf0e 0bbc 9757 4e3b 1c17 193c a2e4 2fbc
000002b0: 1b7c 32bb cb9f e03b 6e52 513c b3ab b4bb
000002c0: 005d b93c 4702 5738 42d8 02bd 1150 89ba
000002d0: 03c8 a2bc 3d81 113c 40c5 9bbb ae17 1bbc
000002e0: 39c9 fd3b 5ab8 a93b 614d 1fbd 83b9 713c
000002f0: 41cb 883a 78f3 f1bb c60e 653c f53f 3bbb
00000300: fc63 25bc 1d69 213c a7d1 2abc be05 c13c
00000310: 7c0e 953b 98d4 df3b f367 363c ad4a 713a
00000320: 9848 8c3c 2bb5 97bb e5ef 473c 18a2 2839
00000330: 62f1 283c 841c 08bc 369e 85bc 6f3c b23b
00000340: 23b3 52bc d614 9a3a 6557 bd3c f9d2 c7bb
00000350: d310 cabc dc56 e33b 138c 31bc 30f3 083b
00000360: 9ba8 15bc 846f c13a aa2e 013c 8f58 6bbc
00000370: b6a8 813c 25a9 0a3a 0153 663c c64d 99b9
00000380: 9be9 8c3c 85b1 16bc f299 5d3c 880d 1e3b
00000390: 0f2c 22bc 52e0 6f3b 187e 46bc eccf f2bb
000003a0: abc8 6e3c c1d8 d53a 011d 2f3b f20e 4d3b
000003b0: becc 8b3b 6129 fa3a db11 dfbc 1c0d 3aba
000003c0: 7f6d 163c 0826 1ebc 3af9 15b8 1dbf 0ebc
000003d0: 0f2f 493c 3cea ecbb 1671 6c3c 7f3c 0bba
000003e0: 11a1 adbc 33a0 093c caab 25bc ea9e 1a3b
000003f0: 92b4 0fbc d5f2 633c 0e75 0fbc 6285 9aba

fc.weight f4 [18, 4096]
0.013275692 0.016944908 -0.13553141 -0.06762764 -0.31101796 -0.06418166 -0.09474062 -0.094040245
-0.09443698 0.011569381 -0.028083142 -0.047838654 -0.1602328 0.076818146 -0.043286193 -0.017162861
-0.08507711 0.087267935 -0.052475937 -0.14686808 0.07287845 -0.025896445 0.07160486 0.015335913
-0.18286435 0.054236222 -0.33628106 -0.15563878 -0.3792628 -0.18776818 -0.27405605 -0.08070659
-0.44455397 -0.52845174 -0.38168728 -0.107000954 -0.32546118 -0.36442673 -0.21840873 -0.07919833
0.20515527 0.17691284 0.13844295 0.25850236 0.043849066 0.2933616 0.15833557 0.18122177
0.05677678 -0.012902518 0.24879543 0.11199727 0.24047272 -0.033051804 0.1918618 0.030013254
-0.10308841 -0.3316663 0.15390806 0.14947858 -0.07108865 0.11380479 -0.24301597 -0.20785727
0.30063787 0.032024734 0.21469457 0.11867351 -0.12296781 -0.2921596 0.0350594 -0.20950565
-0.25077426 -0.6568544 -0.18963341 -0.29203355 0.35002437 0.04979371 0.010318455 0.23753929
-0.3512947 -0.1434525 -0.21193111 0.09205205 0.58892256 0.42807397 0.49235022 0.2317382
0.6118728 0.5678722 0.4312855 0.33500358 0.37693715 0.3601778 -0.11715338 0.16967906
0.86376864 0.6049318 0.4807631 -0.075456865 -0.07015044 0.17362003 -0.05987061 0.05421088
-0.42928115 -0.4684953 -0.09950604 -0.23800483 -0.77755517 -0.30046666 -0.41722614 -0.21864727
-0.103790194 -0.60231847 0.07379221 -0.11070047 -0.27467152 -0.3606576 -0.44547838 0.0719933
-0.4469265 0.053156786 -0.457796 -0.05541389 0.24169572 0.24418561 0.054292683 0.047458544
0.089613385 -0.19059706 -0.26967984 -0.023838598 0.6253716 -0.19692563 0.11301194 0.061650768
-0.40290514 -0.21786667 0.013617889 0.076524235 -0.3588278 -0.0829528 -0.002096228 -0.0409675
0.5567928 0.2548974 0.09901522 0.054267343 0.18443447 -0.572447 -0.24583574 -0.2716689
-0.2388766 -0.024219481 -0.46229103 -0.026687095 0.15737611 0.019136824 0.321316 0.28381234
-0.55021 -0.6621333 -0.0075800363 -0.144607 -0.31388116 0.40517083 0.17680743 0.26487723
0.41766238 0.63018835 0.08038967 0.33659157 -0.0023174859 0.06950889 0.2049441 0.40577284
-0.29858416 0.13398698 0.3887841 0.2358375 -0.44982076 0.23104265 0.013090534 0.10500035
-0.16200557 -0.33085084 0.05662362 0.2651356 0.22886485 -0.4966804 -0.3161195 -0.4268155
-0.07535208 -0.17344633 0.31979203 0.031632546 -0.5184381 -0.23182902 -0.47989413 0.3477162
0.30015767 0.6032066 0.27340668 0.16600859 -0.21630685 -0.3100236 -0.6115095 -0.29451784
0.5917996 0.7228616 -0.19092475 -0.17230816 -0.07077715 -0.0763171 -0.25826535 -0.068186164
-0.26327965 0.3442172 -0.4518378 -0.35299072 -0.08817106 0.30919164 0.16767229 0.16498463
0.14315915 0.31029853 -0.3204615 -0.14194891 0.023557093 -0.13605823 0.6715242 0.33718154
0.1473829 0.7187294 0.12928963 -0.22971945 0.2026388 0.049780603 0.120634064 -0.0035523896
-0.1132552 -0.14843726 -0.14811993 0.070250615 0.39077955 0.8424561 -0.0050811362 0.029580653
-0.7428116 -0.16221532 -0.43574363 -0.017334454 0.3198189 0.46791613 0.14486507 0.69250166
00000000: 4a82 593c 0cd0 8a3c bfc8 0abe 5c80 8abd
00000010: bf3d 9fbe ad71 83bd 5f07 c2bd 2c98 c0bd
00000020: 2d68 c1bd 808d 3d3c 9e0e e6bc 77f2 43bd
00000030: 1114 24be d552 9d3d dd4c 31bd 2199 8cbc
00000040: e83c aebd 88b9 b23d 02f1 56bd 9664 16be
00000050: 4c41 953d c824 d4bc 92a5 923d 7b43 7b3c
00000060: cb40 3bbe cd26 5e3d 082d acbe c65f 1fbe
00000070: bc2e c2be 4d46 40be 1351 8cbe 7f49 a5bd
00000080: 949c e3be 9d48 07bf 846c c3be 5123 dbbd
00000090: d9a2 a6be 2496 babe 8aa6 5fbe bc32 a2bd
000000a0: 3914 523e a428 353e fdc3 0d3e 6c5a 843e
000000b0: 149b 333d 7e33 963e b822 223e 3392 393e
000000c0: c58e 683d 1565 53bc 3bc4 7e3e d35e e53d
000000d0: 7b3e 763e 5461 07bd 6b77 443e 5bde f53c
000000e0: 0420 d3bd 2ad0 a9be 139a 1d3e ea10 193e
000000f0: ed96 91bd 7c12 e93d 2ed9 78be 89d8 54be
00000100: 35ed 993e 5e2c 033d e5d8 5b3e 190b f33d
00000110: 8cd6 fbbd f195 95be 729a 0f3d a688 56be
00000120: 7c65 80be 9c27 28bf 432f 42be 6c85 95be
00000130: 6536 b33e 7df4 4b3d bd0e 293c 803d 733e
00000140: e6dc b3be 36e5 12be 7804 59be c985 bc3d
00000150: a1c3 163f 832c db3e 5415 fc3e c74c 6d3e
00000160: b2a3 1c3f 1360 113f 74d1 dc3e 9785 ab3e
00000170: e8fd c03e 3969 b83e 1cee efbd 59c0 2d3e
00000180: f11f 5d3f cfdc 1a3f 9526 f63e 2189 9abd
00000190: 09ab 8fbd 73c9 313e e23a 75bd 3a0c 5e3d
000001a0: bdca dbbe 9ede efbe d3c9 cbbd 8ab7 73be
000001b0: db0d 47bf c4d6 99be aa9e d5be 12e5 5fbe
000001c0: f48f d4bd 8b31 1abf 5f20 973d eeb6 e2bd
000001d0: bfa1 8cbe 1da8 b8be be15 e4be 3971 933d
000001e0: 8dd3 e4be eeba 593d 3d64 eabe adf9 62bd
000001f0: 157f 773e cb0b 7a3e 0162 5e3d e463 423d
00000200: 3987 b73d e02b 43be 7a13 8abe 2a49 c3bc
00000210: 5a18 203f dfa6 49be ce72 e73d 8485 7c3d
00000220: 9549 cebe 7118 5fbe 911d 5f3c bdb8 9c3d
00000230: 47b8 b7be 28e3 a9bd df60 09bb 8acd 27bd
00000240: f989 0e3f e981 823e 7ec8 ca3d 6f47 5e3d
00000250: 64dc 3c3e e38b 12bf 5dbc 7bbe 3018 8bbe
00000260: 119c 74be ef67 c6bc 69b1 ecbe e59e dabc
00000270: 3427 213e d4c4 9c3c 8883 a43e da4f 913e
00000280: 90da 0cbf 9181 29bf f461 f8bb db13 14be
00000290: 08b5 a0be 8d72 cf3e 020d 353e fd9d 873e
000002a0: d8d7 d53e 0654 213f 57a3 a43d bb55 ac3e
000002b0: f6e0 17bb ad5a 8e3d dedc 513e 75c1 cf3e
000002c0: 06e0 98be e233 093e b60e c73e 637f 713e
000002d0: e84e e6be 7296 6c3e ae79 563c 6c0a d73d
000002e0: cae4 25be 4865 a9be 2bee 673d dabf 873e
000002f0: 8c5b 6a3e e54c febe 6ada a1be 9087 dabe
00000300: 3152 9abd ea9b 31be c8bb a33e 2191 013d
00000310: 5cb8 04bf 9664 6dbe afb4 f5be dc07 b23e
00000320: 44ae 993e bf6b 1a3f f6fb 8b3e 28fe 293e
00000330: 8b7f 5dbe 6abb 9ebe e38b 1cbf 0bcb 96be
00000340: 2e80 173f 750d 393f c781 43be 8d71 30be
00000350: 9cf3 90bd 244c 9cbd 5b3b 84be 30a5 8bbd
00000360: 97cc 86be 3d3d b03e 4957 e7be 33bb b4be
00000370: 0793 b4bd 5e4e 9e3e 49b2 2b3e bbf1 283e
00000380: 5098 123e 73df 9e3e 8813 a4be 0e5b 11be
00000390: cefa c03c d952 0bbe 03e9 2b3f 0fa3 ac3e
000003a0: 8beb 163e a6fe 373f 8064 043e 933b 6bbe
000003b0: 8c80 4f3e bfe6 4b3d fe0e f73d 35cf 68bb
000003c0: 58f2 e7bd f0ff 17be c0ac 17be 8edf 8f3d
000003d0: 4214 c83e 34ab 573f a97f a6bb 2053 f23c
000003e0: e728 3ebf c61b 26be ca19 dfbe fc00 8ebc
000003f0: 4ebf a33e b492 ef3e 8257 143e ca47 313f

fc.bias f4 [18]
0.38481474 -0.61284983 -1.1064298 -1.1032495 -1.4417778 -1.0427762 -1.1369833 -1.2345872
-0.7998239 -0.82700914 -0.4882501 -0.3522269 -0.8775634 -0.9510646 -1.1844001 -1.3995837
-0.6795488 -0.6614763
00000000: 7006 c53e bae3 1cbf 7e9f 8dbf 4837 8dbf
00000010: 2d8c b8bf b179 85bf ab88 91bf f406 9ebf
00000020: 42c1 4cbf dfb6 53bf ebfb f9be 1657 b4be
00000030: ffa7 60bf f878 73bf 6c9a 97bf 8f25 b3bf
00000040: e9f6 2dbf 8356 29bf

exp_avg f4 [512, 4]
-7.3196097e-06 -1.1292095e-05 3.9685146e-05 -2.107346e-05 4.351193e-06 -1.2404392e-05 1.4737865e-05 -6.6846637e-06
3.982117e-06 -4.5624006e-06 -9.3967134e-07 1.5199596e-06 -1.6153884e-06 -3.5939588e-06 1.3380875e-05 -8.171523e-06
3.7993675e-06 -6.4382257e-06 -1.34889615e-05 1.612782e-05 2.5757151e-06 -1.1731338e-05 1.2505501e-05 -3.3498745e-06
6.9988446e-06 -1.1245424e-05 1.5664841e-06 2.6800963e-06 -9.798157e-06 1.0735805e-06 2.9332946e-06 5.791287e-06
1.159242e-05 -5.7656825e-06 6.0073676e-06 -1.1834109e-05 7.1632976e-06 -4.7860085e-06 5.3208473e-06 -7.69814e-06
-3.3229703e-06 5.534977e-06 9.54978e-07 -3.1669856e-06 -7.1192644e-06 -5.342645e-07 5.6161774e-08 7.5973658e-06
1.1099509e-06 -3.0678502e-06 -9.514144e-07 2.9093155e-06 -3.9997303e-06 7.261379e-06 -3.314792e-06 5.3143143e-08
-2.5075173e-09 -1.1281345e-06 2.4690055e-06 -1.3383651e-06 3.1855454e-06 1.1073138e-06 1.175325e-06 -5.4681864e-06
3.8166414e-07 5.0908834e-06 -1.2256189e-06 -4.2469314e-06 5.9704703e-06 -4.2060597e-06 5.5344453e-06 -7.298855e-06
4.8709658e-06 -4.839834e-06 -6.9626094e-07 6.651284e-07 1.6784995e-07 5.2231285e-06 -2.0118575e-06 -3.3791196e-06
6.181369e-06 6.7200057e-07 -1.7542981e-06 -5.09907e-06 6.7371644e-07 -1.2689643e-06 5.0277745e-06 -4.432528e-06
-1.1102402e-06 -5.6914396e-06 4.515989e-06 2.2856905e-06 -5.270471e-07 -1.3949846e-06 2.0419617e-07 1.7178379e-06
5.793966e-08 3.7141458e-06 -2.4657293e-06 -1.306357e-06 1.2579518e-07 2.7957449e-06 -1.5124928e-06 -1.4090472e-06
-1.0008177e-06 -1.7035279e-06 -9.2292885e-07 3.6272772e-06 -2.1448598e-06 1.4948915e-06 1.9049372e-06 -1.2549714e-06
-6.2484963e-07 -1.5591659e-06 4.3928735e-06 -2.2088577e-06 -6.5077734e-07 -3.5984706e-07 5.4261845e-06 -4.4155604e-06
1.1053406e-07 2.8512047e-06 -2.7984876e-07 -2.6818886e-06 -9.423518e-07 -1.6487393e-06 4.450522e-06 -1.8594311e-06
-1.3376496e-06 -7.980074e-07 -5.9497034e-07 2.730627e-06 -1.1109612e-06 4.1679896e-06 -1.9491058e-06 -1.1079237e-06
-3.3847883e-07 -9.187971e-07 2.0400496e-06 -7.827748e-07 1.5148771e-06 -9.657947e-07 1.505592e-06 -2.0546768e-06
-2.7093151e-06 -7.215778e-07 -1.2368864e-06 4.6677783e-06 -2.6653382e-07 1.0288403e-06 2.452954e-07 -1.0076028e-06
-2.7464563e-07 -8.258231e-07 -1.4462379e-06 2.5467061e-06 1.4901947e-07 1.1796304e-06 2.3721784e-06 -3.7008297e-06
-1.7268908e-06 -3.4166146e-06 3.4805869e-06 1.6629191e-06 1.2803996e-06 -2.565551e-06 3.7971608e-06 -2.5120091e-06
-1.593794e-06 8.7543816e-07 1.6558871e-06 -9.3753005e-07 9.4573136e-07 -2.8867587e-06 -2.0984147e-07 2.1508674e-06
2.2981058e-06 -6.0211036e-08 -2.1831681e-06 -5.472611e-08 2.5564857e-06 -2.8301051e-06 -2.1927979e-06 2.466417e-06
-6.47939e-07 6.70036e-07 3.459285e-07 -3.6802555e-07 -3.3771354e-07 1.6779688e-06 1.1827082e-06 -2.5229658e-06
1.0872628e-06 2.0511961e-06 -2.737385e-07 -2.8647191e-06 6.888903e-07 -1.6794646e-06 -1.3463563e-06 2.3369323e-06
-2.612351e-06 2.3791797e-06 -3.3381511e-06 3.5713226e-06 -1.0289707e-06 4.9219934e-06 -3.92231e-06 2.9288016e-08
9.591e-07 -3.7217373e-07 1.2390421e-06 -1.8259684e-06 -5.525285e-07 7.1906794e-07 -7.151583e-07 5.486214e-07
-5.1397217e-07 1.2390877e-06 -2.8111137e-07 -4.440039e-07 9.900784e-07 8.79061e-08 1.3991956e-06 -2.4771807e-06
-4.4942453e-07 -1.3756539e-06 3.0163262e-06 -1.1912491e-06 -4.738742e-06 1.5665318e-06 1.0491663e-06 2.1230437e-06
1.5978374e-06 6.7728524e-07 -2.6217474e-06 3.466228e-07 -8.3500385e-07 9.570464e-07 2.1794635e-06 -2.3015077e-06
-2.4796989e-06 2.2571498e-06 2.5070588e-06 -2.2845104e-06 3.264795e-06 -4.3356017e-06 2.3522018e-06 -1.2813946e-06
-2.9101923e-06 1.9817712e-06 8.4115135e-07 8.726857e-08 1.5946935e-07 -2.0046034e-06 1.419163e-06 4.2597077e-07
00000000: f89a f5b6 2e73 3db7 9a73 2638 e9c6 b0b7
00000010: 7700 9236 751c 50b7 a642 7737 d34c e0b6
00000020: 209e 8536 b916 99b6 b93d 7cb5 6a01 cc35
00000030: 53d0 d8b5 be2f 71b6 6c7e 6037 6d18 09b7
00000040: a3f8 7e36 f007 d8b6 a64e 62b7 3b4a 8737
00000050: 73da 2c36 b7d1 44b7 b8ce 5137 68ce 60b6
00000060: 9ed7 ea36 baaa 3cb7 fc3f d235 b4db 3336
00000070: c462 24b7 f217 9035 9ed9 4436 c752 c236
00000080: 117d 4237 d676 c1b6 e592 c936 1c8b 46b7
00000090: 425c f036 8097 a0b6 bb89 b236 4227 01b7
000000a0: 3200 5fb6 17b9 b936 cb2c 8035 6688 54b6
000000b0: 04e2 eeb6 606a 0fb5 8636 7133 e0ec fe36
000000c0: 9ff9 9435 44e1 4db6 b364 7fb5 a93d 4336
000000d0: 6c35 86b6 c5a6 f336 b173 5eb6 813f 6433
000000e0: b650 2cb1 686a 97b5 31b1 2536 e0a1 b3b5
000000f0: 41c7 5536 039f 9435 dcbf 9d35 5d7b b7b6
00000100: 85e7 cc34 5bd2 aa36 f27f a4b5 dd80 8eb6
00000110: f355 c836 c721 8db6 86b4 b936 b0e8 f4b6
00000120: 4771 a336 dc65 a2b6 b0e6 3ab5 478b 3235
00000130: 3e3a 3434 5542 af36 7303 07b6 d5c4 62b6
00000140: 8e69 cf36 8763 3435 3975 ebb5 ae18 abb6
00000150: 71d9 3435 4851 aab5 41b4 a836 20bb 94b6
00000160: 9003 95b5 18f9 beb6 0d88 9736 dd63 1936
00000170: 677a 0db5 4e3b bbb5 0441 5b34 7690 e635
00000180: 54d9 7833 8a40 7936 e878 25b6 1656 afb5
00000190: 5112 0734 889e 3b36 db00 cbb5 7e1e bdb5
000001a0: d653 86b5 c6a4 e4b5 30bf 77b5 266c 7336
000001b0: 69f0 0fb6 15a4 c835 25ad ff35 7d70 a8b5
000001c0: 57bb 27b5 8844 d1b5 7f66 9336 e33b 14b6
000001d0: 14b1 2eb5 0131 c1b4 9212 b636 6029 94b6
000001e0: be5e ed33 5357 3f36 1f3e 96b4 7ffa 33b6
000001f0: ecf5 7cb5 404a ddb5 b155 9536 9191 f9b5
00000200: 4a89 b3b5 a736 56b5 0db6 1fb5 d13f 3736
00000210: 561c 95b5 c2da 8b36 62cd 02b6 f8b3 94b5
00000220: 2db8 b5b4 42a3 76b5 c9e7 0836 e01f 52b5
00000230: c852 cb35 74a0 81b5 bf13 ca35 14e3 09b6
00000240: aed1 35b6 73b2 41b5 1803 a6b5 e99f 9c36
00000250: 2118 8fb4 af16 8a35 25b1 8334 f83c 87b5
00000260: 0273 93b4 22ae 5db5 5b1c c2b5 14e8 2a36
00000270: 2902 2034 cb53 9e35 b731 1f36 c55b 78b6
00000280: 84c7 e7b5 fe48 65b6 0794 6936 7731 df35
00000290: 32da ab35 d52b 2cb6 bad2 7e36 fd93 28b6
000002a0: 58ea d5b5 a7ff 6a35 d93f de35 93aa 7bb5
000002b0: 2ade 7d35 23ba 41b6 c950 61b4 9f57 1036
000002c0: 2839 1a36 5e4d 81b3 8b82 12b6 ff0b 6bb3
000002d0: 1790 2b36 d6ec 3db6 fb27 13b6 b984 2536
000002e0: 07ee 2db5 86dc 3335 0db8 b934 0c95 c5b4
000002f0: ff4e b5b4 9236 e135 8bbd 9e35 3950 29b6
00000300: 11ee 9135 48a7 0936 55f6 92b4 803f 40b6
00000310: 2eec 3835 f769 e1b5 73b4 b4b5 31d4 1c36
00000320: d94f 2fb6 ffa9 1f36 0005 60b6 dbaa 6f36
00000330: 2a1b 8ab5 9a27 a536 639c 83b6 0795 fb32
00000340: 6dba 8035 2bcf c7b4 2a4d a635 cc13 f5b5
00000350: 7851 14b5 f905 4135 4ef9 3fb5 fa44 1335
00000360: e6f7 09b5 bb4e a635 a7eb 96b4 6e5f eeb4
00000370: d6e2 8435 e4c6 bc33 ffcb bb35 a43d 26b6
00000380: 7048 f1b4 1ca3 b8b5 176c 4a36 02e3 9fb5
00000390: 7c01 9fb6 9f41 d235 14d1 8c35 9d79 0e36
000003a0: 4675 d635 b0ce 3535 47f1 2fb6 7a17 ba34
000003b0: 0725 60b5 dd73 8035 e642 1236 9a73 1ab6
000003c0: e768 26b6 8a79 1736 f13e 2836 974f 19b6
000003d0: c018 5b36 897a 91b6 85da 1d36 62fc abb5
000003e0: b94c 43b6 92fe 0436 7bcb 6135 6768 bb33
000003f0: 9a3a 2b34 d386 06b6 127a be35 fab0 e434

exp_avg_sq f4 [512, 4]
1.6783886e-08 1.4601089e-08 1.845606e-08 6.049652e-09 2.2001327e-09 1.3182676e-09 2.6003182e-09 3.2364305e-09
1.7413703e-09 1.3296168e-09 2.0383457e-09 2.1782969e-09 1.8783541e-09 1.4271013e-09 1.9236874e-09 1.8560735e-09
9.827189e-10 1.0537254e-09 1.1367053e-09 1.2870303e-09 8.59864e-10 8.7718083e-10 8.9614477e-10 9.495444e-10
5.181436e-10 6.0574673e-10 4.9751653e-10 6.013517e-10 5.68083e-10 4.5211437e-10 7.0655587e-10 8.7275404e-10
6.8119466e-10 5.686611e-10 7.202933e-10 7.687044e-10 4.380899e-10 4.651152e-10 4.679427e-10 5.014952e-10
4.9319704e-10 5.530525e-10 5.427004e-10 5.1789323e-10 4.2305612e-10 3.7936912e-10 4.6537468e-10 5.273544e-10
3.533615e-10 3.5037054e-10 4.2180326e-10 4.7690185e-10 3.815077e-10 4.1995543e-10 3.853446e-10 4.063621e-10
3.449378e-10 3.7181394e-10 3.520793e-10 3.5855288e-10 3.218785e-10 3.1110328e-10 3.4249614e-10 3.755514e-10
2.9787106e-10 2.7524863e-10 3.3803838e-10 3.2806016e-10 2.9547892e-10 3.30382e-10 3.1673839e-10 3.081186e-10
2.505925e-10 2.89674e-10 2.7072508e-10 2.4758487e-10 2.761958e-10 3.0348576e-10 2.779035e-10 2.566339e-10
2.3586935e-10 2.5846714e-10 2.537166e-10 2.4078398e-10 2.5130903e-10 3.4144645e-10 2.5345223e-10 2.0218051e-10
2.1421717e-10 2.375993e-10 2.4206717e-10 2.5887806e-10 1.9441142e-10 1.924279e-10 2.3590574e-10 2.432337e-10
1.8652647e-10 2.0769253e-10 2.0147287e-10 1.96043e-10 1.8535352e-10 1.9531005e-10 2.0136924e-10 2.1855616e-10
1.8068513e-10 2.1533385e-10 1.9059695e-10 1.7747877e-10 1.7488413e-10 1.7348072e-10 1.9997996e-10 2.1425738e-10
1.9636014e-10 1.8606972e-10 1.9732786e-10 1.9945064e-10 1.6687228e-10 1.7576413e-10 1.84325e-10 1.8358544e-10
1.6022354e-10 1.8874158e-10 1.6906056e-10 1.6759272e-10 1.5695048e-10 2.1221411e-10 1.5534346e-10 1.3991087e-10
1.5672168e-10 1.6938606e-10 1.6285047e-10 1.6950569e-10 1.5178077e-10 1.7789814e-10 1.5136277e-10 1.3713518e-10
1.5096262e-10 1.9217199e-10 1.637037e-10 1.3083058e-10 1.4305039e-10 1.4272515e-10 1.4524489e-10 1.6796249e-10
1.3258121e-10 1.3643638e-10 1.3768908e-10 1.4415459e-10 1.3041432e-10 1.6544263e-10 1.3744872e-10 1.2991591e-10
1.345942e-10 1.4383482e-10 1.4617567e-10 1.5603759e-10 1.3289912e-10 1.4027578e-10 1.3656427e-10 1.2817881e-10
1.4237693e-10 1.6788722e-10 1.5343359e-10 1.3500621e-10 1.2187028e-10 1.424625e-10 1.3282862e-10 1.1756644e-10
1.1228035e-10 1.2523368e-10 1.2099123e-10 1.2947872e-10 1.2064201e-10 1.4802264e-10 1.1824212e-10 1.0665287e-10
1.3316802e-10 1.5994774e-10 1.1999632e-10 8.82923e-11 1.1884879e-10 1.4345201e-10 1.14305974e-10 8.705129e-11
1.01990444e-10 1.1698953e-10 9.718308e-11 9.085324e-11 1.05735566e-10 1.168976e-10 1.05075955e-10 9.124606e-11
9.716032e-11 1.168786e-10 9.972088e-11 9.069728e-11 1.0197038e-10 1.13572034e-10 9.7364006e-11 9.070647e-11
9.592839e-11 1.1903768e-10 9.537088e-11 7.7422284e-11 1.0276564e-10 1.2459873e-10 1.1195299e-10 7.936718e-11
9.82535e-11 1.3052645e-10 8.916657e-11 6.483634e-11 8.380241e-11 9.2297836e-11 8.720816e-11 8.0888386e-11
9.6555146e-11 9.355016e-11 8.9934823e-11 8.31637e-11 8.269124e-11 1.0602636e-10 8.098589e-11 7.3938584e-11
8.1943695e-11 8.8724e-11 8.561302e-11 8.079656e-11 7.188718e-11 1.00366666e-10 8.517244e-11 6.725553e-11
7.602138e-11 9.3006124e-11 8.2216886e-11 6.1238514e-11 7.923078e-11 8.7921066e-11 8.148941e-11 7.285575e-11
8.343827e-11 8.9161414e-11 8.0461214e-11 7.2746247e-11 8.6731664e-11 1.1334849e-10 8.447698e-11 5.1105002e-11
7.525806e-11 8.234851e-11 7.412753e-11 6.8986136e-11 7.9367325e-11 8.5675834e-11 7.710204e-11 7.627401e-11
00000000: 282c 9032 45d8 7a32 4e89 9e32 4ddd cf31
00000010: 2531 1731 6b2e b530 48b1 3231 e367 5e31
00000020: 0555 ef30 bbbd b630 f512 0c31 01b1 1531
00000030: 5b14 0131 aa23 c430 de31 0431 c818 ff30
00000040: 5910 8730 abd2 9030 433a 9c30 5ae3 b030
00000050: 8d5b 6c30 1d1e 7130 9554 7630 2081 8230
00000060: 1d6d 0e30 a381 2630 9dc1 0830 5d4c 2530
00000070: 4a27 1c30 718d f82f 7337 4230 9be6 6f30
00000080: d03e 3b30 f84f 1c30 23fe 4530 c34c 5330
00000090: acd7 f02f 25b3 ff2f 8aa0 0030 96d9 0930
000000a0: a891 0730 9c05 1830 252d 1530 7f5b 0e30
000000b0: db93 e82f 758f d02f aad7 ff2f 44f5 1030
000000c0: 3643 c22f 459e c02f 88e3 e72f fc16 0330
000000d0: 6fbc d12f 79df e62f 6ed8 d32f 6266 df2f
000000e0: aea1 bd2f 2968 cc2f c28e c12f d51d c52f
000000f0: 5ff4 b02f e507 ab2f 0c4a bc2f 2976 ce2f
00000100: a0c1 a32f cd51 972f acd6 b92f 5d5a b42f
00000110: f670 a22f 22a1 b52f f720 ae2f d663 a92f
00000120: c2c3 892f fe3f 9f2f 2bd5 942f 791c 882f
00000130: 1ad7 972f d3d7 a62f 71c7 982f 0316 8d2f
00000140: a9ab 812f 0418 8e2f 707b 8b2f 555f 842f
00000150: 9a28 8a2f 51b6 bb2f 3b56 8b2f c14c 5e2f
00000160: c688 6b2f 219f 822f ed13 852f d951 8e2f
00000170: f3c1 552f a393 532f c8b0 812f 1ab8 852f
00000180: 8916 4d2f 405c 642f 9285 5d2f 338d 572f
00000190: 61cc 4b2f e4be 562f 6768 5d2f 174e 702f
000001a0: 58aa 462f 17c3 6c2f 4690 512f d523 432f
000001b0: 8249 402f 7bbe 3e2f 5be1 5b2f 1794 6b2f
000001c0: 77e6 572f f895 4c2f dbf6 582f 5d4c 5b2f
000001d0: 5f7a 372f 3441 412f e0aa 4a2f b5da 492f
000001e0: eb2a 302f 0886 4f2f 51e2 392f 2845 382f
000001f0: a291 2c2f f654 692f 4ccd 2a2f 69d5 192f
00000200: 3b51 2c2f f03d 3a2f 550e 332f 9c5f 3a2f
00000210: 7de2 262f e099 432f d56c 262f 1fc8 162f
00000220: 33fc 252f 9b4b 532f 7ffe 332f 89d9 0f2f
00000230: 1b49 1d2f 8fed 1c2f cdb2 1f2f 3dad 382f
00000240: 4bc6 112f 6d03 162f 0864 172f e97f 1e2f
00000250: 5e64 0f2f f6e7 352f 6020 172f 14d8 0e2f
00000260: e6fc 132f e725 1e2f cbb8 202f ad90 2b2f
00000270: c71f 122f 1f3c 1a2f 6d27 162f 21ef 0c2f
00000280: 8b8b 1c2f 0d98 382f b7b3 282f df70 142f
00000290: 6fff 052f a1a3 1c2f ef0b 122f 0344 012f
000002a0: 38e8 f62e 26b2 092f 0108 052f 055d 0e2f
000002b0: b5a5 042f abc0 222f 3302 022f 3a88 ea2e
000002c0: 776b 122f 49dd 2f2f f6ef 032f 2528 c22e
000002d0: f6ac 022f 27ba 1d2f 8b5c fb2e 856d bf2e
000002e0: 8447 e02e a0a1 002f 36b5 d52e d4c9 c72e
000002f0: d583 e82e c087 002f 8110 e72e f7a6 c82e
00000300: 66a8 d52e 6782 002f dd49 db2e 0872 c72e
00000310: 383c e02e 5fbf f92e 101b d62e 3477 c72e
00000320: e2f2 d22e 21e2 022f 08b9 d12e df40 aa2e
00000330: eafb e12e 6dff 082f ee2f f62e c087 ae2e
00000340: ce0f d82e ee83 0f2f 5114 c42e 9d93 8e2e
00000350: 9048 b82e 10f7 ca2e d4c5 bf2e 1de0 b12e
00000360: b753 d42e 0fb8 cd2e cec4 c52e 00e1 b62e
00000370: 08d7 b52e 8927 e92e 0117 b22e b997 a22e
00000380: 3332 b42e 2c1b c32e d843 bc2e 6bac b12e
00000390: e214 9e2e 69b5 dc2e d24b bb2e 7fe5 932e
000003a0: 3b2c a72e cb85 cc2e fecb b42e 38aa 862e
000003b0: f73a ae2e 2957 c12e 7632 b32e 2436 a02e
000003c0: 927b b72e 6a11 c42e a3ef b02e 7ff8 9f2e
000003d0: 96b9 be2e 8741 f92e 50c4 b92e 1ec3 602e
000003e0: 857e a52e 1716 b52e 1702 a32e beb3 972e
000003f0: d587 ae2e 3567 bc2e 978c a92e 73ba a72e
