TemporalContextAggregation/models/TCA_T45_K8/model.pth.tar (torch, 989373 bytes, 18 tensors)

pool_layer_before.clusters f4 [512, 4]
-0.26064986 0.45884284 -2.599945 2.5875266 1.4556535 0.36009294 -0.7428725 -0.7624993
0.9027586 -2.8248315 0.606834 0.5847847 1.9526608 1.1092788 -1.0505615 -1.0553591
-0.86612225 4.0912185 -2.074953 0.5870029 -0.08641197 2.1866255 -0.2043242 -1.1337711
-0.23295173 3.3887491 -1.6626222 -0.38774222 0.5179944 -0.85973704 0.13536984 0.09821811
1.2869773 -1.3836521 -0.6741669 0.5016187 0.76592606 -1.7388539 0.916752 -0.51639307
-1.7417679 -0.3201855 0.34755173 1.4014254 -1.4298832 3.6674843 -0.9215692 -0.022888474
-0.059759546 2.1078122 0.3878195 -1.6300069 -0.20494115 -1.4405168 0.4699484 0.6572108
0.12297 -2.2044098 1.4673296 -0.23046945 -0.9535647 3.3466887 -0.8926495 -0.3910768
0.35055116 -2.0982578 -0.018761292 1.1556472 1.7733555 -2.4149823 1.0074773 -1.1595042
1.7564335 0.58629143 1.4880722 -3.8058453 -0.3534069 -0.2687642 0.29230458 0.30195007
0.07109272 -0.17117666 -0.5010401 0.68258995 -0.3447666 0.17721121 -0.6597488 1.0458915
-2.4212766 -1.5232018 1.2384545 1.5840968 -1.1365023 -2.0727663 -0.4210035 2.7645037
-0.5184416 -0.51311404 -0.9141527 1.8727257 -0.42211294 1.8727562 0.4197461 -1.4235574
0.6085897 1.6970654 1.3857335 -3.187024 -0.27879763 0.61193633 -0.25349668 0.17437889
0.47972304 -0.45594212 0.9491733 -1.2842233 -2.4979951 1.1308577 0.5675278 1.0474166
0.39467835 0.30107588 -0.0061143315 -0.55985695 -1.3035187 -1.7709664 1.685112 0.6653202
-0.18924849 1.4792719 -0.764004 0.06240284 0.09645205 -1.0733484 -0.47845298 1.2219678
0.34248614 0.7617708 0.7842211 -1.6676922 -0.07915361 0.6018383 0.7537603 -1.0610002
0.68721575 -4.4328017 -0.26675138 2.5549583 -0.7281104 2.4711292 0.008057031 -0.9621378
0.37590447 -0.9757999 -0.33084103 0.5099373 -0.4954481 -0.74423414 0.4420741 0.377883
2.91446 0.08162831 -0.49294516 -2.3539329 -1.7297721 4.2147126 -1.1914215 0.06455435
-0.6782882 1.5369071 -1.8739278 1.8572323 -1.3203804 1.4349645 -0.61466265 0.78334373
-1.8533497 0.24858646 2.0289376 -0.8355207 -1.4423735 -0.13984492 0.46518415 1.1691338
-1.6530125 0.27267483 1.8366019 -0.7298631 0.9576013 0.47629684 -0.1335814 -1.1482682
-0.06828315 -1.1438885 0.58052164 0.17181726 -0.40863505 2.4369419 -0.54806066 -0.6004372
-1.762683 1.713628 -0.9524158 1.6190401 0.27896565 3.263679 -1.8950698 -0.30936676
-0.3483505 0.9572168 -1.8812779 2.0068333 0.7263596 0.56300503 0.7211929 -1.8138344
-1.8328577 -0.8783199 0.6920039 1.6949219 -0.6918278 -1.0121394 0.18885268 1.0762622
0.030438565 -1.7492665 -0.33996454 1.4043219 -0.02985914 -0.5019549 -0.5352027 0.87113386
2.1849198 -0.31489855 -1.2402407 -0.5074465 -1.6283674 1.4081882 0.8106738 -0.32030243
0.79657364 -2.9548006 0.79385173 0.18091144 -1.3509849 0.706625 1.1817157 -0.3412504
-1.0121888 2.9980853 0.31121358 -1.3867007 -2.248439 -1.4330488 1.6663809 1.3660872
00000000: e673 85be 73ed ea3e 8065 26c0 099a 2540
00000010: db52 ba3f 1a5e b83e e42c 3ebf 2733 43bf
00000020: 301b 673f 0aca 34c0 7959 1b3f 73b4 153f
00000030: caf0 f93f d9fc 8d3f cd78 86bf 0216 87bf
00000040: 30ba 5dbf 43eb 8240 08cc 04c0 d245 163f
00000050: c2f8 b0bd acf1 0b40 5d3a 51be 691f 91bf
00000060: e68a 6ebe 44e1 5840 ced0 d4bf 2686 c6be
00000070: 489b 043f ba17 5cbf 649e 0a3e 9426 c93d
00000080: acbb a43f 831b b1bf 3496 2cbf 156a 003f
00000090: bb13 443f c492 debf 42b0 6a3f 5632 04bf
000000a0: 40f2 debf 5bef a3be 4df2 b13e e861 b33f
000000b0: 6a06 b7bf 10b8 6a40 f6eb 6bbf 9c80 bbbc
000000c0: 6dc6 74bd 65e6 0640 4790 c63e 11a4 d0bf
000000d0: 18dc 51be db62 b8bf 149d f03e f83e 283f
000000e0: b2d7 fb3d 0d15 0dc0 75d1 bb3f 2f00 6cbe
000000f0: d11c 74bf 2630 5640 ad84 64bf 383b c8be
00000100: 717b b33e db49 06c0 48b1 99bc 3fec 933f
00000110: 50fd e23f 128f 1ac0 04f5 803f a26a 94bf
00000120: d0d2 e03f 3217 163f 2679 be3f f892 73c0
00000130: c0f1 b4be 769b 89be f2a8 953e 3399 9a3e
00000140: 0f99 913d ef48 2fbe 2a44 00bf 37be 2e3f
00000150: 3f85 b0be db76 353e 4ce5 28bf c6df 853f
00000160: 32f6 1ac0 47f8 c2bf ad85 9e3f afc3 ca3f
00000170: e878 91bf 34a8 04c0 c58d d7be a1ed 3040
00000180: 97b8 04bf 715b 03bf e905 6abf 7ab5 ef3f
00000190: 301f d8be 7ab6 ef3f f6e8 d63e 2137 b6bf
000001a0: 89cc 1b3f 7039 d93f b75f b13f 34f8 4bc0
000001b0: 90be 8ebe dca7 1c3f 51ca 81be 6190 323e
000001c0: 429e f53e 3f71 e9be 05fd 723f 6e61 a4bf
000001d0: 27df 1fc0 f2bf 903f 8049 113f bf11 863f
000001e0: 4813 ca3e 9e26 9a3e bb5a c8bb c952 0fbf
000001f0: b3d9 a6bf 07af e2bf c0b1 d73f 6d52 2a3f
00000200: 5bca 41be c858 bd3f c495 43bf 1f9a 7f3d
00000210: a788 c53d 7b63 89bf caf7 f4be 7169 9c3f
00000220: 585a af3e 6903 433f b7c2 483f f076 d5bf
00000230: 4a1b a2bd 1312 1a3f 6ff6 403f dbce 87bf
00000240: 5fed 2f3f 83d9 8dc0 a393 88be 7084 2340
00000250: 7165 3abf fb26 1e40 a301 043c aa4e 76bf
00000260: 8d76 c03e 06ce 79bf ff63 a9be 408b 023f
00000270: 60ab fdbe 2186 3ebf 8957 e23e e179 c13e
00000280: 8386 3a40 be2c a73d 4f63 fcbe d6a6 16c0
00000290: 2c69 ddbf edde 8640 8080 98bf 1235 843d
000002a0: 4ca4 2dbf 5fb9 c43f dedc efbf cab9 ed3f
000002b0: 3a02 a9bf ebac b73f 885a 1dbf 3789 483f
000002c0: 903a edbf 738d 7e3e 1dda 0140 afe4 55bf
000002d0: b29f b8bf 8233 0fbe 9e2c ee3e 2da6 953f
000002e0: ea95 d3bf 099c 8b3e c515 eb3f 4fd8 3abf
000002f0: 5c25 753f 2edd f33e 90c9 08be 74fa 92bf
00000300: 09d8 8bbd f06a 92bf 119d 143f ddf0 2f3e
00000310: 9d38 d1be dbf6 1b40 b44d 0cbf 41b6 19bf
00000320: 999f e1bf 2a58 db3f 86d1 73bf b53c cf3f
00000330: 96d4 8e3e 1ee0 5040 a691 f2bf 5265 9ebe
00000340: ff5a b2be 290c 753f b7cd f0bf f56f 0040
00000350: b4f2 393f 1921 103f 19a0 383f ba2b e8bf
00000360: 159b eabf 93d9 60bf 2b27 313f 33f3 d83f
00000370: a01b 31bf c98d 81bf 9962 413e f6c2 893f
00000380: 4c5a f93c f7e7 dfbf d50f aebe d2c0 b33f
00000390: 289b f4bc 1e80 00bf 0b03 09bf a102 5f3f
000003a0: bad5 0b40 623a a1be 35c0 9ebf 04e8 01bf
000003b0: 586e d0bf 833f b43f 5188 4f3f aefe a3be
000003c0: 40ec 4b3f 741b 3dc0 de39 4b3f d940 393e
000003d0: 13ed acbf 60e5 343f 7642 973f 5fb8 aebe
000003e0: 678f 81bf a1e0 3f40 6357 9f3e 697f b1bf
000003f0: 6de6 0fc0 256e b7bf f84b d53f f2db ae3f

pool_layer_before.clusters2 f4 [1, 512, 4]
-0.10139327 0.32767248 -0.45571473 -0.47661147 0.0886977 0.0879635 -0.006708534 0.039061543
0.0803804 -0.07121766 0.034176275 -0.032724105 0.082129575 0.006970015 -0.030822279 -0.05216222
-0.024614494 0.07665658 -0.0070347227 -0.01718548 -0.00084190676 -0.005459744 -0.011843507 0.008875857
-0.009545896 0.031962886 -0.037493158 0.012870917 0.007822949 0.042194504 -0.05050625 0.03599589
0.034840234 -0.010423945 -0.0041194432 0.030121455 0.025270935 -0.021273948 -0.026300251 0.033386048
-0.033286467 -0.0086141685 0.0057717687 -0.013804505 -0.01838941 0.01659688 -0.0039820448 -0.01605174
-0.012991455 0.016984146 -0.0014820559 0.020784296 -0.0032209414 0.0053251106 -0.0030064348 0.00016956727
-0.001009027 -0.012747458 0.00431136 0.02994604 -0.008333634 0.015046991 -0.0072763325 -0.003058081
0.0015591749 -0.040057644 -0.011608722 0.024889112 0.014201345 -0.0105384495 0.011165769 -0.005020942
0.0068038665 0.0013262319 0.0016804354 -0.017605754 -0.00864859 0.0007021198 -0.0022079046 -0.008368305
0.0025089826 0.016909434 0.0002531648 0.0067594377 -0.0059689963 0.008294782 0.00513403 -0.0077793053
-0.01673704 -0.0057559875 0.007880156 0.0014262254 -0.0027699508 -0.03921505 0.002618141 0.021614678
-0.0037220607 -0.005290709 0.0029007806 0.008519458 0.001588002 0.04301904 0.008129454 -0.0097438
0.0077039944 0.002806334 -0.0015405939 -0.0024314676 -0.00036548125 -0.0012748844 -0.00016893963 0.00527609
0.003988773 0.011037643 -0.007791626 0.0048744828 -0.0065624304 0.0051446776 0.005108093 -0.0033119314
-0.00011801302 -0.0026649311 -0.006588405 0.0037376133 -0.0019500181 -0.0067400285 0.0054462715 0.0062307743
0.005344729 0.028365053 0.0053796945 -0.016765876 0.009103178 -0.016454468 -0.004757265 0.009638558
0.00029267705 -0.004088465 -0.0020861616 -0.019936822 -0.0046673478 0.015319238 -0.0073786024 -0.013075532
0.0021610374 -0.019346409 0.0023682844 0.004722998 -0.002979308 0.00548684 -0.005292463 -0.0077433805
0.005351146 0.009087828 -0.005033536 0.013531944 0.0019999451 -0.01566065 -0.0034651333 0.001985931
0.007408981 0.007317734 -0.0022598158 -0.001336597 -0.0099339485 0.010422407 -0.0051630465 -0.020861458
-0.0048069577 -0.02563101 0.0016046779 -0.0020975797 -0.0038769916 0.013836018 0.0024614693 -0.00039432608
-0.008319748 -0.0023633607 0.0020208901 0.005473359 -0.004243703 -0.017463991 0.0012617713 0.004894255
-0.008169453 0.0018270995 -0.0020319591 -0.014613162 -0.00012659519 0.0031257276 -0.007875111 -0.009926872
0.0047125467 0.0089270435 0.003762691 -0.0059290575 -0.0027658388 -0.0002931797 0.006477082 -0.004416642
-0.0040845172 0.013991088 0.0023131645 -0.0035738188 0.0008189772 0.0005365521 -0.0091878455 -0.009458004
-0.00087202236 0.00021823285 0.00221768 -0.00155678 -0.00015854785 0.012422921 -0.0074019 -0.0005420389
0.00078344345 -0.0010203132 0.0011565202 0.010852903 -0.00062571216 0.0149918785 0.006029417 0.003997032
0.0068790526 -0.015192849 -0.0058225375 0.016532632 -0.004124322 0.00164564 0.004824232 -0.010278471
0.0071658846 0.019160436 0.004402371 -0.0017635297 -0.0028308334 0.03385106 0.003233759 -0.005772222
0.002445636 -0.015638214 -0.0038393252 0.0074992087 0.0005862198 -0.003413922 0.0040913178 0.0077311676
-0.0026309378 -0.00026394546 -0.0063908505 -0.0029186818 -0.0026457978 0.00373547 0.009962589 -0.0063896673
00000000: 46a7 cfbd b0c4 a73e 7153 e9be 6b06 f4be
00000010: 24a7 b53d 3526 b43d 43d3 dbbb fffe 1f3d
00000020: 7b9e a43d 91da 91bd 6cfc 0b3d b609 06bd
00000030: 8d33 a83d b964 e43b 017f fcbc 0da8 55bd
00000040: 56a4 c9bc 20fe 9c3d 8883 e6bb 90c8 8cbc
00000050: 68b3 5cba a7e7 b2bb 450b 42bc 0b6c 113c
00000060: 6466 1cbc 84eb 023d 6d92 19bd 8ae0 523c
00000070: d42b 003c 25d4 2c3d a4df 4ebd 6d70 133d
00000080: a2b4 0e3d 32c9 2abc 65fc 86bb 45c1 f63c
00000090: fe04 cf3c b446 aebc a073 d7bc cfbf 083d
000000a0: 6457 08bd 7122 0dbc 1b21 bd3b 4a2c 62bc
000000b0: 63a5 96bc 2ef6 873c d07b 82bb f07e 83bc
000000c0: 1dda 54bc 5622 8b3c 8b41 c2ba d443 aa3c
000000d0: 6e16 53bb 447e ae3b 9b07 45bb decd 3139
000000e0: 5441 84ba b7da 50bc 4f46 8d3b 6651 f53c
000000f0: cb89 08bc a887 763c 4d6e eebb 166a 48bb
00000100: 3a5d cc3a 7c13 24bd 8232 3ebc 40e4 cb3c
00000110: c2ac 683c 76a9 2cbc a1f0 363c b786 a4bb
00000120: f8f2 de3b f5d4 ad3a 0e42 dc3a f139 90bc
00000130: d1b2 0dbc 760e 383a 7eb2 10bb 371b 09bc
00000140: be6d 243b a785 8a3c 34bb 8439 467e dd3b
00000150: 9297 c3bb d6e6 073c 5d3b a83b 8be9 febb
00000160: 1e1c 89bc b99c bcbb c51b 013c 2ff0 ba3a
00000170: 1088 35bb f69f 20bd 1e95 2b3b 4411 b13c
00000180: d1ed 73bb af5d adbb 061b 3e3b 3295 0b3c
00000190: 8124 d03a bc34 303d 6731 053c 76a4 1fbc
000001a0: ca71 fc3b 79ea 373b c1ed c9ba 4259 1fbb
000001b0: 109e bfb9 061a a7ba 6325 31b9 0de3 ac3b
000001c0: 41b4 823b 3bd7 343c e550 ffbb 20ba 9f3b
000001d0: a809 d7bb af94 a83b ca61 a73b fd0c 59bb
000001e0: c27d f7b8 20a6 2ebb 8ce3 d7bb bff2 743b
000001f0: c097 ffba 75db dcbb a376 b23b 862b cc3b
00000200: d622 af3b d45d e83c 2648 b03b 9758 89bc
00000210: 7f25 153c 85cb 86bc d5e2 9bbb 0beb 1d3c
00000220: 7372 9939 88f8 85bb fcb7 08bb 8c52 a3bc
00000230: 8df0 98bb 8bfd 7a3c 34c8 f1bb c23a 56bc
00000240: 31a0 0d3b 5c7c 9ebc 3835 1b3b 61c3 9a3b
00000250: 7e40 43bb f3ca b33b 666c adbb 2fbc fdbb
00000260: ab58 af3b 1de5 143c 5cf0 a4bb 16b5 5d3c
00000270: 8311 033b c34a 80bc 4a17 63bb 6526 023b
00000280: 0ac7 f23b 9ac9 ef3b 6b19 14bb c130 afba
00000290: 00c2 22bc bec2 2a3c c62e a9bb a6e5 aabc
000002a0: af83 9dbb 20f8 d1bc 0e54 d23a 8c77 09bb
000002b0: 2015 7ebb 77b0 623c 9a50 213b 8dbd ceb9
000002c0: 8d4f 08bc 9de2 1abb e970 043b dd59 b33b
000002d0: c30e 8bbb a510 8fbc 0562 a53a fd5f a03b
000002e0: 2bd9 05bc 497b ef3a 9e2a 05bb 0b6c 6fbc
000002f0: a3be 04b9 02d9 4c3b 9c06 01bc 52a4 22bc
00000300: b56b 9a3b bc42 123c 7b97 763b 8a48 c2bb
00000310: 1343 35bb eab5 99b9 b43d d43b 7ab9 90bb
00000320: 6ad7 85bb e03a 653c 7698 173b bb36 6abb
00000330: a1b0 563a 67a7 0c3a 9e88 16bc bef5 1abc
00000340: 6e98 64ba 6fd5 6439 7f56 113b de0c ccba
00000350: dd3f 26b9 8289 4b3c a38b f2bb 9d17 0eba
00000360: 0060 4d3a 08bc 85ba 6196 973a 60d0 313c
00000370: d506 24ba 7fa0 753c 6a92 c53b 89f9 823b
00000380: ad69 e13b 6deb 78bc fcca bebb 716f 873c
00000390: 5225 87bb 84b2 d73a 9714 9e3b 0867 28bc
000003a0: cccf ea3b 59f6 9c3c c441 903b 3d26 e7ba
000003b0: 8185 39bb 69a7 0a3d 79ed 533b e824 bdbb
000003c0: f746 203b b61b 80bc 309d 7bbb ecbb f53b
000003d0: 8bac 193a 1bbc 5fbb 7610 863b bc55 fd3b
000003e0: d06b 2cbb 2962 8ab9 576a d1bb 5b47 3fbb
000003f0: 1f65 2dbb c9ce 743b 203a 233c 6a60 d1bb

pool_layer_after.clusters f4 [512, 4]
-2.9951801 -1.427502 -0.14540482 4.545281 0.0355711 -0.84391254 1.6676862 -0.6646686
0.47580636 0.15833761 -0.7671932 -0.03841194 -1.5588729 -0.090783454 1.6922449 -0.12217735
-3.0946786 -0.5417584 -0.25424904 3.6232016 0.15183078 -0.1343261 0.628803 -0.6640767
-0.79385895 -0.24536586 1.1990689 -0.09589144 0.7719277 -0.16389519 -0.32278058 -0.42019048
0.077179514 -0.9924336 0.93843055 -0.22827408 0.6866962 0.2213112 -0.3666596 -0.50628054
0.23886281 0.82824624 -3.0701344 1.7558514 -0.7560594 -1.5776508 0.3181197 1.7037374
0.3403972 0.3527229 -0.3177409 -0.5370587 1.8180526 -0.3536701 -0.94353664 -0.4567333
0.20704111 2.8793013 -3.1275716 -0.3056069 0.39921242 -1.945145 -0.41949955 1.9233652
0.5283013 0.08767916 -0.29637378 -0.2635131 0.2198794 0.6359343 1.2959298 -1.9360666
-0.43593153 0.930981 1.3465449 -1.6095719 -1.4892905 1.2127302 0.6627404 -0.402439
-0.6681176 -2.44428 1.2193711 1.8629967 -0.92000854 -1.4662677 2.3452754 0.20117244
1.2245278 1.1373578 -2.967386 0.6994936 -1.0430137 -0.85066855 0.7334063 0.84212893
-2.0746706 -0.48481897 0.7192034 1.572685 -0.41618168 0.7670103 0.61419886 -0.92572707
1.9317567 -0.24158047 -0.68226534 -0.8024707 0.8883753 -1.0942161 -1.1090536 1.1193401
0.605649 1.0616708 0.066928916 -1.4516972 -0.101712115 0.5467092 -2.9772656 2.2773926
0.21018744 -0.5692175 0.9738045 -0.68855065 1.2446965 1.1607324 -0.49282688 -1.5671229
-1.0474753 -1.3488554 0.82633305 1.5197432 0.05981645 -0.7364579 0.24852578 0.4791017
0.92551166 -0.8296365 0.5784886 -0.6526208 0.92098504 -0.2518587 -1.4658717 0.6884346
-0.84676415 2.0834384 -0.5561439 -0.6159905 0.20796184 -1.0716943 -1.2564403 1.9526036
-0.6817246 0.23348583 1.0295982 -0.51053697 1.802453 -0.8884984 -1.3305916 0.4819409
0.8508932 0.29353797 0.38595298 -1.5083953 -0.24827246 -1.249702 -1.551193 2.466881
-1.1098646 0.51027966 -0.48499212 1.1339544 -0.22240907 1.1456902 -0.6484022 -0.38811618
2.1821856 0.04852436 -2.3145254 -0.036066093 -0.3079854 0.4246173 -1.161164 0.8725851
1.2327188 1.4708745 -1.3458098 -1.2387257 0.44590503 -1.4069885 0.98004574 -0.17147845
0.17291752 0.6558935 -0.5307154 -0.18909428 0.65731615 -0.35863456 0.058194112 -0.51595
-1.0795923 0.015785277 -0.17410105 1.0126996 -0.1286055 -3.2594867 2.3714092 1.3370643
-1.0059788 -1.0251013 1.0982721 1.0153544 1.0867132 -0.98205763 -0.44388998 0.33359036
-0.16196342 0.64088285 -0.3808718 -0.07882439 -0.2406551 -0.6672901 1.1890479 -0.26825514
-1.616379 2.0345278 -0.33251718 -0.21482767 -0.6573242 0.5290189 1.0279216 -0.8146005
-1.505319 -0.36519393 2.6359718 -0.8179176 0.08627547 0.52387494 -1.6577848 0.9464204
0.29633194 -0.04522931 -0.0079088565 -0.13459307 -0.40608495 -0.3316558 0.8851736 -0.22298723
-1.2770342 0.51062477 0.3432562 0.32798782 0.09245304 0.9249513 -2.4558089 1.223833
00000000: 08b1 3fc0 63b8 b6bf 00e5 14be f172 9140
00000010: 00b3 113d a70a 58bf be76 d53f b927 2abf
00000020: e49c f33e 4123 223e c666 44bf d755 1dbd
00000030: 2689 c7bf adec b9bd 7b9b d83f 1e38 fabd
00000040: 370f 46c0 aeb0 0abf ee2c 82be 89e2 6740
00000050: 8779 1b3e c88c 09be 3cf9 203f ee00 2abf
00000060: 573a 4bbf 3041 7bbe 177b 993f bb62 c4bd
00000070: 0e9d 453f 24d4 27be 7f43 a5be 3523 d7be
00000080: 4b10 9e3d 2110 7ebf fc3c 703f aec0 69be
00000090: 52cb 2f3f 679f 623e cfba bbbe 9a9b 01bf
000000a0: 7498 743e f207 543f 157d 44c0 bdbf e03f
000000b0: 1c8d 41bf 76f0 c9bf 96e0 a23e 1114 da3f
000000c0: 8b48 ae3e 1998 b43e efae a2be ae7c 09bf
000000d0: f3b5 e83f 3f14 b5be 9e8b 71bf f2d8 e9be
000000e0: 9602 543e 7946 3840 222a 48c0 8278 9cbe
000000f0: 9265 cc3e 83fa f8bf a5c8 d6be d530 f63f
00000100: c13e 073f 2291 b33d 4ebe 97be 30eb 86be
00000110: 1128 613e 97cc 223f 07e1 a53f 08d1 f7bf
00000120: 6b32 dfbe c554 6e3f 955b ac3f 7406 cebf
00000130: 12a1 bebf be3a 9b3f 5ba9 293f 7c0c cebe
00000140: c109 2bbf 156f 1cc0 5a14 9c3f ad76 ee3f
00000150: ae85 6bbf a9ae bbbf fe18 1640 2600 4e3e
00000160: 54bd 9c3f f194 913f a7e9 3dc0 0312 333f
00000170: 7981 85bf 6ac5 59bf 84c0 3b3f c395 573f
00000180: 67c7 04c0 313a f8be b71d 383f be4d c93f
00000190: c415 d5be c95a 443f 233c 1d3f 73fc 6cbf
000001a0: ce43 f73f df60 77be f1a8 2ebf b86e 4dbf
000001b0: 906c 633f 460f 8cbf 78f5 8dbf 8946 8f3f
000001c0: d00b 1b3f d4e4 873f 0712 893d 37d1 b9bf
000001d0: 714e d0bd 22f5 0b3f 858b 3ec0 cdc0 1140
000001e0: 603b 573e 3db8 11bf 404b 793f db44 30bf
000001f0: 3752 9f3f e192 943f ce53 fcbe 7c97 c8bf
00000200: ac13 86bf 4ba7 acbf 908a 533f f286 c23f
00000210: 1802 753d 8188 3cbf 8b7d 7e3e d14c f53e
00000220: 55ee 6c3f 0f63 54bf d417 143f 2812 27bf
00000230: adc5 6b3f a0f3 80be afa1 bbbf 403d 303f
00000240: 89c5 58bf 0e57 0540 725f 0ebf 8eb1 1dbf
00000250: f3f3 543e 472d 89bf 09d3 a0bf eaee f93f
00000260: 8185 2ebf e916 6f3e e0c9 833f 8db2 02bf
00000270: c8b6 e63f a274 63bf d350 aabf f5c0 f63e
00000280: 23d4 593f 9c4a 963e a19b c53e 1913 c1bf
00000290: 233b 7ebe 3cf6 9fbf 7e8d c6bf 61e1 1d40
000002a0: 0b10 8ebf b0a1 023f e350 f8be 6b25 913f
000002b0: 34bf 63be faa5 923f b0fd 25bf 2ab7 c6be
000002c0: eea8 0b40 7bc1 463d 2f21 14c0 0aba 13bd
000002d0: 43b0 9dbe 7067 d93e 06a1 94bf bd61 5f3f
000002e0: bbc9 9d3f 9e45 bc3f 7f43 acbf 908e 9ebf
000002f0: aa4d e43e 3318 b4bf 47e4 7a3f 0c98 2fbe
00000300: 4a11 313e a3e8 273f f7dc 07bf eea1 41be
00000310: df45 283f f39e b7be f35c 6e3d 4d15 04bf
00000320: 1530 8abf 2050 813c 8c47 32be 24a0 813f
00000330: 29b1 03be 6e9b 50c0 2bc5 1740 ec24 ab3f
00000340: eac3 80bf 8536 83bf 2e94 8c3f 22f7 813f
00000350: 6b19 8b3f 2168 7bbf 8c45 e3be 5bcc aa3e
00000360: bdd9 25be e610 243f a101 c3be af6e a1bd
00000370: 4a6e 76be 86d3 2abf b932 983f bd58 89be
00000380: 82e5 cebf b435 0240 b13f aabe c9fb 5bbe
00000390: 6646 28bf c86d 073f ef92 833f a989 50bf
000003a0: 4bae c0bf b3fa babe c3b3 2840 0c63 51bf
000003b0: 32b1 b03d ab1c 063f 4b32 d4bf 9b48 723f
000003c0: d2b8 973e 5e42 39bd 2694 01bc c4d2 09be
000003d0: 5eea cfbe cace a9be bd9a 623f c456 64be
000003e0: db75 a3bf 4eb8 023f 47bf af3e 05ee a73e
000003f0: 0558 bd3d 9cc9 6c3f f92b 1dc0 8fa6 9c3f

pool_layer_after.clusters2 f4 [1, 512, 4]
-0.45070866 -0.281803 -0.26725942 -0.457696 -0.0012713013 0.0041620457 0.08334253 0.06842231
0.008627002 0.0006020474 -0.043230277 -0.029586729 -0.037916895 0.038354453 0.074483335 0.043162134
-0.03512388 0.0038707366 -0.00465589 0.024591453 -0.014919722 -0.006744268 0.021633498 0.0029701542
-0.008987656 -0.006447593 0.017366601 0.015219739 -0.0023385591 0.009482647 -0.0038159736 0.02561003
0.003159122 0.0022280326 0.031410716 0.020232366 -0.012082115 -0.013474988 0.015878811 0.03203517
-0.004701105 -0.011368754 -0.037501503 0.0021165146 -0.0044458746 -0.01179453 0.00069685676 0.0040177964
-0.0017883172 -0.0013681246 0.0029811424 0.014801471 -0.005667836 -0.01538824 -0.008651231 0.011260383
0.0010820867 0.017493267 -0.025657063 -0.0064973366 0.0013975037 -0.013225998 -0.007509108 0.0067212787
-0.0031469017 -0.009916704 0.0021023105 0.0014169401 0.0072881384 0.002323009 0.007994675 -0.018954512
-0.004807343 0.0027701969 0.009469122 -0.007978223 -0.0071727075 0.001148388 -0.0017207072 0.0121391835
-0.007597381 -0.008287855 0.011655854 0.0053649377 0.012866145 -0.0006726999 0.006410328 0.0051363725
0.009674584 0.0055746464 -0.021890821 0.0013393173 0.001947307 6.1507264e-05 -0.0015902848 -0.006014358
0.005462074 0.0032232215 0.0011172148 0.00022909271 0.005630661 0.0007178155 -0.00036190794 -0.00044943567
0.0046279524 -0.0023214566 0.0012243991 -9.760751e-05 0.016173394 0.00186852 -0.0034498698 0.0053136037
-0.0040374673 0.0004287376 0.0042152423 0.0076538194 0.0014159931 0.0043164073 -0.016272966 0.0019500987
0.0012903252 -0.0050522336 0.0042011524 -0.0045951777 -0.0029427633 0.01159975 0.0011300679 -0.0046736496
-0.0004955612 -0.005767889 5.9801605e-05 0.0033358575 -0.0040783146 -0.0077491975 0.0044279504 0.010770335
0.0031131995 -0.0054367273 0.0025679509 -0.0086315805 -0.002814467 -0.0073365783 -0.0064776335 -0.0067487243
-0.001154989 0.010738534 0.0008050626 -0.0066287713 0.0018361107 -2.1674865e-05 -0.005250291 0.0036632014
-0.0018267703 -0.0059210416 0.008252132 -0.0087875705 0.00052917085 -0.004439953 -0.004598866 -0.0014846509
-0.0009782116 0.0029288738 0.0008269688 -0.012581634 0.0015963753 -0.0006047727 -0.00344855 0.0076324944
0.0017588038 0.006641237 -0.0035066262 -0.000342796 -0.0012838725 0.007250845 -0.0037819915 -0.007981169
0.004676327 -0.0041589476 -0.009685199 0.0112608895 0.0028296974 0.002573787 -0.00677338 0.011535694
0.0061396426 -0.0009388593 -0.0019426815 -0.009115809 -0.0071397754 -0.009573938 0.0032315496 -0.013583546
0.0039015417 0.0066962284 -0.006054902 -0.010472994 0.0020665755 0.0050328285 -0.0032910001 -0.0005139685
0.0031671477 0.004089552 0.0010945135 0.007880359 -0.0016052186 -0.009414948 0.00079838804 -0.011155368
0.0011989978 0.00094383676 -0.002102186 -0.0050270986 -0.002877561 -0.0073509812 -0.0046308744 -0.0008218689
6.227732e-05 0.00065234513 0.0023666183 0.022953 0.0020588553 0.004346888 0.009589492 0.008297336
-0.010255377 3.3533583e-05 0.004201424 0.0022761212 0.0010455045 0.008295385 -0.0035263817 0.0017025603
0.006239027 0.0030833448 0.007056575 -0.005914069 0.0021956472 -0.0010056101 -0.0023964536 0.0025557727
-0.002420635 -0.003546981 0.00022523585 0.010195252 0.0007001019 -0.0066785915 0.0046865866 0.005989929
0.0010126146 0.0043889484 -0.0060066176 -0.010352192 0.0033071176 0.008687675 -0.010795707 -0.0057088034
00000000: 49c3 e6be 7c48 90be 3ad6 88be 2157 eabe
00000010: cba1 a6ba c561 883b 7daf aa3d ff20 8c3d
00000020: 4558 0d3c b8d2 1d3a 3b12 31bd de5f f2bc
00000030: bf4e 1bbd 8f19 1d3d b88a 983d c7ca 303d
00000040: 0fde 0fbd 2fac 7d3b 7090 98bb 0474 c93c
00000050: da71 74bc 05ff dcbb bc38 b13c eba6 423b
00000060: f640 13bc 5546 d3bb 6744 8e3c 365c 793c
00000070: 8342 19bb 1b5d 1b3c 6a15 7abb 20cc d13c
00000080: 4609 4f3b 2f04 123b 86a8 003d 59be a53c
00000090: 10f4 45bc 32c6 5cbc 4814 823c 4f37 033d
000000a0: ba0b 9abb 0344 3abc 2d9b 19bd 39b5 0a3b
000000b0: b3ae 91bb d83d 41bc 44ad 363a b8a7 833b
000000c0: f865 eaba a552 b3ba 455f 433b de81 723c
000000d0: 41b9 b9bb f51e 7cbc e5bd 0dbc 787d 383c
000000e0: ced4 8d3a 0a4e 8f3c c32e d2bc 9ce7 d4bb
000000f0: 712c b73a dbb1 58bc f70e f6bb 2c3e dc3b
00000100: 403c 4ebb ac79 22bc ebc6 093b 9fb8 b93a
00000110: 56d1 ee3b a03d 183b 19fc 023c 7e46 9bbc
00000120: ea86 9dbb 318c 353b 6024 1b3c 18b7 02bc
00000130: 0809 ebbb 8285 963a 5a89 e1ba 6de3 463c
00000140: 73f3 f8bb c9c9 07bc 32f8 3e3c 5ccc af3b
00000150: 86cc 523c 2058 30ba bb0d d23b 044f a83b
00000160: 2582 1e3c 86ab b63b 6154 b3bc 088c af3a
00000170: c83c ff3a 76fd 8038 1a71 d0ba 1714 c5bb
00000180: 33fb b23b af3c 533b 826f 923a 9b38 7039
00000190: 6881 b83b c82b 3c3a 76be bdb9 3ca2 ebb9
000001a0: 14a6 973b 9423 18bb 047c a03a a2b2 ccb8
000001b0: 117e 843c 21e9 f43a 3617 62bb bd1d ae3b
000001c0: bb4c 84bb 30c8 e039 0420 8a3b e4cc fa3b
000001d0: d898 b93a a670 8d3b e24e 85bc 749a ff3a
000001e0: 2120 a93a 358d a5bb d2a9 893b 2593 96bb
000001f0: 60db 40bb e10c 3e3c c91e 943a 6a25 99bb
00000200: 8de8 01ba 8f00 bdbb 7cd3 7a38 679e 5a3b
00000210: 62a3 85bb fbec fdbb 5718 913b 0f76 303c
00000220: d206 4c3b 9326 b2bb 114b 283b 796b 0dbc
00000230: ec72 38bb ae67 f0bb 5442 d4bb 6724 ddbb
00000240: 0063 97ba adf0 2f3c d60a 533a 2a36 d9bb
00000250: a7a9 f03a 6bd2 b5b7 a20a acbb 5212 703b
00000260: 3d70 efba 4c05 c2bb f333 073c bef9 0fbc
00000270: 0eb8 0a3a 067d 91bb 16b2 96bb 9e98 c2ba
00000280: 5637 80ba 59f2 3f3b f0c8 583a 3323 4ebc
00000290: 773d d13a 9c89 1eba 1101 62bb 011a fa3b
000002a0: aa87 e63a bc9e d93b 6dcf 65bb 4db9 b3b9
000002b0: 9d47 a8ba 7f98 ed3b 4adb 77bb 73c3 02bc
000002c0: e03b 993b c847 88bb abae 1ebc 987f 383c
000002d0: 7272 393b fbac 283b 3bf3 ddbb 3500 3d3c
000002e0: 0e2f c93b c81d 76ba 93a1 feba 795a 15bc
000002f0: c7f4 e9bb 02dc 1cbc 68c8 533b 858d 5ebc
00000300: 02b1 7f3b 096c db3b 3368 c6bb ec96 2bbc
00000310: 626f 073b 6dea a43b d2ad 57bb d8bb 06ba
00000320: ec8f 4f3b a601 863b c775 8f3a 9f1c 013c
00000330: 3366 d2ba 2741 1abc ea4a 513a 01c5 36bc
00000340: b127 9d3a d06b 773a d4c4 09bb 5cba a4bb
00000350: 7695 3cbb 80e0 f0bb 97be 97bb b072 57ba
00000360: e29a 8238 2402 2b3a 4419 1b3b ee07 bc3c
00000370: dced 063b 5770 8e3b 3f1d 1d3c 8df1 073c
00000380: 2b06 28bc 69a6 0c38 19ac 893b fa2a 153b
00000390: 4f09 893a 5ee9 073c de1a 67bb 7228 df3a
000003a0: c070 cc3b f111 4a3b d73a e73b ceca c1bb
000003b0: d9e4 0f3b adce 83ba d20d 1dbb c07e 273b
000003c0: 84a3 1ebb 7774 68bb 4a2d 6c39 fc09 273c
000003d0: 0b87 373a 16d8 dabb f091 993b 2b47 c43b
000003e0: b5b9 843a 2bd1 8f3b 29d3 c4bb 3e9c 29bc
000003f0: 3abc 583b c056 0e3c 7ae0 30bc ea10 bbbb

fc.weight f4 [18, 4096]
0.10309825 -0.08738077 0.2975272 -0.08532746 -0.24818288 -0.12031929 -0.19749707 0.03572999
-0.56346714 -0.36881846 -0.28441587 -0.4426908 -0.25547385 -0.08923215 -0.12557535 -0.38341007
-0.0720241 0.39934093 0.5243702 0.2226463 -0.00036857507 -0.18487865 -0.0042621437 -0.11427312
0.39064223 0.89967066 0.25912318 0.355546 0.096412376 0.11288289 -0.12474452 0.19842428
-0.08191273 -0.34954143 0.30128327 -0.3330675 0.05922681 -0.4113724 0.013297488 0.30248386
0.80865747 0.4513002 0.7135733 0.2852461 0.45271567 0.7255574 0.25160113 -0.23792358
0.204461 0.019939097 0.047186866 0.5016377 -0.20599091 -0.27847752 -0.16684386 0.0046255076
0.104102775 -0.055309683 -0.26813203 0.85280097 0.28776348 0.031241326 0.54259604 0.032715484
0.5028357 0.038142424 0.4109607 0.6539302 -0.59152305 0.0022196262 -0.40816867 0.026448138
-1.2873412 -1.1947535 -1.0669054 -1.1176275 0.2982989 0.38518128 0.17893039 -1.0682296
0.084397465 0.22515844 0.42578605 0.012703562 0.7096192 0.02942395 1.2989151 0.060379133
1.1324531 0.9938163 0.87615454 1.0689226 0.64271975 0.16723683 0.19225065 -0.07872905
0.050285503 0.4730512 0.8725511 -0.15606153 -0.14580625 0.14107598 -0.37980053 -0.5503733
-0.7829142 -1.1333522 -0.8957143 -0.31462932 -0.15985447 -0.18636362 -1.2133112 -0.71257037
-0.2705485 0.034116667 -0.5195723 0.31748548 0.84225005 -0.2432756 0.3510941 -0.3613464
0.30450892 1.1512616 -0.53523284 -1.0261793 -0.08335813 -0.2875218 0.7112936 -0.51162153
0.12127476 -0.0030064143 -0.17931937 0.15910389 -0.6598395 0.03154754 0.34600198 -0.40501258
-0.665266 0.14587323 -1.1002314 -0.9607555 -0.8035001 -0.5557703 -1.3444412 -0.5591286
1.1174412 -0.032966834 1.4980942 1.0275892 0.50648075 0.032684166 0.5990966 1.0891161
-0.30251604 -0.8043804 -0.20361659 -0.3012202 0.6181355 0.16041389 -0.15774278 -0.13853551
-1.0593693 -0.39932463 -1.3624458 0.17188115 1.1073841 1.2305088 0.32701153 0.8949145
1.0599002 0.60086334 1.0977185 0.7503773 0.6271707 0.16338657 -0.04783251 0.9507482
-0.07178606 0.98828804 -1.1410666 -0.840682 0.9659818 0.10143633 0.8803712 -0.23877347
0.25584537 -0.19849484 -0.5787122 0.16413566 -0.30236876 0.43807524 -0.3299316 0.4451816
0.42546773 -0.020821953 0.8534387 0.87120223 0.04924545 0.3227348 0.72172374 0.9357125
0.27748087 0.015145972 0.58975905 0.25038725 -1.1366142 -0.30562446 -0.78556865 -0.18629065
0.65574217 0.855069 1.1921349 1.0013338 -0.482833 -0.021141063 -1.2619172 -0.17608817
0.15347075 0.16491927 0.32833356 -0.0069984565 -0.4616157 -0.13171503 0.3244092 -1.7135484
-0.12309627 -8.410637e-07 -0.6373073 -0.446141 1.1306894 0.50495833 1.1940055 1.498996
-0.24079877 -0.35638672 0.5641872 0.0011760584 0.12906855 0.11721776 0.7002538 -0.16565748
-0.04066345 -0.4862346 -1.1625425 -0.53977895 0.25146532 0.15726477 0.74729615 -1.2635331
-0.07329512 0.31331795 -0.27051586 -0.31860372 1.243617 1.2477949 1.0707002 1.416815
00000000: 2d25 d33d b0f4 b2bd 7c55 983e 2ac0 aebd
00000010: a723 7ebe f669 f6bd ac3c 4abe 9c59 123d
00000020: 623f 10bf c6d5 bcbe f59e 91be 5ea8 e2be
00000030: 78cd 82be 58bf b6bd d396 00be 534e c4be
00000040: 5f81 93bd 6a76 cc3e 203d 063f 64fd 633e
00000050: 4f3d c1b9 d450 3dbe 74a9 8bbb 0708 eabd
00000060: 4202 c83e d150 663f cbab 843e 200a b63e
00000070: da73 c53d 252f e73d 0e7a ffbd bc2f 4b3e
00000080: ddc1 a7bd 18f7 b2be cd41 9a3e d387 aabe
00000090: d097 723d 679f d2be b5dd 593c 2adf 9a3e
000000a0: 2d04 4f3f d210 e73e bdac 363f c70b 923e
000000b0: 59ca e73e 21be 393f ddd1 803e 3da2 73be
000000c0: 395e 513e 5157 a33c 0447 413d 546b 003f
000000d0: 48ef 52be 9b94 8ebe 1ed9 2abe 9291 973b
000000e0: d633 d53d 688c 62bd 9a48 89be 2a51 5a3f
000000f0: bc55 933e cfed ff3c 93e7 0a3f ac00 063d
00000100: d7b9 003f 3b3b 1c3d 7169 d23e f867 273f
00000110: 0e6e 17bf 2677 113b 7cfb d0be c4a9 d83c
00000120: 99c7 a4bf afed 98bf 5b90 88bf 6b0e 8fbf
00000130: a2ba 983e 7b36 c53e 8739 373e bfbb 88bf
00000140: 94d8 ac3d ef8f 663e a100 da3e 9a22 503c
00000150: 9ba9 353f 7f0a f13c da42 a63f 1c50 773d
00000160: 39f4 903f bf6a 7e3f aa4b 603f 75d2 883f
00000170: 4889 243f 2240 2b3e 5bdd 443e b23c a1bd
00000180: 2cf8 4d3d c433 f23e 825f 5f3f 98ce 1fbe
00000190: 3c4e 15be 3976 103e 3775 c2be 44e5 0cbf
000001a0: 116d 48bf af11 91bf 884d 65bf 1817 a1be
000001b0: e4b0 23be 1bd6 3ebe c84d 9bbf 036b 36bf
000001c0: 5585 8abe ebbd 0b3d b102 05bf 758d a23e
000001d0: b39d 573f 3d1d 79be 9bc2 b33e 6502 b9be
000001e0: 98e8 9b3e 8a5c 933f 0505 09bf d859 83bf
000001f0: abb7 aabd 0f36 93be 5617 363f a1f9 02bf
00000200: e75e f83d 4307 45bb 7f9f 37be 21ec 223e
00000210: 3eeb 28bf fe37 013d 2c27 b13e cf5d cfbe
00000220: df4e 2abf cb5f 153e 62d4 8cbf 13f4 75bf
00000230: 2fb2 4dbf f646 0ebf a616 acbf 0d23 0fbf
00000240: 5008 8f3f 3b08 07bd 8dc1 bf3f 0b88 833f
00000250: b9a8 013f d5df 053d 655e 193f 2868 8b3f
00000260: 62e3 9abe e0eb 4dbf de80 50be 8939 9abe
00000270: 213e 1e3f 8a43 243e 5387 21be 41dc 0dbe
00000280: 6a99 87bf 4774 ccbe a064 aebf 9d01 303e
00000290: c3be 8d3f 5081 9d3f 0e6e a73e 1e19 653f
000002a0: cfaa 873f 2ed2 193f 0a82 8c3f ba18 403f
000002b0: 428e 203f cf4e 273e 06ec 43bd 3c64 733f
000002c0: 9204 93bd 7200 7d3f 780e 92bf f036 57bf
000002d0: 954a 773f dabd cf3d 0260 613f 0881 74be
000002e0: 2afe 823e 3b42 4bbe 7c26 14bf 2e13 283e
000002f0: 14d0 9abe 664b e03e cbec a8be d8ee e33e
00000300: e8d6 d93e cd92 aabc f57a 5a3f 1c07 5f3f
00000310: 99b5 493d 7f3d a53e e3c2 383f db8a 6f3f
00000320: f911 8e3e d026 783c 73fa 163f c232 803e
00000330: 937c 91bf cf7a 9cbe 071b 49bf fac2 3ebe
00000340: b8de 273f cde5 5a3f e097 983f b52b 803f
00000350: e335 f7be 0630 adbc 8186 a1bf 7550 34be
00000360: 7027 1d3e 99e0 283e 561b a83e 4f53 e5bb
00000370: e558 ecbe 4ee0 06be f618 a63e 8e55 dbbf
00000380: e619 fcbd 75c5 61b5 9226 23bf 986c e4be
00000390: 6eba 903f f344 013f 2cd5 983f 1adf bf3f
000003a0: f493 76be 5278 b6be 936e 103f f925 9a3a
000003b0: 8c2a 043e dd0f f03d d543 333f 1da2 29be
000003c0: b88e 26bd bef3 f8be 31ce 94bf f42e 0abf
000003d0: 10c0 803e 040a 213e cd4e 3f3f 74bb a1bf
000003e0: c01b 96bd 366b a03e 0e81 8abe 0720 a3be
000003f0: d82e 9f3f beb7 9f3f b40c 893f 325a b53f

fc.bias f4 [18]
0.36187816 -0.5680973 -0.6543073 -0.6207295 -0.5506068 -0.62199205 -0.5849112 -0.68563056
-0.7298187 -0.3749028 -0.2156759 -0.47646654 -0.5444692 -0.46325427 -0.8395602 -0.6280624
-0.42326033 -0.491236
00000000: 1848 b93e d36e 11bf af80 27bf 21e8 1ebf
00000010: 91f4 0cbf df3a 1fbf bebc 15bf 7c85 2fbf
00000020: 66d5 3abf 43f3 bfbe 25da 5cbe 6cf3 f3be
00000030: 5562 0bbf aa2f edbe 6bed 56bf b3c8 20bf
00000040: 94b5 d8be 4983 fbbe

exp_avg f4 [512, 4]
-0.00015976696 -2.8983557e-06 -4.9182858e-05 0.00021184825 -2.8742761e-05 4.8025988e-05 -4.1499763e-05 2.221658e-05
-1.0752122e-05 1.3517738e-05 -3.5007648e-05 3.2242042e-05 1.362601e-06 -2.6994416e-05 -2.8548928e-05 5.4180746e-05
4.0928164e-05 5.655812e-06 -3.5310815e-05 -1.1273168e-05 3.1081433e-06 -3.7862294e-06 1.1846405e-05 -1.1168318e-05
1.0110514e-06 -1.950108e-05 4.7788826e-06 1.3711146e-05 3.921759e-06 -1.1607173e-05 -7.8276895e-07 8.4681815e-06
-1.20074565e-05 -1.2734977e-05 1.454767e-05 1.0194773e-05 -1.4772658e-05 1.0638626e-05 -1.4365502e-05 1.8499532e-05
-8.134822e-06 -9.820277e-06 -9.790099e-06 2.7745204e-05 3.616143e-05 4.853844e-06 -1.3741499e-05 -2.7273765e-05
2.2041471e-05 -4.1545395e-06 1.2925824e-05 -3.0812756e-05 -1.1876743e-05 1.0383064e-05 -3.9962586e-05 4.1456253e-05
1.1983445e-05 2.374214e-06 -3.4606362e-06 -1.0897023e-05 -5.477697e-06 5.6451804e-06 6.848305e-06 -7.015797e-06
1.19876395e-05 -1.8943094e-05 -2.3590823e-05 3.0546264e-05 -6.146029e-06 1.44521555e-05 -7.618108e-06 -6.880311e-07
-1.1729534e-05 -5.9019485e-06 -1.1788156e-05 2.9419634e-05 2.3055603e-05 -4.0754298e-07 -2.6144276e-05 3.496222e-06
2.3153585e-05 -5.218651e-06 6.215089e-06 -2.4150027e-05 -9.1457705e-06 -6.0533384e-06 -3.3730385e-06 1.8572147e-05
5.5910696e-06 -1.2298905e-06 -2.587215e-05 2.1510976e-05 -2.0800373e-06 1.5508154e-05 -2.9943153e-06 -1.0433793e-05
-2.6424277e-06 -8.978277e-06 1.0530019e-06 1.0567698e-05 -1.0573732e-05 -8.982664e-06 7.702584e-06 1.1853816e-05
2.4936946e-06 8.770859e-07 9.429679e-06 -1.2800479e-05 -4.6274904e-06 5.4972056e-06 -3.4846146e-06 2.6148973e-06
-1.2029097e-06 -1.6169025e-07 -1.5838228e-05 1.7202823e-05 9.990605e-06 -1.3585936e-05 1.7735112e-05 -1.413977e-05
-2.6146854e-06 -7.114949e-06 -1.5460757e-05 2.5190393e-05 1.5687805e-05 5.023163e-06 -6.7360556e-06 -1.3974917e-05
1.0297479e-05 -1.2945127e-05 6.508772e-07 1.9967679e-06 -1.1125975e-05 -1.4072965e-05 2.0498264e-05 4.7006733e-06
-1.113282e-08 3.3668748e-06 -1.861614e-05 1.5260399e-05 2.7704202e-06 3.4002242e-06 -3.0145234e-06 -3.1561322e-06
-1.36007775e-05 8.967564e-06 1.592652e-05 -1.12933e-05 1.541783e-05 5.02543e-06 -4.311802e-06 -1.6131464e-05
4.6960777e-06 1.265403e-05 -1.3820079e-05 -3.530019e-06 4.644686e-06 9.294275e-06 -1.9468796e-06 -1.1992087e-05
2.4367532e-06 -8.163663e-07 -1.3027052e-05 1.1406664e-05 -1.3591788e-06 3.465884e-06 -6.8341396e-06 4.727439e-06
-3.902084e-06 -5.557734e-06 4.315248e-06 5.144571e-06 1.041733e-05 1.065276e-06 4.7726007e-06 -1.6255204e-05
-6.6374887e-06 5.949838e-06 -1.1163188e-05 1.1850833e-05 7.5243765e-06 -3.741254e-06 -4.965708e-07 -3.2865603e-06
3.822189e-06 2.9618247e-06 -4.1142238e-07 -6.3725847e-06 1.6555538e-05 -4.935177e-06 -2.0412326e-06 -9.579118e-06
9.878869e-06 7.461925e-06 -3.2233038e-06 -1.4117488e-05 -1.4701573e-05 -2.2490958e-06 1.5444317e-05 1.5063455e-06
6.908651e-07 2.2949845e-07 6.0234543e-06 -6.943823e-06 -5.3478543e-06 -4.7905532e-06 -5.387045e-06 1.5525455e-05
-8.438075e-07 -1.7446278e-06 7.0774026e-06 -4.488966e-06 5.9975713e-07 8.1198027e-07 -4.313252e-06 2.9015157e-06
3.8367366e-06 1.9332965e-07 7.5636462e-06 -1.1593709e-05 2.5989048e-06 1.381411e-06 -1.9244178e-06 -2.0559003e-06
1.39376025e-05 7.55253e-07 -8.127187e-06 -6.5656745e-06 1.7665643e-05 -5.641331e-06 -4.0145515e-06 -8.009752e-06
1.925488e-06 4.3171535e-06 3.1735021e-06 -9.416147e-06 -4.85688e-06 -5.745983e-06 -3.4699847e-06 1.4072852e-05
2.902848e-06 -7.884555e-06 1.0654018e-05 -5.6723106e-06 -3.831487e-06 2.6859968e-06 5.8742135e-06 -4.728726e-06
9.192564e-07 -5.640082e-06 -6.517559e-06 1.1238387e-05 6.713207e-06 -3.3716517e-06 4.7658323e-06 -8.107385e-06
00000000: 1e87 27b9 5f81 42b6 b149 4eb8 9523 5e39
00000010: 9c1c f1b7 836f 4938 0810 2eb8 be5d ba37
00000020: 0364 34b7 3eca 6237 2dd5 12b8 a13b 0738
00000030: 9de2 b635 1172 e2b7 5b7c efb7 2240 6338
00000040: 48aa 2b38 0ec7 bd36 b31a 14b8 e321 3db7
00000050: 7f95 5036 ed16 7eb6 ecbf 4637 905f 3bb7
00000060: 76b3 8735 4096 a3b7 4a5a a036 ec08 6637
00000070: a797 8336 6ebc 42b7 791f 52b5 9012 0e37
00000080: a273 49b7 4fa8 55b7 c411 7437 370a 2b37
00000090: 15d8 77b7 8d7c 3237 5c03 71b7 712f 9b37
000000a0: cb7a 08b7 c5c1 24b7 2840 24b7 5fbe e837
000000b0: 0aac 1738 34de a236 4a8b 66b7 f7c9 e4b7
000000c0: b3e5 b837 3967 8bb6 fedb 5837 f23c 01b8
000000d0: 3942 47b7 ec32 2e37 809d 27b8 50e1 2d38
000000e0: 810c 4937 b054 1f36 473d 68b6 5bd2 36b7
000000f0: 0fcd b7b6 bb6b bd36 7eca e536 3d69 ebb6
00000100: 851e 4937 fce7 9eb7 e8e4 c5b7 cd1e 0038
00000110: fd39 ceb6 8977 7237 0d9f ffb6 23b1 38b5
00000120: f7c9 44b7 5a09 c6b6 bfc5 45b7 2fca f637
00000130: 8867 c137 48cc dab4 6850 dbb7 a3a0 6a36
00000140: f239 c237 df1b afb6 358b d036 ca95 cab7
00000150: c970 19b7 c81d cbb6 5c5c 62b6 62cb 9b37
00000160: ec9a bb36 b712 a5b5 0508 d9b7 7872 b437
00000170: c596 0bb6 8217 8237 f2f1 48b6 cd0c 2fb7
00000180: 9054 31b6 68a1 16b7 df54 8d35 eb4b 3137
00000190: d565 31b7 40b4 16b7 593a 0137 c1df 4637
000001a0: 5959 2736 e270 6b35 2a34 1e37 a4c1 56b7
000001b0: d745 9bb6 a374 b836 39d9 69b6 987b 2f36
000001c0: aa73 a1b5 149d 2db4 56dc 84b7 c84e 9037
000001d0: 529d 2737 27ef 63b7 ddc5 9437 da39 6db7
000001e0: f477 2fb6 f2bc eeb6 b9b1 81b7 f54f d337
000001f0: 4e99 8337 a48c a836 4706 e2b6 d075 6ab7
00000200: 56c3 2c37 e62e 59b7 f1b7 2e35 3600 0636
00000210: b3a9 3ab7 ed1a 6cb7 b0f3 ab37 7aba 9d36
00000220: a942 3fb2 78f2 6136 db29 9cb7 7503 8037
00000230: 75eb 3936 682f 6436 1e4d 4ab6 f0cd 53b6
00000240: e52e 64b7 6573 1637 f199 8537 5b78 3db7
00000250: 8a55 8137 1da0 a836 19ae 90b6 0e52 87b7
00000260: 0093 9d36 a54c 5437 cadc 67b7 44e5 6cb6
00000270: 8dd9 9b36 9bee 1b37 23a7 02b6 9f31 49b7
00000280: 1a87 2336 4424 5bb5 c38e 5ab7 405f 3f37
00000290: 076d b6b5 6f97 6836 d050 e5b6 64a0 9e36
000002a0: a5ee 82b6 927c bab6 b3cb 9036 879f ac36
000002b0: 17c6 2e37 9bfa 8e35 5424 a036 c95b 88b7
000002c0: 98b7 deb6 b8a4 c736 8749 3bb7 f1d2 4637
000002d0: e779 fc36 4112 7bb6 164c 05b5 ad8e 5cb6
000002e0: 5a40 8036 c3c3 4636 76e1 dcb4 16d4 d5b6
000002f0: bfe0 8a37 d998 a5b6 1cfc 08b6 00b6 20b7
00000300: 6bbd 2537 7361 fa36 f04f 58b6 26da 6cb7
00000310: c6a6 76b7 2cef 16b6 6b8e 8137 a32d ca35
00000320: e373 3935 0e6c 7634 141d ca36 fcfe e8b6
00000330: b871 b3b6 8abe a0b6 5dc2 b4b6 a93c 8237
00000340: 0382 62b5 f428 eab5 6d7a ed36 ed9f 96b6
00000350: fffe 2035 dcf6 5935 8dba 90b6 a9b7 4236
00000360: 51bd 8036 0d96 4f34 3acb fd36 9a82 42b7
00000370: d868 2e36 ec68 b935 3f25 01b6 19f8 09b6
00000380: 8cd5 6937 97bc 4a35 015a 08b7 b74e dcb6
00000390: ae30 9437 aa4a bdb6 bcb4 86b6 9f61 06b7
000003a0: a237 0136 11dc 9036 5af8 5436 0bfa 1db7
000003b0: 48f8 a2b6 9ecd c0b6 e2dd 68b6 701a 6c37
000003c0: 8dce 4236 e847 04b7 a9be 3237 c754 beb6
000003d0: 3990 80b6 1341 3436 1c1b c536 72ab 9eb6
000003e0: d2c2 7635 ef3f bdb6 68b1 dab6 818c 3c37
000003f0: 0242 e136 8944 62b6 30ea 9f36 f404 08b7

exp_avg_sq f4 [512, 4]
2.1308664e-07 6.889244e-08 2.5025167e-07 2.8876963e-07 3.6542808e-08 1.8487045e-08 2.861489e-08 4.3265125e-08
3.2499152e-08 1.5297616e-08 2.7198634e-08 3.4573088e-08 2.4877904e-08 1.16967245e-08 1.965075e-08 2.9683653e-08
1.5454994e-08 5.827325e-09 1.2523609e-08 1.5442561e-08 1.14200605e-08 6.036328e-09 1.22596076e-08 1.3914442e-08
7.4362996e-09 4.4097077e-09 8.209714e-09 8.977287e-09 9.304609e-09 4.4977257e-09 7.854979e-09 1.053908e-08
1.0056202e-08 3.7130283e-09 9.205115e-09 1.1450421e-08 5.6656013e-09 2.9116927e-09 6.130332e-09 7.238767e-09
6.047582e-09 2.70898e-09 5.6980913e-09 6.678351e-09 5.491956e-09 2.1876183e-09 4.973827e-09 6.605263e-09
5.164774e-09 2.3867928e-09 5.180463e-09 6.162595e-09 4.6301674e-09 2.3535751e-09 4.408246e-09 5.3342735e-09
3.956243e-09 1.9278896e-09 4.4663793e-09 5.1082605e-09 3.870558e-09 1.9104596e-09 4.267806e-09 4.905677e-09
4.0533097e-09 1.7280035e-09 4.1296735e-09 5.2252687e-09 3.4402499e-09 1.6753825e-09 3.1002638e-09 4.0904125e-09
3.3473466e-09 1.6543853e-09 3.3296677e-09 4.4035655e-09 3.3741492e-09 1.3718128e-09 3.6914474e-09 3.842534e-09
2.9479463e-09 1.4748522e-09 2.7543792e-09 3.5277352e-09 2.6095277e-09 1.2537997e-09 2.7820348e-09 3.1243368e-09
2.659908e-09 1.1845241e-09 2.6322404e-09 3.1042153e-09 2.7796263e-09 1.3485817e-09 2.5591833e-09 3.0089193e-09
2.2253224e-09 1.1878006e-09 2.1826534e-09 2.7406406e-09 2.464971e-09 1.077125e-09 2.3896276e-09 2.9000435e-09
2.0730775e-09 1.1413627e-09 2.081594e-09 2.5636846e-09 2.4500622e-09 1.1056293e-09 2.2343751e-09 2.952698e-09
2.2016946e-09 1.0265975e-09 2.2481736e-09 2.5274194e-09 2.0508308e-09 8.028873e-10 1.7812695e-09 2.3228757e-09
1.945003e-09 8.8977997e-10 1.8534755e-09 2.0837843e-09 1.7240841e-09 9.1317065e-10 1.6345864e-09 1.8740647e-09
1.8026888e-09 8.167535e-10 1.7599816e-09 2.1600501e-09 1.521203e-09 7.904943e-10 1.7366827e-09 1.8787558e-09
1.5764114e-09 6.835804e-10 1.7365682e-09 1.8456322e-09 1.8481177e-09 7.6621126e-10 1.534644e-09 2.1204871e-09
1.6169588e-09 7.137834e-10 1.6725726e-09 2.1407043e-09 1.4840943e-09 6.3227085e-10 1.4811928e-09 1.6864691e-09
1.5604639e-09 7.009436e-10 1.4557416e-09 1.8454188e-09 1.4141008e-09 5.9630606e-10 1.447658e-09 1.7153441e-09
1.4495133e-09 6.5137756e-10 1.434088e-09 1.68043e-09 1.3271928e-09 6.1310196e-10 1.3044332e-09 1.4825108e-09
1.3569216e-09 5.70862e-10 1.210984e-09 1.6219248e-09 1.1790469e-09 5.478393e-10 1.0833784e-09 1.456096e-09
1.1685728e-09 4.909847e-10 1.2694819e-09 1.2669694e-09 9.848359e-10 4.743229e-10 1.0699631e-09 1.176648e-09
1.1434242e-09 5.153028e-10 1.1732619e-09 1.3253744e-09 1.1430117e-09 4.975064e-10 1.106799e-09 1.2682251e-09
1.0550484e-09 5.22713e-10 9.961151e-10 1.2680311e-09 1.062719e-09 4.9379373e-10 1.0702133e-09 1.3299137e-09
9.1772423e-10 4.868674e-10 9.6655e-10 1.0267696e-09 9.449594e-10 4.0414946e-10 1.0017144e-09 1.0373523e-09
8.515708e-10 4.3041654e-10 9.640038e-10 1.0520635e-09 9.049495e-10 4.713896e-10 8.606713e-10 1.0866458e-09
8.578574e-10 4.2777323e-10 8.971325e-10 1.0363609e-09 8.2378193e-10 3.555588e-10 8.6418056e-10 9.79552e-10
9.173098e-10 4.108587e-10 8.6425e-10 1.1423099e-09 7.6290013e-10 3.982309e-10 8.480274e-10 9.244055e-10
7.4119183e-10 3.79719e-10 7.7049594e-10 8.7004e-10 8.767072e-10 4.2253417e-10 8.568118e-10 9.2589897e-10
8.9367397e-10 4.0608272e-10 8.424694e-10 9.992276e-10 7.3995776e-10 2.8101038e-10 7.335312e-10 7.878919e-10
6.8982e-10 3.6579137e-10 7.3658163e-10 8.325746e-10 7.930322e-10 3.4383055e-10 7.196685e-10 8.9926794e-10
00000000: cfcc 6434 05f2 9333 545a 8634 3208 9b34
00000010: 3ef3 1c33 71cd 9e32 cfcc f532 82d2 3933
00000020: 3295 0b33 d067 8332 6ea2 e932 837d 1433
00000030: 17b3 d532 bdf2 4832 75cc a832 0bfb fe32
00000040: e4c1 8432 b139 c831 6a27 5732 8da6 8432
00000050: f531 4432 1a68 cf31 539e 5232 5d0c 6f32
00000060: 6282 ff31 3384 9731 b40a 0d32 873a 1a32
00000070: 1ada 1f32 6a8a 9a31 90f2 0632 5d0f 3532
00000080: a5c3 2c32 4928 7f31 8624 1e32 7cb7 4432
00000090: 28ab c231 0a17 4831 f8a2 d231 deb8 f831
000000a0: 18cb cf31 e128 3a31 f1c8 c331 6677 e531
000000b0: c1b3 bc31 fd54 1631 3fe6 aa31 82f4 e231
000000c0: d575 b131 e704 2431 d6ff b131 c2be d331
000000d0: 6217 9f31 88bc 2131 5877 9731 c448 b731
000000e0: 7bef 8731 cb7b 0431 b076 9931 bc84 af31
000000f0: cafd 8431 2949 0331 05a4 9231 cb8e a831
00000100: 4a45 8b31 b87e ed30 fee4 8d31 f389 b331
00000110: 8469 6c31 4843 e630 6b0c 5531 a68b 8c31
00000120: 2507 6631 8260 e330 22d0 6431 2c4e 9731
00000130: a9de 6731 5f8a bc30 a1ac 7d31 4907 8431
00000140: d294 4a31 c0b3 ca30 8d47 3d31 936c 7231
00000150: 4c53 3331 2852 ac30 132e 3f31 eab3 5631
00000160: 99c9 3631 bdcc a230 dde2 3431 ef51 5531
00000170: b403 3f31 0059 b930 a1dd 2f31 78c5 4e31
00000180: 49ec 1831 0540 a330 a5fd 1531 dc55 3c31
00000190: 3a64 2931 f709 9430 c636 2431 1b4a 4731
000001a0: f775 0e31 21de 9c30 ca0b 0f31 d12c 3031
000001b0: f35d 2831 dff4 9730 8b8b 1931 6ae8 4a31
000001c0: 9f4c 1731 3018 8d30 4a7e 1a31 d5ae 2d31
000001d0: 99ee 0c31 2cb2 5c30 d9d0 f430 76a0 1f31
000001e0: dba8 0531 b394 7430 5fbd fe30 5232 0f31
000001f0: d1f4 ec30 ac02 7b30 e5a7 e030 e5c8 0031
00000200: 79c2 f730 eb81 6030 d9e3 f130 0170 1431
00000210: 9312 d130 174a 5930 17b0 ee30 6c1b 0131
00000220: 0ca9 d830 b2e6 3b30 10ac ee30 69a9 fd30
00000230: dc00 fe30 539d 5230 7ceb d230 01b8 1131
00000240: ae3b de30 0b34 4430 6be0 e530 ab1b 1331
00000250: edf8 cb30 1bcc 2d30 d792 cb30 5bc9 e730
00000260: f177 d630 85ac 4030 5b13 c830 e7a1 fd30
00000270: 405a c230 4fe9 2330 f0f6 c630 4ec1 eb30
00000280: 3738 c730 9f0c 3330 7c19 c530 e0f4 e630
00000290: 7268 b630 3787 2830 aa47 b330 36c1 cb30
000002a0: 6f7e ba30 d8ea 1c30 b66f a630 68ea de30
000002b0: 060c a230 c396 1630 fde5 9430 d31f c830
000002c0: 809b a030 faf5 0630 ec79 ae30 8621 ae30
000002d0: d55a 8730 8261 0230 fb0d 9330 9fb7 a130
000002e0: aa26 9d30 36a5 0d30 7c40 a130 7728 b630
000002f0: 2618 9d30 e7c0 0830 071e 9830 b44d ae30
00000300: 3701 9130 a8ae 0f30 afe7 8830 e146 ae30
00000310: 1a0f 9230 a5bb 0730 c816 9330 2ec8 b630
00000320: 1a43 7c30 3fd4 0530 74d7 8430 3e1e 8d30
00000330: cedf 8130 fb2e de2f b1ac 8930 9792 8e30
00000340: f813 6a30 be9f ec2f de7d 8430 3298 9030
00000350: 29c0 7830 1893 0130 5c94 6c30 f358 9530
00000360: 59ce 6b30 bb2b eb2f 169a 7630 b56f 8e30
00000370: 8070 6230 7478 c32f 4d8b 6d30 eca0 8630
00000380: f025 7c30 39df e12f 3090 6d30 75ff 9c30
00000390: 53b4 5130 04ee da2f a01a 6930 4119 7e30
000003a0: bdbc 4b30 b3c0 d02f d5ca 5330 9f27 6f30
000003b0: c9fc 7030 664a e82f c584 6b30 5982 7e30
000003c0: b7a6 7530 103f df2f 8493 6730 3255 8930
000003d0: e665 4b30 b27c 9a2f aba1 4930 f792 5830
000003e0: c49d 3d30 8f18 c92f 5378 4a30 3bdb 6430
000003f0: aefc 5930 d905 bd2f 2bd2 4530 5b30 7730
